model/500_200_80/ini_Theta4.npy (npy, 6608 bytes, 1 tensors)

array f8 [10, 81]
00000000: 5c06 a87b 9e50 63bf 48ec 682c bab0 60bf
00000010: 884f 2560 b190 5d3f 2c59 9281 8ca8 80bf
00000020: 708a 3ad7 61e8 6b3f 3cc3 0475 3809 673f
00000030: ec2c 0b2e 3757 73bf ac5a bcca 8ca2 733f
00000040: 5a2e 80d4 4d56 73bf c526 8bb0 0e1d 81bf
00000050: b4b1 e679 7edf 6abf 0094 a249 d182 3ebf
00000060: d023 2844 4b55 533f d0d7 8893 0a18 47bf
00000070: af18 890c b443 813f ccf3 c144 ed8b 60bf
00000080: 5c56 2235 d51d 70bf e765 0046 7826 823f
00000090: 60a2 7210 7879 363f a430 c5b5 025a 83bf
000000a0: 08cd 2ccd d318 703f 683b 6c65 999d 5cbf
000000b0: 1022 42a1 1057 6cbf 2ea6 97d3 b346 78bf
000000c0: 5234 d16b 9809 77bf 67b3 51c6 4ece 83bf
000000d0: 5ce3 b233 882a 7fbf f0b1 63a4 1be1 4f3f
000000e0: c096 f98b 2cd2 21bf 71f6 b38a 0e37 76bf
000000f0: 8f83 0daf 1819 843f c488 ee29 5ea5 6c3f
00000100: e6af a980 f0e7 6dbf 669d d8c1 12f9 67bf
00000110: e686 5ea8 4a4a 733f b1b7 5787 2ae1 7dbf
00000120: a0c3 74d8 aee4 4b3f 943d b663 63bf 6d3f
00000130: e231 72b0 d5cf 7cbf 11a6 d581 69d4 823f
00000140: dc50 cd99 0ff1 733f 5697 3bba 5f26 7f3f
00000150: 61f2 1b3f 26df 823f 8740 b81f 9cc1 833f
00000160: aaad 2cdc 1597 6fbf 055c 783d 979d 77bf
00000170: 24fa fbb4 88f2 78bf f1d3 3033 3209 72bf
00000180: fb90 011d 7a13 7dbf e0f2 d69d fc34 5e3f
00000190: a075 cb21 9e87 41bf ea1b b7e5 b150 84bf
000001a0: 74d5 4d1e 73fa 7fbf 92ac 8530 5535 7dbf
000001b0: 5059 abc9 ea37 713f 3ae9 5fab 16d1 713f
000001c0: 523a c0b1 fd61 73bf f8b7 2f9d fcf5 7abf
000001d0: 2c70 3208 489f 77bf 9efb 6a78 7588 783f
000001e0: 691c 0e1e 585a 803f b455 218b 0e38 65bf
000001f0: 4c5f 8698 cfcb 703f 0ae0 4b6e 4d4c 743f
00000200: 7405 0f86 8e7e 79bf 2a6f c173 e7fe 62bf
00000210: 180e 8982 7c0d 623f 002c c4c1 76c0 6c3f
00000220: 15ad 5236 9adc 83bf 5de8 ded8 4bc4 803f
00000230: eee5 e911 e0c5 7a3f e2bd 8cfb 7b4d 6dbf
00000240: 9e38 2bb5 7b1a 783f 2246 283b e4f3 773f
00000250: 228c 5f43 17e8 713f df8a d208 ba04 803f
00000260: bd4b f598 0060 823f 532f 9432 9116 84bf
00000270: e328 8a4e 11be 823f 35fa fab9 2382 80bf
00000280: 62f3 319c c0ec 713f 0ab2 6a1b 1f87 7cbf
00000290: b0c6 54ee ff98 663f 440f cbd4 2e62 693f
000002a0: e617 f0b1 712d 793f 4a62 9430 bdb8 78bf
000002b0: 0610 5e6f 8124 7e3f 56c3 23cd a736 7a3f
000002c0: 4477 ca42 b2d7 6c3f 9cea 835e e708 75bf
000002d0: 5aec d7b9 7088 7a3f 3313 4052 77b7 83bf
000002e0: 0b4f 12e2 9d07 803f 9b60 a715 c71b 84bf
000002f0: 9081 3a50 2d51 78bf 3e49 2da9 e413 7bbf
00000300: fab8 85a8 711a 7b3f e4b6 2d3f 8703 79bf
00000310: f094 9e47 9453 81bf f05b 962c ef74 61bf
00000320: 2017 b73e aa0f 443f f42e f1f5 58cd 623f
00000330: 489c 8fc9 572f 75bf 6c1c feda 38fe 7cbf
00000340: 5a62 ac72 d951 703f c8fe 5b67 859e 683f
00000350: c0cc 713b 2d4b 2bbf f36b f6f9 6315 833f
00000360: 4053 6a68 e9ca 82bf fb8e 19af cf89 82bf
00000370: e343 04bc 4d99 813f daaa 6840 e998 723f
00000380: 5338 4f7c 6426 81bf 526b 4197 5a3e 7bbf
00000390: b371 4523 ba3e 71bf 3013 64cf 906d 473f
000003a0: c08d 3143 a8dc 75bf e050 ad84 6a2e 56bf
000003b0: b44d bfa2 88cc 7bbf e758 892a 7704 833f
000003c0: dad0 2bc2 6f4b 733f 4496 a6db e1f1 60bf
000003d0: 2023 1ddc 74aa 80bf 60a4 6e2e 7f52 693f
000003e0: 408d 07a9 8e62 51bf 1812 3743 0d9e 50bf
000003f0: f04d 99b2 9d67 46bf ffa4 de27 a23c 84bf
00000400: 8d22 65c3 69fe 78bf 9af6 f190 f81e 6fbf
00000410: 4827 0b1c 4fe4 5c3f d07e cc05 2c30 50bf
00000420: 88bd b1c3 be19 74bf caac 4960 851f 83bf
00000430: ca9d cf41 60d5 7e3f f458 674d c772 80bf
00000440: 72cb 77dd d516 793f 7e97 8e77 8b96 78bf
00000450: 5338 c635 0df6 81bf dd5e bd0a 7b83 813f
00000460: 8a9b 3637 51f8 61bf 1e6d e81e ae9c 69bf
00000470: b8c2 0e68 c401 523f 76b2 8617 8e33 6ebf
00000480: 9d63 7f8a 1456 833f 23f5 09e3 0058 803f
00000490: d0e1 3020 076c 48bf c0de a93a efe1 713f
000004a0: b6e6 877c d228 81bf c9dd 4673 7063 84bf
000004b0: 48d7 58ee 5a93 82bf 4c11 e813 4ce6 6d3f
000004c0: 0802 19fe 2523 563f 8225 bdda ddae 773f
000004d0: ccd4 f690 9516 6bbf 02bf 2214 1e77 7cbf
000004e0: 234a a124 f018 833f 8261 7fdd d17d 723f
000004f0: 50ba b7c4 3f1f 47bf c8ab 7d53 fa68 79bf
00000500: 1402 b001 18ee 6a3f 10b7 ad24 df5a 603f
00000510: f07f 72f1 7544 4abf c0e1 ca54 7904 3cbf
00000520: 1e47 0457 1ec5 6cbf efa3 d8d7 687d 803f
00000530: ccf4 d1a4 4f5a 6cbf a26d 2347 1d91 783f
00000540: 8ab5 6f66 9190 6bbf 4cb2 4c87 7a79 62bf
00000550: 02bd 0393 ad5e 79bf e071 327a adf0 83bf
00000560: 80fe 4ec4 2736 3b3f 6c64 806f 5e6b 733f
00000570: b853 72ca f211 573f e7ba 58c6 f35b 803f
00000580: a9d2 da9d 8259 78bf 170e db3b a2ca 7cbf
00000590: fccb 1a53 b075 763f ed18 8b80 f163 80bf
000005a0: 68f4 197c 2a0b 583f aeb9 5521 a2a6 74bf
000005b0: 8a9e dc7a 8ab5 65bf 66e9 7af5 4d33 7a3f
000005c0: 0cce b5b7 a249 633f a64a 9d25 f8ff 7fbf
000005d0: 7c43 0763 8501 683f 309e 1a9b a486 4a3f
000005e0: c0a9 ae51 5f7a 79bf 30ab e7e8 1e74 5a3f
000005f0: 5f31 6652 cc48 71bf a424 3ae8 27ad 683f
00000600: 2e40 e830 ff74 66bf ee34 86ca d939 74bf
00000610: f666 edb6 dfaa 71bf e8d3 3539 dec2 5c3f
00000620: d0ed 5406 a68f 483f a071 22d7 8c66 6d3f
00000630: 1f54 ef1b 2c13 73bf 3ddb e775 c495 823f
00000640: 660d 39f5 b3e2 723f e4c0 313f ac66 81bf
00000650: 5eeb c9f3 223d 7a3f 6c6f 80f6 2651 6ebf
00000660: ca36 8c37 6bf1 75bf a6da 978f 4699 7f3f
00000670: fa43 fb8d 3d95 7e3f 83fc 424f 007f 72bf
00000680: a07c 7f47 4e16 33bf c3e6 2fd9 897a 823f
00000690: ec86 9e51 3ebb 7fbf f3b0 aac0 eefa 73bf
000006a0: 68a7 5794 8aa8 54bf 9ab2 1535 7ef6 67bf
000006b0: 7a1c 2197 296c 62bf 5630 191d a4ef 7f3f
000006c0: 2799 4c5b a9b4 803f d027 8583 5312 5b3f
000006d0: a866 cbe3 861a 82bf 10cf 3588 c12a 69bf
000006e0: 9570 7569 0ecb 823f fd17 2544 4dfc 803f
000006f0: 7d33 e246 9954 803f ccbb afc9 e113 6abf
00000700: 4ab1 b5e9 8cf7 73bf 26c0 fe36 35ec 793f
00000710: 1510 5348 56da 803f bd81 64c9 c26e 843f
00000720: 2030 c318 f6ae 383f 0829 5bca e552 7abf
00000730: 3b96 e25d 0a4e 75bf e27b 1309 87f2 773f
00000740: ec72 c31d 6a69 6a3f a70c 53ea 71e4 76bf
00000750: 6c55 495e a8fb 743f 0786 5120 9369 813f
00000760: e3ec 2feb b8c0 813f 4aae 4744 6eab 7dbf
00000770: ea03 51c7 64f8 793f c360 3b3d dd89 75bf
00000780: 5042 1ab1 11bd 79bf 9ad0 e928 8f8f 783f
00000790: 378b 1f18 6c01 83bf 1074 1b68 377f 733f
000007a0: 4c0b 5a05 280d 6b3f dcb5 bdf6 9806 613f
000007b0: 98bd d157 5a0f 733f 81b2 9cc7 242a 833f
000007c0: 3b2c 8854 3bb1 79bf 8006 50ac cc5a 723f
000007d0: 14da 76b2 6c60 603f 4e2b c265 61be 7e3f
000007e0: 0826 0dbb 2e92 78bf 00c0 0cb1 1012 b9be
000007f0: 9862 4b04 3323 57bf bf97 87ee d45a 80bf
-0.0023577781078081683 -0.0020373951149657323 0.001804517000512514 -0.008133981422628077 0.0034067069007773162 0.002812013881474588 -0.004721847101517112 0.004793691605093169
-0.004720977805856197 -0.008356203806573767 -0.0032803983915156935 -0.0004655610042710312 0.00118000364511971 -0.0007047702448008623 0.008429915077737908 -0.0020198473121681767
-0.003934700815212713 0.008862437855031892 0.0003429334760292387 -0.00944902531832554 0.003929927205535984 -0.001746558953246791 -0.00345948455839485 -0.005926802108186231
-0.005624385256919844 -0.00967084448549267 -0.0076089210880859424 0.0009728798839013213 -0.00013596338066006707 -0.005423600009860517 0.009813492624461321 0.0034968222748413564
-0.0036506364170261095 -0.002926384577921648 0.004709521895991142 -0.007294813277878663 0.0008512357461879401 0.003631300087085962 -0.007034144137957972 0.0091942064998021
0.004868565502722268 0.007604955611645389 0.009214686203898372 0.00964662524987171 -0.0038562228159173166 -0.005765524656019321 -0.006090673457718885 -0.0044033013282858005
-0.007098652844522708 0.0018436877211193622 -0.0005349657181700669 -0.009919538328984918 -0.007807206803467682 -0.0071309402195353245 0.004203717365007201 0.004349793007344888
-0.004732123368752799 -0.0065822475180379245 -0.005767136931492483 0.00598951231830727 0.0079848179027648 -0.002590206532697004 0.004100619240851543 0.004955580200423535
-0.006224209530900072 -0.0023188133764459233 0.002203696425824974 0.003509742686337969 -0.009698109419636705 0.008186905437345066 0.006536364816037017 -0.0035769864593004777
0.005884631379286768 0.005847827460927076 0.0043717297284926755 0.007821515459288829 0.00897217242041914 -0.00980866847614662 0.00915158768591024 -0.008060721505327976
0.004376175292347325 -0.006964799415680742 0.0027585028316473234 0.003098575083955087 0.00614685451637873 -0.006035555861011741 0.007359033208448556 0.006399779771741295
0.003520820775817864 -0.005135444436968808 0.006477775893922811 -0.009627277562694303 0.007827027761130553 -0.009818606708833768 -0.005936791425171242 -0.0066107685150476585
0.006617015817353295 -0.006106880481508734 -0.008460195956852407 -0.0021309539194578273 0.0006122189783403821 0.0022951829446692332 -0.005172102851225331 -0.0070783825793859605
0.003984307676340915 0.0030052762548392377 -0.00020823409224455212 0.009318142953636843 -0.009176085947993351 -0.009051916628954873 0.008593184757531297 0.0045403586760055185
-0.008374009173987817 -0.006651262159801901 -0.004210211849877177 0.0007149655419032893 -0.005337388301174639 -0.001353839895007751 -0.006786855443312079 0.00928586100159774
0.004710613781515794 -0.002068463448454934 -0.008137619941082586 0.003091095353245296 -0.0010610955397332839 -0.0010142449872186984 -0.0006837387092652452 -0.00988127407238659
-0.006102002275220853 -0.0037989477928580097 0.0017634174875404574 -0.000988047591086106 -0.004907365010793703 -0.009337465287180175 0.007527709964939297 -0.008031422662423605
0.006125293169577316 -0.006002945702595739 -0.008770087436257656 0.008551560654879104 -0.002193602203721172 -0.003126468734320333 0.0010990541488632832 -0.0036866927368548975
0.009441528774844882 0.007980353287389058 -0.0007452997964554845 0.00436585854423982 -0.00837864344156301 -0.009955290334672367 -0.009070120238088855 0.003649853314757012
0.0013511534711058166 0.005782000178279902 -0.0033066674438609663 -0.006949536795374691 0.009324909322605162 0.0045145223484371905 -0.0007056294793395621 -0.0062036302914334
0.0032873600844143345 0.0019964559809783136 -0.0008016181845000841 -0.0004275127619553197 -0.0035119621826503874 0.008051699721436349 -0.0034610324424294344 0.005997766844497406
-0.0033648338171505298 -0.002255191148284907 -0.006193807625307858 -0.009736399928720496 0.0004152152144420787 0.00474106682670437 0.0014080878261541873 0.007987884989316863
-0.005944738598988288 -0.007029184079957249 0.005483330505444247 -0.008003126845676134 0.0014675059213964618 -0.005041726418637911 -0.002650042027102566 0.006396584059695653
0.002354448135230452 -0.007812470745039468 0.002930412789489299 0.0008095077266334124 -0.006220218982813497 0.0016145994046563132 -0.004219816334068176 0.003012254661204654
-0.002741335315711544 -0.0049379832711455695 -0.004313348660468943 0.0017554445410869982 0.0007495461146968477 0.003588938788267451 -0.004656956006290818 0.009074721191593244
0.004610732040933518 -0.00849661414960718 0.006405960590764119 -0.003700805758866046 -0.0053571880496414235 0.007714534405286832 0.007466545531955577 -0.004515649041592631
-0.0002912465201898116 0.009022786083721873 -0.007746928627882826 -0.004877979876862992 -0.0012608865084708602 -0.00292515420794921 -0.0022488415061477337 0.007796898907667401
0.008157084559183915 0.0016523185314149987 -0.008839658571946643 -0.0030721454547179075 0.009176361649842849 0.00829372753345225 0.007973859286971802 -0.0031833085936265656
-0.0048747543727184015 0.00632878100434201 0.008228944856803403 0.0099768846235414 0.0003766394445505767 -0.006426713580092398 -0.005201378340790759 0.005846526605835374
0.0032240936835549096 -0.005588955861813328 0.005122811974236679 0.008502149032383789 0.008668369939178472 -0.007243567208643118 0.006340402284934913 -0.005258430686545692
-0.006283825977917504 0.005996283739126218 -0.009280056463415327 0.004759994919109736 0.003302171865301606 0.0020783412527893685 0.004653313543811953 0.009357726422956293
-0.006272537001232921 0.004481124405175785 0.0019991038313620455 0.007505779704056815 -0.0059987855355045985 -1.4943222518930266e-06 -0.0014122007570930625 -0.007985747842166433
