model/500_200_80/ini_Theta3.npy (npy, 128768 bytes, 1 tensors)

array f8 [80, 201]
0	0xbf73363303661b78	-0.004690360327351033
1	0xbf702d31be55030a	-0.003949350653159165
2	0x3f6752abbd64db04	0.0028470377248156504
3	0xbf83a6680dc44256	-0.00959473888409083
4	0x3f49d2d4371161b0	0.0007880722242914941
5	0x3f59456aed419d20	0.001542429371534322
6	0xbf62c9eed3a49506	-0.002293554743249107
7	0x3f8155da4babfa03	0.008464532312697953
8	0xbf83b72f8145f0cf	-0.009626742489438204
9	0x3f79e8c1b6a37ace	0.00632548970517517
10	0x3f5f9f40752f21b8	0.0019300584287852262
11	0x3f7687f852d5ee38	0.0055007648601264544
12	0x3f78408e701712ee	0.005920940778598489
13	0xbf7dbb54ae6d8f17	-0.007258730684813994
14	0x3f77bd10411fc1d6	0.005795539373125233
15	0xbf82eb97f245fd11	-0.00923842151746482
16	0xbf742af0aafd5008	-0.004923763379185438
17	0x3f6b8962d782755c	0.0033614092354371915
18	0xbf46f2e954c7cd80	-0.0007003440201160255
19	0xbf59c8f14a61a1b0	-0.001573787341408655
20	0x3f7414edfef52188	0.0049027725902494115
21	0x3f7a4049bf511f02	0.006408966136468798
22	0x3f809f3ee5eb1205	0.00811623706011578
23	0xbf71c7e34416db67	-0.0043410184456921025
24	0xbf774751d6a34ea7	-0.00568325012337182
25	0xbf6a8d8fd47c29f0	-0.003241330068594943
26	0xbf836ae39fae91db	-0.009481218634228952
27	0xbf657fe54737ed9a	-0.0026244619455135345
28	0x3f7167a574319ce6	0.004249235443331422
29	0x3f40b6379f79fe60	0.0005100032421551763
30	0x3f7f139aab69097e	0.007587055376065853
31	0xbf5be721e6db6048	-0.0017030554840200707
32	0x3f7f3ea99291f0c2	0.007628118889553006
33	0x3f7909136e50ba0a	0.006112171079662785
34	0x3f53a7af990f9760	0.001199647409742842
35	0x3f6e1d3d4790175c	0.003676051794630304
36	0x3f754fc839a3c7ec	0.005203039292824823
37	0xbf72d6050d980e3e	-0.00459863637798069
38	0x3f63a349901c40d4	0.002397197415923905
39	0x3f7190f52e8f111a	0.00428863310020613
40	0x3f81a4702939b97f	0.00861442209062768
41	0xbf7c06ffc67817dc	-0.006842612383030269
42	0xbf7d8a9f3656fa9a	-0.007212278292569119
43	0xbf8081371e406d4c	-0.008058958636005052
44	0x3f56606606964ba0	0.0013657566399600599
45	0x3f6e179f53f79b7c	0.003673373401159306
46	0xbf7df3c5626b6ddf	-0.00731255629826985
47	0xbf7be09dc80fdb86	-0.0068060077037362995
48	0x3f66362c7cc076cc	0.0027113789456184364
49	0x3f206414ec9394c0	0.0001250529806277375
50	0xbf58d2adbd459690	-0.001515073458983638
51	0x3f33ff70df788180	0.00030514245688275515
52	0xbf72a9688a346945	-0.00455609165080723
53	0x3f8318243a78e259	0.009323390039854095
54	0x3f7fccc468635db2	0.00776364061149286
55	0x3f833e6a7bff74a1	0.009396392735590732
56	0xbf80032e1861abea	-0.007818565482201795
57	0x3f72af485cc84402	0.0045616938264325686
58	0xbf6fa590f96c2fec	-0.003863127854293316
59	0x3f7fa0d946903746	0.007721756680451558
60	0xbf71cb1e301053bb	-0.00434409896935944
61	0xbf7eceaa9c591db4	-0.007521311233694861
62	0xbf79492d17be87c8	-0.006173301833685536
63	0x3f7f1c5efbb1529e	0.007595416095757783
64	0x3f79ba6a41fd37b2	0.006281294888891441
65	0x3f4ccdd9ff816c50	0.0008790316051191602
66	0x3f797600c9bc0442	0.006216052129958407
67	0xbf6ad0a16f22c876	-0.003273310948395165
68	0x3f7c37621b72ceea	0.006888755065279398
69	0x3f83f2b4793945dd	0.009740266751722732
70	0x3f7eedb9abffce5a	0.007550931244611892
71	0x3f8030074eea2aef	0.00790410718515974
72	0x3f774269330c04de	0.005678568778195029
73	0xbf84436cc42b8b77	-0.009894227730404144
74	0x3f6a841cf184a4c4	0.0032368245412227343
75	0x3f7d49ccd71d221e	0.007150459439636351
76	0xbf58e6e787d0d018	-0.0015198956528026438
77	0x3f7c44662ba8737e	0.006901167968433762
78	0xbf6fe838fa0476aa	-0.0038949120354477467
79	0x3f748a46944f2458	0.005014682484167109
80	0x3f6f84079eb698f4	0.0038471363856898925
81	0xbf7f9e255ad41bc8	-0.007719179074462575
82	0x3f61e81e65b5403c	0.002185878152580782
83	0x3f63d1a029540e60	0.002419293227491612
84	0x3f6ed2df977f03a0	0.003762661650370494
85	0x3f82f794aaada4eb	0.009261285265625271
86	0x3f7e6b89dad96696	0.007426775451301678
87	0x3f40f5346fbcc130	0.0005175119435758876
88	0x3f743a6a3df6a590	0.004938521392810272
89	0x3f817a15dc3762d5	0.008533640654535027
90	0xbf7a96c51daaea6e	-0.006491441711370711
91	0xbf802d25db371706	-0.00789861273996052
92	0xbf789ad8f9898595	-0.006007049138675132
93	0x3f57ba40984c5e60	0.0014482146081657085
94	0xbf810d3cc7c3dbf8	-0.008326029630991258
95	0x3f6e524c1829c6a0	0.0037013517588143224
96	0x3f7e6d216ccb868e	0.007428293768244066
97	0xbf622368d65d27cc	-0.002214150200335196
98	0xbf6187ceafa8cd98	-0.0021399533118484186
99	0x3f4f10868cc3ebf0	0.0009480149251709351
100	0xbf52b88d4c4ce218	-0.0011426334251166733
101	0x3f7522efe33edac8	0.005160271702996773
102	0xbf610f3e00446a10	-0.0020824633558167507
103	0x3f6c0b92b2a41dd4	0.0034234872047169494
104	0xbf7bf3f0172dca06	-0.006824434140855212
105	0x3f7d6b1c3fd24332	0.007182226513706523
106	0xbf71f87242726da7	-0.004387327505493677
107	0x3f8435c8fd599ad7	0.009868211967114444
108	0xbf610c9bee592060	-0.002081207802607607
109	0xbf790e2f8db2579a	-0.006117044216031342
110	0x3f792cb9ba9270c2	0.006146169188607499
111	0xbf6b464c3550f2c2	-0.003329418987532002
112	0x3f68df6791e29c30	0.0030362151001841683
113	0xbf8443f1cd23b5db	-0.00989521891866734
114	0x3f78caa79771264e	0.006052641539164917
115	0xbf7132c2d1e136ec	-0.004198800101290461
116	0xbf75dc0f58bb9fb8	-0.005336818645197576
117	0xbf83e89ae04849db	-0.0097210025497007
118	0xbf70e8c5200979a9	-0.004128236789794939
119	0x3f61ebbb7d706334	0.0021876012720095876
120	0xbf7ccb2e5624a048	-0.00702970600313086
121	0x3f62a7bea717b44c	0.0022772525487569136
122	0xbf84240014b6ed6e	-0.009834290153654304
123	0x3f5731775a0bdbd8	0.0014156022590989716
124	0xbf6e37e9a3093062	-0.0036887706012632008
125	0xbf8160431c48175a	-0.00848438673075307
126	0x3f505866cba02368	0.0009976390706489483
127	0xbf591efbf9a193b8	-0.001533266133742146
128	0xbf6ce5bd9a6f2c34	-0.00352751762281891
129	0xbf80c1c0ef960003	-0.008182055770475932
130	0x3f75258986e27d2e	0.005162751402308969
131	0x3f2e7e632aea8700	0.00023264847319120346
132	0x3f80971f0c41b155	0.008100740968267553
133	0x3f6418ec57e26230	0.0024532905654946133
134	0xbf73bff122380ef3	-0.004821721962347192
135	0x3f6161d80cce736c	0.002121850941377115
136	0xbf6ea8c2ddae355c	-0.00374258098367501
137	0x3f46a807e3f8f710	0.0006914175537031404
138	0xbf4a8c4944692dc0	-0.000810180449499702
139	0xbf58a08c42fdbb98	-0.0015031213515290572
140	0xbf83fe4dea492312	-0.009762390816051379
141	0xbf62bdd68093fdec	-0.002287787389491083
142	0xbf7221ee5a9f1e55	-0.004426890440249649
143	0x3f8229289a71486f	0.00886756631203786
144	0xbf6b94de1a957676	-0.0033668840375600763
145	0x3f75f10afc808782	0.005356829562545575
146	0x3f62f5de548cf7f4	0.002314504851169902
147	0xbf83113cf6dc2b9b	-0.00931022289616639
148	0xbf761526afbf2e4a	-0.005391265029128409
149	0xbf8244193e8f88e5	-0.008918950292301673
150	0x3f6ec3742bc05c4c	0.003755309006020313
151	0xbf5da5e828efbf90	-0.001809574812565249
152	0xbf71ab07eb2a658d	-0.004313498432247609
153	0xbf5a42a6e8e6bd20	-0.0016028051355581677
154	0xbf379d4cfff287a0	-0.00036032800557894186
155	0x3f7db2d3455e2266	0.007250619199006358
156	0xbf80bd8783f69598	-0.008173998560617332
157	0x3f7a3232ee1a101e	0.006395529695172568
158	0xbf80e998bd25d469	-0.008258050224620743
159	0x3f67b235c69726c4	0.002892594366788655
160	0x3f82c57cde860647	0.009165740528945266
161	0x3f713599d8e7ad7a	0.0042015084895682345
162	0x3f83248639814235	0.009347008352194578
163	0xbf7d1e6b9c7026f8	-0.007109089237028014
164	0xbf81f581b7a4f453	-0.008769048134690182
165	0xbf6b4498c25a8b90	-0.003328607900429721
166	0x3f7480a67ec024f0	0.005005503055153002
167	0x3f721297bcf08aba	0.004412262655963667
168	0xbf840ba968ac13d7	-0.009787868029443132
169	0xbf3d656198f54800	-0.0004485476756218576
170	0xbf3325711b932a40	-0.00029214869898611454
171	0xbf3687cc045c34c0	-0.00034378748783654364
172	0xbf73acff5ef3e09c	-0.004803655188190838
173	0x3f832a0df5dd2433	0.009357556405705214
174	0xbf5fe5387f05c3d0	-0.0019467403145336688
175	0xbf7899852b4bc197	-0.0060057832640584485
176	0x3f6260977f7060fc	0.0022433241788456498
177	0x3f7ed65ebc6357f2	0.007528657972406082
178	0xbf42910658065690	-0.0005666047073186898
179	0xbf45658c85e17240	-0.0006529747149773349
180	0xbf8016f6213d6271	-0.007856295480153737
181	0xbf51acdd3a7fdda0	-0.0010788116869643108
182	0x3f66070b0cb874e0	0.002688905316758125
183	0xbf7b05d0a1b91ba6	-0.006597342460344635
184	0xbf7e6d9848cd4f14	-0.007428736554022004
185	0x3f6d9e056a5b5ef0	0.0036153894205702627
186	0x3f7458c899b571a2	0.004967483134660363
187	0xbf667ba0896192aa	-0.0027444968682622433
188	0x3f812ffaf815621b	0.008392296501072363
189	0xbf6eed328b2db5b4	-0.0037752139264088606
190	0x3f838b635602e6bd	0.009543205320699294
191	0x3f83dfec2f9be909	0.009704442217743041
192	0x3f6f5b8a4d3dafcc	0.003827829475929056
193	0x3f7ffc7c9e1793be	0.007809149539274194
194	0x3f571a5c5f149aa0	0.0014100935043842924
195	0x3f71398e4c5eefb6	0.004205280163599603
196	0x3f7a8031249b6556	0.006469909634426804
197	0xbf7368fc5a3e5a36	-0.004738794090278156
198	0xbf6ca177276a0262	-0.0034949614740187743
199	0x3f5863a781abe678	0.0014886031919431313
200	0x3f5b0793e1842ee0	0.001649755873645846
201	0xbf814ab14d02257e	-0.00844324604283275
202	0xbf585d2db26c1228	-0.0014870592364683109
203	0x3f816d7601325439	0.008509561454312574
204	0x3f5c014e34ad6198	0.001709295628378715
205	0x3f80360b554f725d	0.007915581265416078
206	0xbf78b0e3bf345fd0	-0.006028070102978192
207	0x3f7c1ff8ca4c3b5e	0.00686642821962277
208	0x3f4d3e9e73cde3a0	0.0008924745267072549
209	0x3f7f501253e7a61e	0.0076447215965145515
210	0xbf7c511780298e48	-0.006913272666313093
211	0xbf70d044958fa385	-0.004104869753953082
212	0x3f81ff2e69a8abb3	0.008787500953152482
213	0x3f649c7aa701eba0	0.0025160213045273966
214	0x3f6584abe87dab7c	0.0026267392712972498
215	0xbf5ea5b1fa391c30	-0.00187055950745375
216	0x3f6afffd9eb601f4	0.0032958940043388233
217	0xbeec9a35eaf6a000	-1.3638680086483501e-05
218	0x3f5c856095955fd8	0.001740783997169251
219	0xbf504bbaf0c86170	-0.0009946179953939892
220	0x3f7abd429a86514a	0.006528148813590493
221	0x3f806b3a8c14bf33	0.00801702251428047
222	0x3f832df35417f6fd	0.009364987377007855
223	0x3f84242bd1277685	0.009834616012933903
224	0x3f8246beeadc45b7	0.008923999349948681
225	0xbf8053bdabf659c0	-0.007972223101018083
226	0x3f744b237b3037ee	0.004954470251517391
227	0xbf50d0cd0cc031e0	-0.0010263445319679196
228	0x3f7c102c1549e2a6	0.006851360511625748
229	0xbf7deb2e3790c617	-0.007304363761293973
230	0x3f46a39df26d9200	0.0006908913827428642
231	0x3f412dcd30341f60	0.0005242587944005277
232	0x3f81563fdbe2ea11	0.008465289018535523
233	0x3f73f5fd9b68ed2c	0.004873266842476281
234	0xbf78bd5ce8dbb773	-0.006039965561042015
235	0xbf76c3e2408ad324	-0.00555790309652052
236	0x3f43be26176110f0	0.000602501487045019
237	0xbf56ce5f8a716a60	-0.0013919766440923173
238	0xbf7efca0c1ffd3b8	-0.007565143547243851
239	0x3f52429e99906548	0.0011145161463502352
240	0x3f3096567b6bbd80	0.00025310145740228135
241	0xbf63487edefaee86	-0.0023539045285739272
242	0x3f7f3844f69a21de	0.007622022044991598
243	0x3f536705bacc4500	0.0011842304185772368
244	0x3f77c5569b4c7e82	0.00580343085019275
245	0xbf75417f29bb0b1a	-0.00518941567469502
246	0x3f828d9b624d7b23	0.00905915635820304
247	0x3f8128552c3e81ad	0.00837770978233795
248	0x3f584853c9b8bf90	0.001482087921328177
249	0x3f7447c393161eee	0.004951251948462005
250	0x3f8466a7961d083b	0.009961423176381703
251	0x3f79ca64acf4ddfe	0.006296532882792414
252	0x3f74a9abc90aa6cc	0.005044623409654125
253	0x3f80a44b694b6c5b	0.00812586703380285
254	0x3f844f2d328d5b9d	0.0099166422893811
255	0xbf7693d241f16e4f	-0.005512067145072643
