model/500_200_80/Theta3.npy (npy, 128768 bytes, 1 tensors)

array f8 [80, 201]
0	0x3fd271f384f38192	0.2882050321914217
1	0x3fbbd280aeb26fb0	0.1086807657724751
2	0x3fb54ed1adeb2568	0.08323393341119856
3	0xbfd31bdb0574ae66	-0.29857516796867
4	0x3fd0f17ed9d0885e	0.264739716252853
5	0xbfc3e6c3dca439d5	-0.1554798915244208
6	0x3fd14c89dd300347	0.27029654121729546
7	0xbfd3f16adddf693a	-0.3116099516606884
8	0xbfc5ed11a4080019	-0.1712972689565511
9	0x3fd7b4a5b1e47beb	0.3704008328658676
10	0x3fc5b293462dcfbd	0.16951218535143467
11	0xbfcda8c8c85f1149	-0.23171338828809443
12	0xbf93f33fe1831ba1	-0.019482610835236284
13	0x3fd8002cdb1cdc2d	0.3750106944821166
14	0x3f99a53e4cf8dbeb	0.02504441590118837
15	0xbfb8e4eb608328f3	-0.0972430334688033
16	0x3fad86d131830450	0.05766919831649686
17	0x3fb309aab8ea6359	0.07436625494518746
18	0xbfc95409fd9f0fac	-0.19787716754774232
19	0xbf8e8a8e3444b283	-0.014912711114982052
20	0xbfd29e6b23c171bb	-0.2909190987755001
21	0x3fd7db9ef7e2108f	0.3727796002133425
22	0xbfd6cdb43ac2ce46	-0.3563051771008968
23	0x3f9a42b5c6589d70	0.025645103674972913
24	0xbf98bc60ef11900f	-0.02415610751303637
25	0x3fba604de31a15ca	0.10303198618392809
26	0xbfabec69420c61b8	-0.0545380490422675
27	0x3fc575dd295acd43	0.16765942115089602
28	0x3f95398ca8884c12	0.02072734621658518
29	0x3fc85477f4900626	0.1900777763512888
30	0x3fbaec48a00697a3	0.1051679030120725
31	0x3fbb8178b86c6e06	0.10744432928589029
32	0x3fd6db0bf4319059	0.3571195492461406
33	0x3fcec88f9234c40f	0.24049563063593424
34	0x3fd3a80b8b58c665	0.3071316586311695
35	0xbfccfefc1822707d	-0.2265315168232326
36	0x3fc47fd9b24b69c5	0.1601516838625924
37	0xbfd1a4af8fe86846	-0.27567662290096384
38	0x3fd4b7b90236a1fc	0.32371354309228173
39	0x3fc592bee8086763	0.16854082421996983
40	0xbfa8bc47ad06d837	-0.04831146227972776
41	0xbfd5e9a99226010d	-0.3423866202574722
42	0xbfd134c8e6b2c51a	-0.2688467266953737
43	0x3fd8c8b241c77e31	0.3872495310187985
44	0xbfd4cd2809b7d8b8	-0.3250217528251471
45	0x3fb5853ed7cf3c8e	0.0840644146803575
46	0x3fbe1657f244a5cd	0.1175284353709209
47	0xbfd0105b4d3a440b	-0.2509983305145062
48	0xbfd8b991faaf1813	-0.3863263080678518
49	0xbfc00e95f59ed0da	-0.12544512265379276
50	0x3fd5c951772c3d85	0.3404124892994889
51	0xbfca9ecc45e95bcc	-0.20797112859392397
52	0x3fd26a777dc4ec01	0.2877482155051326
53	0x3fd8d391b145bb11	0.38791315376049434
54	0xbfa31a1823209a2f	-0.03730845860291187
55	0xbfc03c12ecf57451	-0.1268333107972546
56	0xbfababa71f2d2b9b	-0.05404398208209856
57	0x3fd63b90a088fa50	0.34738555600407484
58	0xbf8266cd71e7fa42	-0.008985142744674882
59	0xbfb9ad886f695852	-0.10030415267951412
60	0xbfc743b1936aeab3	-0.18175334642531524
61	0x3f6ec0d1ea863488	0.003754053108599612
62	0x3fd876b09bed734c	0.3822442553262604
63	0xbfd1a1bed754d1e6	-0.2754971602292059
64	0xbfd35fc169d2d548	-0.3027194531853934
65	0x3fd19589db389e95	0.27475210579221115
66	0xbfd1409a73bbffcf	-0.269568074247215
67	0xbfc5141bb705a6f6	-0.16467615543961472
68	0x3fd32f1a33f0ef43	0.299749899600773
69	0x3fbf5a26111be584	0.12246930997561917
70	0x3f941eb9f2fbb51b	0.0196484617762752
71	0x3fc62165884840ab	0.17289418367773143
72	0xbfb1d88283cf04e7	-0.06970992773041794
73	0x3fb794ff2e28b7fb	0.09211726071291075
74	0xbf859b6538b8b6f4	-0.010550299447540358
75	0xbfc7545a1b8d51f1	-0.18226171822847406
76	0x3fc566db88bdad15	0.16720146347811551
77	0x3fbd44f83608a1bc	0.11433364218885961
78	0x3fd71dca998731f3	0.3611933230684194
79	0x3fbec33e79ec01e3	0.12016668774231891
80	0x3f9169713988d68f	0.017003792893055588
81	0x3fd2ac0169a1c209	0.29174838367092143
82	0x3fcc5dd96e86390e	0.2216140546483491
83	0x3fd658bd9effd339	0.34916630294110323
84	0xbfb14fa629aaad5b	-0.06762159840825659
85	0x3f98d2636579e62d	0.024240067547429845
86	0xbfbf23799fcf4c44	-0.12163505698781402
87	0x3f954e45dc9e222d	0.02080639990848192
88	0x3fa829e23e2fb7ca	0.04719454774009042
89	0x3fb9c364be1b92fa	0.10063771859456586
90	0x3fc2e84b8d24cab2	0.14771408454688167
91	0x3fc200c84dbe9401	0.1406488780604889
92	0xbfd1865756c9f7a6	-0.2738245341823763
93	0x3fb888b28b54be1e	0.09583583737980247
94	0x3fb821e97289ebb2	0.09426745458942667
95	0xbfd0152664880e0f	-0.2512908918144782
96	0xbf84a7c658e11f1e	-0.010085630023368316
97	0xbfc1d93cc3140744	-0.13944205785088049
98	0xbfd114406b075a47	-0.26686106159232675
99	0xbfd3da0d560239f3	-0.3101838436058692
100	0x3fb4608f712e648f	0.07959839356625963
101	0xbfc03e62bb76b93f	-0.1269038596487437
102	0x3fd6b14f4a561958	0.3545721269550959
103	0xbfd7cf28addb10c2	-0.372018976002675
104	0x3fb2c52e68aa4142	0.07332124762820505
105	0xbfc8b590bb38ff90	-0.19304093496066033
106	0x3fd6aaba24a103a0	0.3541703565315917
107	0x3fd831f89abde39e	0.3780499945783563
108	0x3fd88ed2c7830e8a	0.3837172458990855
109	0x3fbf3472d05b6e49	0.1218940504726841
110	0xbfb6edb75539c8d0	-0.08956476050096573
111	0xbfc5d0d5e6420e42	-0.170435655050925
112	0xbfbd5c36f3219cbe	-0.11468833385298446
113	0x3fd91ea958b18382	0.3924964300295458
114	0xbfb1a63d1579a648	-0.06894284986778942
115	0x3fd1d5d0c5d67321	0.27867526359641387
116	0x3fd44a6df25bd444	0.3170428149017577
117	0xbfc90808163723af	-0.1955576046441627
118	0xbfc1cd8c10184af3	-0.139085300310931
119	0x3fd22694331e5f01	0.2836046694951478
120	0xbfd442d0ec96206d	-0.31657813171523835
121	0x3fcccc66538d9b04	0.22498778419249998
122	0xbfd6ca6d6dd55f15	-0.3561051914780234
123	0x3fbf7523c973295b	0.12288116138657783
124	0xbfd77cdb4c99a8fc	-0.3669956443833511
125	0x3fc672517018f4d3	0.17536371205816312
126	0xbfaa93260ba07984	-0.051903904837888454
127	0x3fab478e716dd369	0.05328030714637217
128	0xbfd19daa863e0264	-0.2752481757125109
129	0x3fd892d1d8bdde15	0.3839611641519423
130	0x3fd498255d3bfa36	0.32178625206862266
131	0xbfce6534894ffa53	-0.23746353821475683
132	0x3fba1f076fb7e3a6	0.10203596570489867
133	0xbfd796bef00ad9c8	-0.36857579652442185
134	0x3fd69aeae78161ef	0.3532054196162155
135	0xbfcd09c6b9e61be8	-0.22686084820836006
136	0xbfcab7b0a651e90f	-0.20873077508060375
137	0xbfb284f0678eeeaa	-0.07234098938254854
138	0x3fb5dc6e39a42ba2	0.08539475352533413
139	0xbfd8d826f361c5cc	-0.3881928803230863
140	0x3f71b8a89a81b7a2	0.0043264947963574125
141	0xbfd526117170e2c3	-0.33044849470347176
142	0x3fd624b142b9a6d4	0.34598952785618775
143	0xbfce4e09065716d2	-0.2367564469297379
144	0x3fd7d1796b75f2d1	0.3721602963849309
145	0x3fcc9c79c74853a7	0.22352525930969344
146	0xbfcd09467e8b6d1e	-0.2268455617803306
147	0xbfd76f2c78ec34ba	-0.3661605053792517
148	0xbfd0ae25dec49214	-0.26062914614365806
149	0x3fd06229835922dd	0.255991342801776
150	0xbfd93c6e9f3ec546	-0.39431348372734865
151	0x3fd0dd96863a6489	0.2635246573277717
152	0x3fc631a226e4a3e7	0.17338969134405532
153	0xbfa527100daaa19d	-0.04131364981487027
154	0xbfcd9b3c4cd6384b	-0.2312999129466696
155	0xbfa77d06d0850a92	-0.04587575240522769
156	0xbfcebd72d4e6cfe2	-0.24015651126467136
157	0x3fd8138ded17d239	0.37619350579851446
158	0xbfc094f1ffee4cbb	-0.12954545017837468
159	0xbfd1464edbce1ba0	-0.26991626229612997
160	0x3fd0ad089774e06e	0.26056113043478646
161	0xbf94a37c2f65bdb6	-0.020154896157178213
162	0x3fd7fd7ac15d9fbf	0.37484616168375945
163	0x3fcbe65dca28a7e5	0.2179677235702108
164	0x3fbb419290cacf70	0.10646930727926729
165	0xbfce130ce5a63a33	-0.23495637143465017
166	0x3fd6d2c4119b82e0	0.35661412925223424
167	0x3fd6fcb711cc6f19	0.3591745065511858
168	0xbfc3daad331172b5	-0.1551109790188058
169	0x3fcbf653b7d5da48	0.21845480419479402
170	0xbfd291813190c8b5	-0.2901308998144814
171	0x3fd1279bd1420368	0.26804252086008384
172	0x3fc8e702ecfb3dcb	0.1945499093185233
173	0xbfc7632325034ddc	-0.1827129297949871
174	0x3fd77e10235b8f03	0.3670692773141441
175	0x3fc0dd1bc15fe474	0.13174769346349857
176	0x3fc6a83bbc842ce9	0.17700907425783122
177	0xbfd9144aa901287f	-0.3918635034975821
178	0xbfab9b8ecb9c864b	-0.05392118678561227
179	0x3fd157c79fb14581	0.27098265261619053
180	0xbfcb60a092e60131	-0.2138863293912521
181	0x3fca5c30f24da331	0.2059384520646517
182	0x3fb19683534a8575	0.06870289596056074
183	0x3fb57b33411f3742	0.08391113605395353
184	0x3fc7e79c6013023b	0.18675570193410515
185	0x3fbab3839180c583	0.10430166532821343
186	0xbfd5c544fe2f37bb	-0.34016537497233984
187	0xbfc6609748e67df2	-0.1748227220495973
188	0xbfcd57ceb7f3d393	-0.2292421720700558
189	0xbfc50c623f5156a5	-0.16444042293249087
190	0xbfd588cd2f636b68	-0.33647470119256306
191	0x3fa744072f28f1b9	0.04544088793452112
192	0x3fa3931136ff95f8	0.03823140903822869
193	0x3fc89e82fa0173f8	0.19233739096935643
194	0x3fd954f3cf80e19a	0.3958100820923619
195	0xbfca943759f3255f	-0.20764819995955983
196	0xbf62edf63c7a3129	-0.0023107346822312147
197	0x3fd90334423329fc	0.39082056488828676
198	0x3fd5d7c059fa659c	0.3412934187595853
199	0x3fb98acc511952e3	0.09977414112047316
200	0x3fce63aa3ae043c0	0.23741653322988832
201	0xbf98e3dc4f8921d5	-0.024306719164344976
202	0xbfd5d4b572d4d0a8	-0.3411077138328076
203	0xbf9d13bdcd218282	-0.028395620007702245
204	0x3fd1187b87da5f66	0.26711929575821214
205	0x3fd7f015b0085517	0.3740286082332473
206	0x3fd3a50c6ad93a5a	0.30694876131466275
207	0x3fc2952095d00814	0.14517600359982963
208	0x3fa5afe9780fc68b	0.042357726961097596
209	0x3fd328d9934d9de4	0.29936828026845164
210	0xbfb62dda3b272dd3	-0.0866371530930146
211	0xbfd12be06b450b12	-0.2683030173831621
212	0xbfcc7e01230c4d26	-0.22259535037356065
213	0xbfd27e3aa3befaa0	-0.2889544104654451
214	0xbfb8c92df4132e7d	-0.0968197556387
215	0x3fd60e0541621043	0.3446057451731159
216	0xbfcba27c10222954	-0.2158961371208742
217	0xbfa6e92793de39bf	-0.04474757843046317
218	0xbfd01dcaea78fb3d	-0.25181839845383874
219	0x3fcd0a11df79c136	0.22686980640311
220	0x3fb6e1c3cf572263	0.08938239871998514
221	0x3fd0cfbaaade477b	0.26267878233294767
222	0x3fd3e47dbbf23d74	0.3108209929859733
223	0x3faa0c6fa909fbad	0.050876130470889215
224	0xbfd046af3c666b9c	-0.2543142404408003
225	0xbfd3ba3f513f13a7	-0.3082426350995839
226	0x3fbdaf9925e9c255	0.11596066642392462
227	0x3fd6a18341c4c88c	0.35360795424197344
228	0x3fd796422f0405a0	0.36854605285051356
229	0xbfc8a696214b3cf1	-0.19258381486586232
230	0xbfb462cb198adc48	-0.07963246701807336
231	0x3fb75a0ff591de3b	0.09121799226147058
232	0xbfcf8c3eaa182479	-0.2464674311197859
233	0xbfc22f38188a039a	-0.14206601331900687
234	0xbfbd6ad022b2e080	-0.1149110874856678
235	0x3fd813e8da33388a	0.3762151842937632
236	0x3fd204d4112d68f3	0.28154470136145376
237	0xbfca0f3744fb8463	-0.20358935230527483
238	0xbf98edff685ec8a5	-0.024345389123205625
239	0xbfd4b31848749363	-0.32343108249397384
240	0x3fd00b1042c70696	0.2506752636073569
241	0x3fc0804b251b87e7	0.1289152079762623
242	0x3fcd967b4f9ede81	0.23115483653758775
243	0x3fbc5767937dc178	0.11070868826732816
244	0xbfbc1701f0a1fea3	-0.10972606777977005
245	0xbfd0b4df1cdd409e	-0.2610395223500833
246	0x3fca91a007d90d3e	0.20756912596889693
247	0xbfa02f9e4e0dbbcf	-0.03161329939654644
248	0x3fc1187c760df720	0.133559758800339
249	0x3fc84071f497eff2	0.18946670954744566
250	0x3fccc7a724de67ce	0.22484292316658955
251	0xbfc5db15b7316573	-0.17074843831032246
252	0xbfa760bb02636fd5	-0.045659870187335784
253	0x3faf69405a52ff3e	0.06134987928953571
254	0x3fd62e41a2c94ebd	0.34657326600175137
255	0xbfd90f20ee19ce3f	-0.3915483784869344
