model/500_200_80/Theta4.npy (npy, 6608 bytes, 1 tensors)

array f8 [10, 81]
000000 9b 35 c3 48 ff 36 c8 bf 35 f7 8b 3f 12 45 d4 bf
       -0.18917838147028196 -0.3167157764981881
000010 c7 6c 69 a9 a1 91 d1 bf 87 84 82 81 ce 5a 7c 3f
       -0.27451364082453406 0.0069225374828941815
000020 cd e2 74 73 80 b7 c4 bf 64 9f 6a 2b b4 ab 9b 3f
       -0.16185002934959983 0.027022185468609364
000030 06 74 db ae 2b a6 d3 bf 6d 2a dc 5d d9 5e d6 bf
       -0.3070172507848955 -0.3495391289331227
000040 06 78 c8 23 1d 97 cc bf 8f 03 a6 39 70 14 d0 3f
       -0.22336162802906773 0.2512474596952012
000050 ca aa e3 5e 97 0d d6 bf 4c f5 17 f2 52 2d c2 3f
       -0.3445795466092646 0.1420081789109794
000060 8d ba d4 95 08 07 d1 bf aa 86 f5 ae e5 c7 bc bf
       -0.266054292983349 -0.11242518922292769
000070 0a 6c bf 98 1e a4 d6 bf 6f 3e 30 67 5c a3 82 3f
       -0.35376706043979367 0.009100648783742586
000080 6d ec 52 ec c3 a9 ad 3f a8 aa 06 29 3c e7 d0 3f
       0.05793583164037206 0.2641134644169747
000090 5b 40 05 1c 21 2d c1 3f d6 39 f6 a3 50 ab d4 3f
       0.13418973797024844 0.32295623790642247
0000a0 7d de d0 3b 94 42 d1 bf 77 62 c3 4e 70 08 c0 3f
       -0.2696886619701003 0.12525752874241267
0000b0 3f 4a 56 59 35 29 cf 3f 75 7b 46 fb 17 8d d9 bf
       0.2434450803962864 -0.3992366746769485
0000c0 00 3f af 29 81 77 c6 3f f2 5e de e5 92 3a c5 bf
       0.17552198920611062 -0.16585003112844948
0000d0 d9 7a bd 8d b8 bd d4 3f 64 23 7c d5 36 f1 c6 bf
       0.3240796455556115 -0.1792362730414211
0000e0 56 76 01 57 d4 64 9c bf aa 78 16 8e 5d 23 d0 bf
       -0.027728383837134572 -0.2521585357261623
0000f0 bc 5a 9b f5 4e cc c8 3f 7c cb 2b 3e 07 21 d1 bf
       0.19373499863168842 -0.2676408869876281
000100 d4 7a 4d 3b a3 43 d7 3f 51 3c 55 74 a7 20 b7 bf
       0.3635032729270453 -0.09034201231155349
000110 62 0e ea 3e dc 5d c6 3f 61 e8 1e 63 48 1e c0 3f
       0.1747393901060717 0.12592415656928593
000120 82 28 e5 01 7f 3e c8 bf e3 8b aa 03 28 e0 b4 3f
       -0.18940723030602064 0.08154535378939402
000130 23 c4 d0 0e 92 d1 d8 3f a4 0e 38 e9 93 67 c5 3f
       0.38779117056680174 0.16722344291348634
000140 4e a5 9c 1b 46 72 ba 3f c8 3f e2 f6 eb 84 d6 3f
       0.10330618070715511 0.3518628989195318
000150 17 28 e5 6c 0b d6 d4 bf c4 5f 5e 1e 55 b6 d6 3f
       -0.32556424745837503 0.3548786922997318
000160 0d 6e fc f7 1b 9d d3 3f 17 56 45 55 6b b9 ab 3f
       0.30646418778789625 0.05414901176360958
000170 d1 6b d7 a4 f6 04 c3 3f ce 43 27 bd f3 9c b3 bf
       0.14858897255802941 -0.07661364906313325
000180 83 7c 39 c8 22 69 c1 bf 6b 86 db ee 4d 26 ab 3f
       -0.1360209920557943 0.05302661457768639
000190 da f0 06 be 29 43 d8 3f f3 50 f3 69 d8 0a d5 bf
       0.3790993076070329 -0.3287869486496355
0001a0 25 5d 9d 58 8f 05 b9 bf dd 8f 82 e4 b1 33 c0 bf
       -0.0977410880417336 -0.12657760293688983
0001b0 e5 ea 33 90 8b 5b c1 3f 64 90 3f 30 2f e5 c5 bf
       0.13560623685028542 -0.17105665069459797
0001c0 02 93 06 44 70 0c ad 3f 50 df a3 2f fd d2 ae bf
       0.05673552351371393 -0.060203468385167214
0001d0 08 5d 5a e2 78 2c d0 3f d9 9f b0 bc 89 a8 c2 bf
       0.2527143679121342 -0.1457683726632684
0001e0 23 42 ab 00 68 a3 cb bf 7d a1 49 0b 32 f6 d6 3f
       -0.2159242633120054 0.35877657987887074
0001f0 e4 ef b2 88 80 06 d2 bf d7 53 85 84 5d 63 c6 bf
       -0.2816468558264644 -0.17490738840811446
000200 5c 38 b1 38 ab ed ca 3f 0b 72 69 cb 11 47 a0 3f
       0.21037807720353185 0.031792217331460725
000210 8b b3 51 85 ae 47 cb 3f 32 c2 93 58 82 8a d8 bf
       0.21312505254482192 -0.38345392847171234
000220 8d 0e 7a 09 54 71 ba 3f e5 59 1d d9 68 d8 c8 3f
       0.10329175216070947 0.19410429574300206
000230 c4 86 17 dc fa b3 c9 bf 17 f0 81 00 00 65 b8 bf
       -0.20080505129504023 -0.09529113781349029
000240 e8 8f d6 b1 fd c8 d1 3f 03 0c b9 38 c6 70 a5 bf
       0.2778925167751809 -0.04187602465074038
000250 23 7d 70 6e 52 f7 ae bf 06 75 c4 fb e9 52 aa bf
       -0.06048066709649393 -0.05141383360226297
000260 d1 d7 83 ac b4 fc c0 bf 0c 2b 0b db d7 5a d7 3f
       -0.13271196769318164 0.3649196280572802
000270 d3 1c 83 17 cd 20 a4 bf e5 cb ba 69 3a 4f 63 bf
       -0.039312752838264985 -0.0023571148757013266
000280 10 14 96 7f 6e ef d0 3f 38 e2 2a 35 1a 0f d9 3f
       0.2646137472114001 0.39154677574291297
000290 14 30 80 69 1c 2b cc bf e1 45 f9 ca d7 e8 bd 3f
       -0.22006564284708985 0.11683415131962917
0002a0 41 e5 46 81 b8 53 c0 3f 2c 1e 04 ff d8 8e d6 bf
       0.1275549536929166 -0.35246872810282315
0002b0 e5 52 bc 1f b3 43 c8 3f 70 6b d2 d4 85 ce d2 bf
       0.1895660309752635 -0.29385515006440865
0002c0 5b 85 50 ec da 5e d8 bf b7 d5 3f cb ff 46 cf 3f
       -0.38078950002280515 0.24435422348294164
0002d0 ac 90 b5 85 de 6b cc 3f 79 6a 73 a1 0e f2 d3 bf
       0.22204190758487152 -0.31164899603542257
0002e0 8c 2a 83 62 72 5f c4 bf a0 72 66 dc c3 e7 d3 3f
       -0.15916280565427987 0.311020817980344
0002f0 aa a0 60 f5 e0 cc d6 3f 74 81 53 f9 52 19 bb 3f
       0.35625480616227867 0.10585516535821232
000300 a8 46 46 4c 10 ff d0 3f ff 5b d8 19 bd 8f b2 3f
       0.2655678505771939 0.07250577813134383
000310 c0 f5 a1 1c 8f e9 d2 bf 1e 00 b2 80 10 f1 c4 bf
       -0.2955053119293005 -0.16360670360518353
000320 2f 4e 76 b0 55 87 c9 3f 17 b7 d6 b6 15 38 bc 3f
       0.19944258800806966 0.11023078645549976
000330 8c 06 a6 c7 02 d3 6f bf c0 d4 10 a5 51 6e d5 bf
       -0.0038847975058054537 -0.33485833282186306
000340 9b 0f e4 e1 8e 2c d3 bf a5 3e ab 9c a6 ef d0 3f
       -0.29959461269049265 0.2646271257371871
000350 f4 fc 3a 8c 84 95 cc 3f 45 5b 16 b9 92 b1 ae 3f
       0.22331292006672465 0.05994852551810096
000360 e7 41 d2 48 ce ca d5 3f 15 01 2d 53 98 fe c4 bf
       0.3405032836099324 -0.16401962338751078
000370 be 2f 1d 42 72 6b c0 bf 19 df 9f d4 df a5 d0 3f
       -0.12827900150511867 0.2601241661463845
000380 36 20 e1 82 43 b5 a4 bf ca b8 f0 11 32 91 b5 bf
       -0.040445432402123435 -0.08424675882335744
000390 78 9f 7f d7 64 59 c3 3f 50 f6 91 7d da a3 c6 bf
       0.1511655857314016 -0.1768754113326616
0003a0 1c 43 37 d9 c4 05 ce bf 8a 4e 0d 14 08 05 b4 bf
       -0.23455105406039756 -0.07820177545118603
0003b0 3e 43 d7 0d 2a f9 d4 3f cf 2c 40 11 bc b9 d2 bf
       0.32770778037688675 -0.2925863426650723
0003c0 cb cb 09 4b 2a e4 d7 bf 7f 61 43 90 d7 45 c4 bf
       -0.37330109909015324 -0.15838141006566883
0003d0 88 07 9c d4 56 95 bc 3f 2e ea 20 dc 87 45 d1 bf
       0.11165373507176757 -0.26986881730013834
0003e0 4c 7f c3 7d 2d dc b5 3f d7 79 31 9e 30 f2 be bf
       0.08539089508439907 -0.12088302480831402
0003f0 5f d8 da 4c a0 2e b0 3f f8 67 75 28 84 02 c0 bf
       0.06321145893420653 -0.1250767896224827
000400 3e 88 a0 f7 1a 57 d6 3f 34 5d ed df 94 26 d1 bf
       0.3490664880974953 -0.26797983043566664
000410 e7 41 b2 04 cf df d5 3f a3 2e 17 4e 22 b3 d8 3f
       0.3417851968634111 0.38593347192793653
000420 b2 8d ca 2f c5 96 d4 3f 60 4d 84 59 b6 b8 ba 3f
       0.32170228640662935 0.1043809860751046
000430 e9 bf f5 3f 3d ea af 3f 5d a0 59 17 8e 12 92 3f
       0.062333978707897426 0.017648906874825666
000440 92 d8 06 ab a0 4e d9 bf a9 43 1d 1e 3b 41 d2 3f
       -0.39542404844122203 0.2852313798985571
000450 56 c4 13 c2 11 21 92 bf 7e b0 a8 aa 44 29 c1 bf
       -0.01770427462628662 -0.13407190640407757
000460 fb 33 7c b6 b4 8f a2 bf 80 f6 be 81 3f 62 bf bf
       -0.036252639080068115 -0.12259289662957862
000470 e2 e9 24 dd 36 13 c8 3f c8 21 73 29 a2 f1 d0 3f
       0.1880863742643007 0.26474813506913764
000480 5f d6 9a d5 e6 a5 d6 3f 9a e6 89 51 1b fe b8 bf
       0.3538758359894469 -0.09762736073198611
000490 8d 2e 7c c8 ac b0 d8 3f 5b a4 ce d8 ba 67 be bf
       0.3857833822118913 -0.11877029221672457
0004a0 33 b2 80 65 87 b7 c5 bf d1 ec 62 72 6f c4 c5 3f
       -0.1696633573168512 0.17005723080897053
0004b0 90 f9 21 a5 f6 d5 d4 bf 16 07 ad 73 e5 8f d8 3f
       -0.3255592930435336 0.38378273292993137
0004c0 c6 d5 e9 d8 68 49 d5 bf e7 43 88 3a 51 22 c1 3f
       -0.33260556395483964 0.1338597808649233
0004d0 39 04 6c 22 16 dc c3 bf b4 90 e5 ef db d7 b5 bf
       -0.15515400582083475 -0.08532499892095552
0004e0 66 86 f9 01 48 a3 d6 3f d9 1a 64 06 04 d8 c5 3f
       0.3537158984455345 0.17065477668821563
0004f0 2e e7 48 63 57 50 a9 bf c9 83 60 f0 ec 35 d3 3f
       -0.04944108092281706 0.3001663539344546
000500 72 8e 2a 15 35 69 94 bf 5d b1 ed 74 d5 86 d1 3f
       -0.01993258420647099 0.27385460299298875
000510 25 43 d9 0b 14 5d 71 3f 3f 4a 74 4d 23 b4 d0 3f
       0.004239157014652749 0.26099474491016744
000520 36 6f 82 f1 11 29 b3 3f 59 74 d7 17 57 84 d7 3f
       0.07484542986133821 0.3674524052456199
000530 c1 59 17 d4 2e 33 cd 3f 6f 9a f2 5e b6 24 ae bf
       0.22812447887436174 -0.058873843279163
000540 4d 0a af aa ac b2 d7 bf e1 6d 29 96 99 fd a6 3f
       -0.3702804247697358 0.04490356405286967
000550 ee 8f 6e f6 14 d3 d4 bf 3a f0 02 23 04 46 d7 bf
       -0.3253834158479084 -0.3636484472187963
000560 38 94 16 ff 91 66 d2 3f e0 3f 50 4d 26 66 d8 3f
       0.2875103942008681 0.3812347178472901
000570 22 9d bb 6d 91 96 c4 3f 97 77 a0 86 dc ac b3 3f
       0.1608449731640827 0.07685640608585086
000580 6d cb da 6b 1b 2a d8 3f 6a 24 f9 45 12 5b c3 bf
       0.37757001431162146 -0.15121677796040284
000590 83 b4 41 57 82 d8 d0 bf c9 af 02 0c 72 62 c5 3f
       -0.26321466942938104 0.16706681810808124
0005a0 92 3b 1c b1 e9 f6 d6 bf 06 49 d5 2b 0b fc c1 bf
       -0.3588203649132363 -0.14050426140108402
0005b0 b3 e3 2c 22 4a bf d1 3f 99 d1 a8 0f 29 7c c2 3f
       0.2773003896468779 0.1444140745603704
0005c0 bf ee f5 4c 8f 87 d9 bf 5b 12 61 64 ca 4a d1 bf
       -0.3988989116257748 -0.27018985560088077
0005d0 f5 e4 e3 bd 01 22 97 3f e2 29 fb db ec 3b d6 3f
       0.022590663161257536 0.3474075458767897
0005e0 53 28 4b 4b c6 72 d8 3f f8 7d d2 98 da 63 cd bf
       0.38200528481377666 -0.22960979902289558
0005f0 43 cd 09 03 4b 30 d5 bf 9b de 4e 0b 24 99 bc 3f
       -0.3310725717230591 0.11171174312664293
000600 d4 fb 0c c8 b0 6a c4 bf 40 4a 6f ac a0 bd a9 bf
       -0.15950593727208562 -0.050274869012032486
000610 68 dd 24 0a 36 25 b4 3f b6 a0 2d ed 0b db be 3f
       0.07869279620796521 0.1205298856781408
000620 8c 9f c3 62 ac 47 d5 3f 48 e3 f4 5a 58 53 ba 3f
       0.33249959607064095 0.10283424587840984
000630 30 e1 37 ee 04 98 d5 3f a6 e5 f8 6d 0e f5 cb bf
       0.3374035192823781 -0.21841602678050015
000640 90 37 61 66 f8 31 c8 bf 47 17 d1 22 e2 26 81 3f
       -0.18902497290622167 0.008374945342562902
000650 51 95 30 e6 62 67 ca 3f ce e1 fb a3 40 23 d8 bf
       0.2062801002477195 -0.3771516419797337
000660 92 9f 95 de 32 f7 b1 3f 9a e5 0a 7e da 0a d6 3f
       0.07017820295516078 0.34441244419903116
000670 8b 0f c9 37 3c 8f d3 bf 8b e5 b9 f4 0c dd b0 bf
       -0.3056173844126923 -0.06587296461829888
000680 e7 e8 c1 b7 64 78 c5 3f b9 3d 16 cb 56 dc d8 3f
       0.16773661587269048 0.38844842751219805
000690 d5 28 37 b9 79 a4 68 3f 0c fb ec 78 27 bc cb bf
       0.0030081155216282554 -0.21667951016021225
0006a0 c0 b7 a2 ce e8 75 cb 3f 03 5f 14 45 aa 29 d6 bf
       0.21453580941800787 -0.3462930369000647
0006b0 98 66 55 33 3f 88 cc 3f 00 cd 39 f2 c7 65 c5 bf
       0.22290792471431042 -0.16716861083441614
0006c0 c8 7b a8 90 7c 75 bd 3f aa ba 3d b9 86 07 d2 bf
       0.1150739529771122 -0.2817093667025953
0006d0 ea 74 35 7b 06 e6 d5 bf dd 6b c8 dd 19 b8 cd 3f
       -0.3421646311961256 0.23218081788294756
0006e0 f1 8b a5 6c 02 52 ce 3f de ae 5c 86 ee cc b6 3f
       0.23687773041737573 0.08906451015780756
0006f0 f9 f5 16 52 97 d4 bc 3f b0 2a cd b2 d7 38 a7 bf
       0.11261888269560662 -0.045355549408289675
000700 a9 10 3b 0b 26 36 bb 3f ee 82 f6 91 81 e1 d3 3f
       0.10629499220073292 0.31063880209153083
000710 b3 ef 7d c1 71 0e d7 3f 4f 37 9b a1 94 26 d9 bf
       0.36025661369034906 -0.39297977239481424
000720 79 e4 e6 f7 b0 48 90 3f da 92 45 1e 0f 0e d8 3f
       0.015902295237286233 0.3758580966589712
000730 b8 9f 29 03 6f bc b0 bf ab b0 ab 7e f6 5d 90 bf
       -0.06537526919566872 -0.015983439904559898
000740 46 25 8b 4f 79 d3 c7 bf 77 c0 e1 28 de 88 c2 3f
       -0.1861411703487567 0.14480187412437193
000750 f6 4a 1a c4 dd 7a cf 3f 27 9b 4e 31 87 2e c1 3f
       0.2459370811016794 0.13423242480822603
000760 fe 91 ed 13 0d bd d8 3f 04 16 0e f3 83 fd d1 bf
       0.3865387625321829 -0.2810983537277425
000770 dd c1 74 64 b3 af ce bf b0 1d 14 85 2d f4 ba bf
       -0.23973696141321357 -0.10528835772503586
000780 36 58 ee 36 93 c6 cc 3f c7 24 f9 c4 59 01 d4 3f
       0.22481002981356973 0.312582437855394
000790 6f 50 df 0c 2b 83 ce 3f e4 83 2b b8 fd ae d7 3f
       0.23837793472796728 0.3700556086096738
0007a0 62 7b 84 b8 e3 ee c5 3f fd 21 a3 76 c1 b2 c6 3f
       0.17135283002513818 0.17733019154390198
0007b0 8a a6 d4 1b 29 9e b3 3f d6 86 b9 67 5a ec c0 bf
       0.07663208894214271 -0.13221292557414327
0007c0 eb c4 d9 8e 74 6e ac bf 94 2c 19 75 fa 32 ba 3f
       -0.055530207097840144 0.1023403678783999
0007d0 12 d9 8b 2d 7b 37 73 bf 44 4d 7c cc ca 2a 90 bf
       -0.004691582835894674 -0.015788239222343195
0007e0 fd 85 c0 42 30 95 d8 3f 59 bb 30 74 ce d9 cd bf
       0.3841057445407328 -0.23320942567212447
0007f0 b0 1e 0b 2a 29 b7 d3 3f 72 46 82 ce 99 01 c5 3f
       0.30805424791149516 0.16411135276262062
