model/500_200_80/Theta2.npy (npy, 801728 bytes, 1 tensors)

array f8 [200, 501]
0.26085112539702565 -0.06601721041370728 -0.21699492211136187 -0.3866432420594751 0.0391107229529616 0.35847937574764593 -0.17053209759356236 -0.011127427864614969
0.360321158060913 0.3686400189350346 -0.34649862177340385 0.19180531108127336 -0.37843460763283887 -0.28576407199341464 -0.028868647450064896 -0.16066949822605256
0.0942131342792139 -0.11264376484226897 -0.31132707171466173 0.04344032387920984 -0.16871703299588175 -0.06638708413207405 -0.01609786047071914 0.0146124985109335
0.1749275897610126 0.38896544639303493 -0.20320842625669078 0.10755307251333367 0.02493968153943298 0.346399200518552 0.36683467338276776 -0.1867047672190857
-0.2553034965870877 0.3272514690101866 -0.011797182769077931 -0.016958321793446963 -0.21763863045194215 0.34226909327528054 0.13886865611659602 0.25260943883215825
-0.15512383062756024 -0.030728597888449043 -0.2932810019842233 -0.162071686378584 -0.37759932181507794 0.34595557587082937 -0.18379586307426607 -0.38983706572772575
-0.022814456891938836 0.03795256332343546 0.07308858228109585 0.11424194159894326 -0.047886437320241705 -0.2535499046161143 -0.266562443652773 -0.20921034156113152
0.03598130827967126 0.3055740729719752 0.3170678808728433 0.12736441269300255 -0.11415845472196688 0.19324219021814795 0.1932446526893793 0.023543635840233335
-0.28191481514619826 0.19282146963816615 0.06652943051492063 -0.3921647138568606 -0.012824386121527732 -0.3863390689494636 -0.20904349832384916 -0.29110900379156646
0.18715810277698905 0.09752725025070479 0.2060822539971674 0.07707760986501944 0.2085884753355415 -0.1011388264925505 -0.28559702174624246 0.17327949262239215
0.009011539322743676 -0.2797006595008985 0.08575973226939208 -0.39885955626239167 -0.028496240057813982 -0.3257267532521404 -0.33603662992703476 -0.025418028338100005
0.08365248442706545 -0.03305847357456839 -0.22718246814906315 0.054132033834401974 -0.3038659307579041 0.25781894025450136 0.3934509310045808 0.14787174961082608
0.25540544584666897 0.26504003823417877 -0.17612923507579686 0.31456815414228917 -0.21488886077835842 -0.11598346653541053 -0.07525525250789637 -0.32171218461842627
-0.1912702206917546 -0.22923008409094053 -0.09227393793471453 0.08779892581530126 0.269585222389316 0.3707884367535785 0.06087014452058612 0.33444185449264097
0.3164916653840442 -0.09015680340534216 0.01392704170133004 0.35830502260849384 0.0567183572062521 -0.33657274601190296 0.248815495156961 0.3691517313767876
-0.1776357967533464 -0.010040534575804182 -0.054395796471610455 -0.010322297665081852 -0.1097896540903672 0.1750131749444031 -0.38722777818771426 0.21287524628245927
-0.11569794102701533 -0.30908668989336413 -0.18787809431230923 0.07256162068889856 -0.3674346243151229 0.29387725472890885 0.36427453998969217 0.14943808471808775
-0.02237463618167999 0.1503297200356298 -0.08221305872707405 0.13288100107181633 -0.26562505616055276 -0.08499695484511172 -0.34094790520789775 0.13144678765056633
0.18820028494412136 0.39814919345208655 -0.26707197853308345 -0.3140110025789291 0.267379453008093 0.15267075456188772 -0.0926706871205968 -0.11456293121347119
-0.18256958104936144 -0.3603676104580653 0.3665088882008134 0.0671353066749814 0.3187930443207058 -0.06396855260150401 -0.17546477263171031 -0.3569996858886463
-0.37522856834592877 0.2852198773745234 0.38673575890533074 0.16409855472153384 -0.372190026531905 0.33588008717192314 -0.1632223467694033 -0.3167934080307604
0.2722224187788092 0.07514366414812204 -0.05156818573191417 -0.08262493879330852 -0.004874447090875544 -0.33290587546759814 -0.2830360241214692 -0.3299730252830316
0.3344607929661753 -0.34555774882580215 0.01890194822386257 -0.014231743681670895 -0.15362930932831834 0.133418397134596 0.3859851020637935 0.00034099064861264975
-0.07906758034678504 0.08227527502913567 -0.03994236111137999 -0.2200570895989797 0.02771634650844983 0.33912302862924304 -0.354200405840854 -0.15974818050048806
0.35640791897291774 -0.3805738383227852 0.00569980093304302 -0.32050311489104194 0.39313776497371544 -0.17266611107962418 -0.07107393227439464 0.18745523591867613
-0.38558242217599636 -0.26936360882501237 -0.35308943072460225 0.2111370106529319 -0.12653484035241688 0.3340755997673096 -0.19314797204949105 -0.26904957444282385
-0.0010240426599372574 0.04794065680374911 0.10473251233237232 -0.04428398002361023 -0.050163460296084164 -0.1440030446110077 0.22470752661971474 0.2960805107645398
0.36033696824821104 0.29868394728116954 0.1048423289510006 0.10886082258311915 0.12609005652770153 -0.1417415761739354 0.2770791580082691 -0.16504114517858862
-0.30575218651984865 -0.16497118672610417 0.23131783400763278 -0.1626997629786413 0.1639328521049216 0.2307893891934142 -0.03654512886123551 -0.23757313012183878
-0.37816231085602336 0.10518890286108402 -0.10651737302905358 -0.3492663354555873 -0.24481854886801813 -0.007293004663610167 -0.18114999730082243 -0.2088304535891619
-0.14929000921228153 0.10085957010487832 -0.11987642211621703 -0.06546397935824676 -0.25674692542193256 0.1175126285007147 -0.21771379277293054 -0.2890563889645548
-0.34929156565816366 0.3913774185094331 0.3681550809710861 -0.3635597993500713 0.15677312969936782 0.39378479631119573 -0.289773560937227 0.3420392902656048
00000000: 0d1f 2deb c8b1 d03f bc34 b3ff 80e6 b0bf
00000010: 19e5 ee56 7dc6 cbbf d259 f74b c3be d8bf
00000020: 9203 0318 5206 a43f c91a c87a 53f1 d63f
00000030: a493 0aeb fed3 c5bf 0610 2316 fac9 86bf
00000040: 066c 7b79 800f d73f aaa8 544e cc97 d73f
00000050: d00d 288e 082d d6bf c686 2591 138d c83f
00000060: e449 ddc9 4538 d8bf 2758 e563 f549 d2bf
00000070: 9f0c b622 be8f 9dbf 773d 2c70 d190 c4bf
00000080: a437 951a 5a1e b83f 458a 18c6 38d6 bcbf
00000090: 49ee d761 c8ec d3bf e317 c764 cf3d a63f
000000a0: 666b 7f0d 8598 c5bf e75b 3973 befe b0bf
000000b0: 3d7c 0721 f57b 90bf 050c bd59 28ed 8d3f
000000c0: 1b88 98fa 0664 c63f 5b0e e253 cfe4 d83f
000000d0: 8ca5 85d4 bb02 cabf 1772 0721 9988 bb3f
000000e0: 4d8c 56b2 c989 993f 529d 658d 672b d63f
000000f0: eaf0 4d23 387a d73f 4c4c 9b1a f1e5 c7bf
00000100: e357 197a e456 d0bf 8fde 3d25 b0f1 d43f
00000110: 81cc 6c11 1f29 88bf 2dd9 fdb5 855d 91bf
00000120: be93 1128 95db cbbf 3c21 83a0 bce7 d53f
00000130: 7be9 3ab8 72c6 c13f 687b 9cc7 c02a d03f
00000140: 2214 b001 19db c3bf 3b69 ee4b 5177 9fbf
00000150: c7dc 03ae 1dc5 d2bf 5642 4dd8 c3be c4bf
00000160: a400 8c58 962a d8bf d2fa 0edb 2224 d63f
00000170: fba3 8572 9f86 c7bf 856d 042a 17f3 d8bf
00000180: ff52 e848 ac5c 97bf 630b 8cb4 846e a33f
00000190: 52ba 9bee eeb5 b23f adbe ffba f53e bd3f
000001a0: a5be 6c34 9284 a8bf 75ba 0e61 293a d0bf
000001b0: f526 75ec 5b0f d1bf f1b9 7e8b 67c7 cabf
000001c0: ce2e a85c 246c a23f c1e3 7a8e 868e d33f
000001d0: 287f bd14 d74a d43f a368 9821 7a4d c03f
000001e0: 1bbe 970d 7d39 bdbf ade0 98fb 28bc c83f
000001f0: ecc0 b6a3 3dbc c83f 60d7 d9a7 d21b 983f
00000200: 43e4 d36f e40a d2bf a402 08b9 5fae c83f
00000210: 7e78 48a0 1208 b13f 3a44 2a07 3a19 d9bf
00000220: d4ab ddf7 ab43 8abf b385 9380 c7b9 d8bf
00000230: c005 5ff6 efc1 cabf 5cc7 b6a8 87a1 d2bf
00000240: c7e5 4df5 cbf4 c73f 73ab 4bbe 8bf7 b83f
00000250: 1816 9a3e e760 ca3f 60c5 9fb5 5bbb b33f
00000260: 65bf f1f3 06b3 ca3f bb2d 24f0 3be4 b9bf
00000270: 140c 0fbb 3847 d2bf 0fb9 f0bc 052e c63f
00000280: 7f23 6c55 a474 823f a276 4e98 9de6 d1bf
00000290: 3b27 698d 59f4 b53f d204 763b ea86 d9bf
000002a0: d0d9 6d4c 1e2e 9dbf f49c 2906 b5d8 d4bf
000002b0: dcdb f2c7 9f81 d5bf f985 c301 2f07 9abf
000002c0: c3e8 d7cc 3f6a b53f f386 b74d 0aed a0bf
000002d0: 735f 76ab 5014 cdbf 7a2d f8a5 31b7 ab3f
000002e0: b752 be16 8a72 d3bf 72ad 2b03 1b80 d03f
000002f0: 13b5 4fd0 4c2e d93f 9d57 4a24 76ed c23f
00000300: 776e 4815 9058 d03f 362b 167e 6af6 d03f
00000310: ca90 421c 678b c6bf b9de 9977 e221 d43f
00000320: ebab a86a 7a81 cbbf d473 a5ab 17b1 bdbf
00000330: aba6 5fa0 ed43 b3bf 734b eab3 ee96 d4bf
00000340: d4ee 48e7 8a7b c8bf 9a07 3751 6957 cdbf
00000350: 4ae6 b3c9 439f b7bf 892a 008b fd79 b63f
00000360: 6f68 6960 e240 d13f 83dc 656c ffba d73f
00000370: 7c94 0920 5f2a af3f 2e68 ddce 7e67 d53f
00000380: a5fc 1142 6641 d43f e049 232a 8414 b7bf
00000390: aa11 19e5 c785 8c3f 3825 8630 78ee d63f
000003a0: f540 9142 300a ad3f 7b25 366a 688a d5bf
000003b0: f8f5 37a7 2fd9 cf3f e89a 6195 2ea0 d73f
000003c0: 80c7 d310 c5bc c6bf 2678 19bd 2190 84bf
000003d0: 4658 c50d c4d9 abbf fcfa 2057 db23 85bf
000003e0: 16dd c1bd 2c1b bcbf eaae 60eb d466 c63f
000003f0: 7cd0 da04 57c8 d8bf 319f 74fe 7e3f cb3f
00000400: fef1 ec58 619e bdbf 1b23 2e8a 13c8 d3bf
00000410: d663 5aaf 630c c8bf 2db7 cdfb 6593 b23f
00000420: f77e b683 0c84 d7bf c954 868b e2ce d23f
00000430: e25a 0129 4650 d73f 650e 5283 c920 c33f
00000440: 1b0f a46a 60e9 96bf 2bbe 9517 013e c33f
00000450: f672 893e ea0b b5bf 147d eea0 3e02 c13f
00000460: 924b 4d3c 0000 d1bf 80c0 5145 5cc2 b5bf
00000470: fe7c a029 17d2 d5bf dacc 0f93 3fd3 c03f
00000480: b168 776a f216 c83f 228d 33c1 467b d93f
00000490: 1f91 5e11 b517 d1bf 7448 aa9a c118 d4bf
000004a0: 3bb2 92b5 be1c d13f d010 f31c b78a c33f
000004b0: 7916 7b22 44b9 b7bf 4a50 e50a ff53 bdbf
000004c0: 9efb eca5 705e c7bf ac1f 5d4f 4310 d7bf
000004d0: 1803 21b2 e174 d73f 2373 938a c72f b13f
000004e0: 732e e3f0 1a67 d43f b75a 6539 3e60 b0bf
000004f0: 9bd1 0632 a175 c6bf 8ebc e435 15d9 d6bf
00000500: c685 64af be03 d8bf 8988 5fdf 0a41 d23f
00000510: f64b 2c57 47c0 d83f 06c8 ec72 2e01 c53f
00000520: 9a85 f61d f6d1 d7bf 8bfc 7131 0f7f d53f
00000530: 35ec ac48 78e4 c4bf e826 c5db 5746 d4bf
00000540: f126 7994 176c d13f 028e 047c 9d3c b33f
00000550: a61a 772e 2567 aabf e585 f371 e826 b5bf
00000560: 4c58 766d 3af7 73bf afe4 f171 544e d5bf
00000570: ce42 cc20 431d d2bf 81c7 092e 471e d5bf
00000580: 6f5f e53d ce67 d53f 5884 853f 9e1d d6bf
00000590: f806 cf45 085b 933f ba32 6c4d 8825 8dbf
000005a0: 49d7 a20d 20aa c3bf bb5c 30a2 da13 c13f
000005b0: 9ddc 86db fab3 d83f 0dcc 1caf df58 363f
000005c0: 3e67 c3df c53d b4bf c800 850f fe0f b53f
000005d0: 9794 653d 5373 a4bf c74f 8aa9 d42a ccbf
000005e0: 8d09 4687 ac61 9c3f d41d 5213 31b4 d53f
000005f0: d23f d42d 38ab d6bf 462c 6cdd a072 c4bf
00000600: d98a 0129 63cf d63f bbcf 535f 525b d8bf
00000610: 8d3a 9ea9 ac58 773f 2f48 2e7f 1f83 d4bf
00000620: fa9d d84c 2b29 d93f 6174 1b52 ec19 c6bf
00000630: f975 b7b6 e631 b2bf f209 de7d 88fe c73f
00000640: ba22 4ae5 61ad d8bf a7b3 a8dc 403d d1bf
00000650: 8da0 6169 0499 d6bf c461 dd9d 8906 cb3f
00000660: 8f21 8f2c 4b32 c0bf 7a19 d99f 7e61 d53f
00000670: 77e2 9e9f 12b9 c8bf 7004 cfb4 1b38 d1bf
00000680: b223 fc6e 25c7 50bf aae1 3d82 ad8b a83f
00000690: fea2 4bfb bfcf ba3f b151 e0cb 63ac a6bf
000006a0: 6a0c da6a 06af a9bf 7a79 9017 b16e c2bf
000006b0: a994 ff5a 37c3 cc3f fedd adab fbf2 d23f
000006c0: 669d 8ac9 c20f d73f 806b 5a46 a31d d33f
000006d0: d4bd 1466 f2d6 ba3f 5166 cf88 4dde bb3f
000006e0: 0b92 910e b823 c03f 1245 1385 9624 c2bf
000006f0: 6e1e 8338 aabb d13f 9da9 8478 1120 c5bf
00000700: a320 729e 7191 d3bf baad e29d c61d c5bf
00000710: eaac 05a2 d29b cd3f 28b5 8788 58d3 c4bf
00000720: 1cec 436f c0fb c43f 65bd 6cb7 818a cd3f
00000730: 6000 930a 0bb6 a2bf 1c0d 24dc cb68 cebf
00000740: c235 6db1 cf33 d8bf 15c3 b0f1 a8ed ba3f
00000750: 1d99 9df9 b844 bbbf 6608 1830 615a d6bf
00000760: 00d1 6bd6 3656 cfbf 0a06 5108 45df 7dbf
00000770: 32ec 0951 ec2f c7bf 8a82 49d0 f4ba cabf
00000780: 48d8 975d ef1b c3bf 67cd 16cb eed1 b93f
00000790: f5f6 8ca0 38b0 bebf 5fe1 6852 3fc2 b0bf
000007a0: c049 02a8 8a6e d0bf a40e 47c0 4e15 be3f
000007b0: 9b86 eca9 0bde cbbf 195e 535e e67f d2bf
000007c0: 0c4f d102 cb5a d6bf d604 39df 530c d93f
000007d0: 8921 2854 da8f d73f 0654 1652 9044 d7bf
000007e0: 1ba5 7954 2411 c43f 0f64 7425 c533 d93f
000007f0: 7522 de67 a68b d2bf 1bd2 68c3 f8e3 d53f
