model/600_600/ini_Theta3.npy (npy, 48208 bytes, 1 tensors)

array f8 [10, 601]
0.18491521999190597 0.008645433542402159 0.023122244244043633 0.21670147911502402 0.13998983236046336 -0.07212211100026672 0.3926252725604622 0.260103891647002
0.01336494779084435 -0.19732414528892345 -0.03804124630353806 0.047238972356864306 -0.39083715996766755 0.37851419500680894 -0.36160565483052753 -0.02203872537341106
0.1919840364046732 -0.3407277708340118 0.047987908289556624 0.03215727679710695 0.24998059316236032 -0.23300423906678996 0.07054871046645966 0.10975772032356423
-0.2938686802761137 0.39189297894746333 0.18143381080426102 0.3421072918325838 0.1511006912684275 0.32559265862931996 -0.3685069168305395 0.3234831921711566
0.15683076217806124 -0.017189301916675614 0.0461681032336162 0.36805849867706775 0.09904761661647193 0.33146207700404107 -0.3008312182690377 0.31383328464504723
0.07832247313907825 -0.2230084775135091 0.3732541257406704 -0.20298178303995656 0.3438298091270574 -0.15971858666309302 -0.2225891434836826 0.07998056159102973
0.16608538278178142 0.25931351299446026 -0.09000357393186675 -0.06965591970158069 0.14170346602755102 -0.08133129339942258 -0.3720904772374821 -0.2572778235134486
0.21081428135471347 0.14761406507795705 0.08356442260082081 -0.30355649539782803 0.2955687560075527 0.3347933353449175 -0.316297548830572 0.39988345803330627
0.008661867832056802 0.3474261205370496 0.019517728963578285 0.16087553181197012 -0.11499230572871222 0.2749176057078361 0.2695945464160626 -0.1695107811654297
0.059207257318297846 -0.08978083479569543 0.015788964652442394 -0.09387723908349777 -0.3803879092864453 -0.226659223987003 0.2195429137779955 -0.04361235498301169
-0.2535631621302053 -0.0957742854685183 0.1934693900364406 0.03840446560091326 0.26859606818118464 -0.3676926327418957 -0.02248518812721878 -0.08269393157134586
-0.17074228012868115 0.2415507909147584 -0.02593258578198654 0.08898374588102104 0.35541925530133067 -0.17389263630263516 0.32407722710205655 -0.14219589195622045
-0.10735448253287688 -0.3547469190372905 -0.1392018965479248 0.3318389273771273 0.04037864754000697 -0.024971760359053685 -0.19460975290726623 -0.0664551732597774
0.342984263955613 0.12446535319017493 0.1488911036618361 -0.17208206850477678 -0.03918963141831222 0.29579533876933917 -0.17341333298556175 -0.2842656379259758
0.1362736545862573 0.24872283970768805 -0.19407388173672482 -0.2594260944762621 0.39634991015749044 -0.29478758183245635 0.12136084343573716 0.16971998160555635
0.0390704846597692 -0.01866177408205305 -0.07474761427811832 -0.17731260926657422 0.3332549027831544 -0.24214226566189076 -0.16583439877215111 0.042364100975406604
0.0029503710088521484 -0.11760187250352744 -0.2454958963581925 -0.08297475112716429 -0.08362782154942827 -0.09908517169211162 0.22930284692562042 0.2612978282293401
-0.3463206148508833 0.2430536116891001 -0.038771558837788433 0.08110587943353365 0.38194949714548 -0.2399631173156391 -0.04539712344984492 -0.27277812081501696
-0.055746274012007824 -0.2299674229792653 -0.10024861577404176 0.18938194346727133 -0.36745020474607765 0.2126112243544942 -0.034825837199237764 -0.25532885629008184
0.1730501940974014 -0.18932718240030644 0.08647061210127999 -0.10527632102966411 -0.33509058436500827 0.26663347394619763 -0.021673423578959294 0.3931640854969861
-0.21568128305242962 0.33377590428110415 0.16521579694347766 0.10151242245840775 -0.3735573570119988 -0.017060633918171697 0.1769130738526542 -0.1825318870756182
-0.3570391634995065 -0.29721055702986104 -0.1880768108677643 -0.2276541993480896 0.17846240444164796 0.10398226491203955 0.3068953285037528 -0.3011258974951238
0.31250683276940816 0.27297835162572714 0.009360500680803685 0.3744843335912532 -0.35219211842713016 0.13117663108054978 0.17730952974904246 -0.39724110782340544
-0.12659014554468911 0.10120426479217781 0.06093539900944095 -0.0651221828958512 0.3374145827122127 0.3778017601237419 -0.3159897385830277 0.23847986998188675
0.20003088026941807 0.06921234612395022 -0.03773887269108256 -0.18989701803177797 -0.10309249120640951 0.35809314108349366 -0.10064183329756082 -0.293309939686245
0.3113707325691263 -0.0016832766663337217 0.009214380547946266 -0.16832778717382252 -0.09363507068876198 -0.0714533517371495 -0.3005019262592641 0.19515115070559974
0.17935545447445034 -0.14530828731174666 -0.0007262552946190048 -0.03511553175016441 -0.016866984258465945 0.13205446080440109 0.2585753346318095 -0.10762728861399867
-0.020179011161049254 0.3361301588964456 0.0007085217097739793 0.3047346471419231 0.2762326714931983 0.18288549671449683 -0.1951154531242903 -0.3983842050671149
0.30908498980209753 0.317084866112875 0.18490915081785497 -0.3622747853740383 -0.3848094266386339 0.06738020527499122 -0.11997426157209018 0.10061078468612317
0.37990707725589945 -0.3976170660582993 0.2305967572649228 -0.011827967385304117 -0.1310666371220907 0.19823924277200977 -0.24006010407112416 0.18480855886393155
-0.11495675986824588 0.09108336373670811 -0.35281906436868926 0.3395345263144125 0.26449762181356373 -0.20539251516619503 -0.24359786099095881 -0.10755305463991816
-0.00022575632308674543 0.0699736743976106 0.3957482716508066 -0.3772936923704888 0.16026279833382862 -0.20621762478370131 0.1303258991009837 0.12841242938393704
00000000: c8ed 324b 4dab c73f 6049 9872 b2b4 813f
00000010: 2069 5a8b 5bad 973f 0c9d e5c2 dfbc cb3f
00000020: 085f e1d3 2feb c13f 6c8b 103c 9876 b2bf
00000030: c4bc 4ec0 c520 d93f b8ea 0bcb 8aa5 d03f
00000040: 6038 65ed 145f 8b3f ea10 5de7 ea41 c9bf
00000050: 68a9 8b69 247a a3bf 681f bde2 b42f a83f
00000060: 8ad9 07dd 7903 d9bf 9010 289a 9339 d83f
00000070: 10ee 620b 8c24 d7bf b0b5 e5d2 5191 96bf
00000080: 9027 dbd2 ee92 c83f 4d8c 24da 7bce d5bf
00000090: 1808 6a01 df91 a83f 980f 5828 eb76 a03f
000000a0: ac2d 2234 5dff cf3f 6a84 4f39 15d3 cdbf
000000b0: 8c79 3af4 7a0f b23f f0f1 45fb 1419 bc3f
000000c0: 94b1 c694 bece d2bf b620 074a c614 d93f
000000d0: 787f e51d 3939 c73f 8838 89fb 15e5 d53f
000000e0: 5450 b377 4457 c33f 1a5c 2897 82d6 d43f
000000f0: f0c3 0809 9e95 d7bf 3e92 cbd8 f2b3 d43f
00000100: 1ce0 47c9 0713 c43f d0f2 4a86 129a 91bf
00000110: 9072 037b 58a3 a73f aa4d b53b 458e d73f
00000120: 6c4f 1d42 2f5b b93f 882e 26b7 ac36 d53f
00000130: ea34 0595 d140 d3bf 5697 7c33 d815 d43f
00000140: 0897 ac0c f10c b43f ea5c d3b2 8a8b ccbf
00000150: dece c945 65e3 d73f 9a91 eb9b 4efb c9bf
00000160: f2cc 65be 4e01 d63f 8002 249d a871 c4bf
00000170: 3781 da11 cd7d ccbf 4864 5928 9b79 b43f
00000180: 2819 b22b 4942 c53f 8636 6eb4 9798 d03f
00000190: 007c 8f66 790a b7bf c051 1769 f8d4 b1bf
000001a0: 14ba 28d4 5623 c23f 00ba 4aad 20d2 b4bf
000001b0: 4ad5 b893 54d0 d7bf 0d7c 7e67 3d77 d0bf
000001c0: d45f f95d f6fb ca3f 9c3f f886 04e5 c23f
000001d0: 74fd 2d5e 7a64 b53f 0036 0e39 786d d3bf
000001e0: de65 3137 99ea d23f 6069 8e06 416d d53f
000001f0: b510 0213 383e d4bf 5eb9 9dc9 b097 d93f
00000200: c0d7 7c38 50bd 813f e6e5 5ec4 3a3c d63f
00000210: 60f0 5c9e 74fc 933f 58f4 edc5 9197 c43f
00000220: e87d 65c0 2270 bdbf 9e06 6703 4098 d13f
00000230: 465d 027c 0941 d13f 3764 b67e 87b2 c5bf
00000240: 6863 bce3 6950 ae3f a04d 4175 e0fb b6bf
00000250: 609e 477b fb2a 903f 38d0 b3b7 5608 b8bf
00000260: 5476 8b87 4658 d8bf 8432 2e61 2b03 cdbf
00000270: 6c5d 5f71 fb19 cc3f 2808 b5cc 5b54 a6bf
00000280: f573 34fc 603a d0bf e892 e2df a984 b8bf
00000290: f8e5 7ddf 9ac3 c83f 8074 8d07 c0a9 a33f
000002a0: 2e08 2b90 ad30 d13f 38d2 26ae 4688 d7bf
000002b0: 806e 9a6e 5b06 97bf 2835 adf3 6d2b b5bf
000002c0: 6a3c 990e e2da c5bf 14a2 a6e5 22eb ce3f
000002d0: 005f 565f 128e 9abf 543f 6f86 a3c7 b63f
000002e0: 30d3 7867 30bf d63f 67af f728 1d42 c6bf
000002f0: 5607 f268 aebd d43f 0eec c998 7933 c2bf
00000300: 0cc6 8e57 957b bbbf 94cd e76b 2cb4 d6bf
00000310: 2475 9b24 5ed1 c1bf 7ef7 2757 d93c d53f
00000320: 8036 4895 82ac a43f e042 4378 3292 99bf
00000330: a413 1cee f8e8 c8bf 74fe cccb 3403 b1bf
00000340: ead8 2e45 74f3 d53f 10d8 6f1d f6dc bf3f
00000350: 984b 721a dd0e c33f c75f 3a04 c906 c6bf
00000360: 4061 91d2 a910 a4bf 16b5 9492 4fee d23f
00000370: 1d82 ee78 6832 c6bf 7431 9180 6831 d2bf
00000380: 608f e044 6a71 c13f dc08 2867 26d6 cf3f
00000390: 9d93 88b7 69d7 c8bf 944a e0e7 6f9a d0bf
000003a0: 8e88 7903 cc5d d93f 5030 cfbb ccdd d2bf
000003b0: b04b 9215 8111 bf3f 789e 3c65 62b9 c53f
000003c0: 2885 b4eb 0b01 a43f a095 7875 121c 93bf
000003d0: 744e c7de a822 b3bf 50f3 fbf8 2db2 c6bf
000003e0: 14dc 2b5f 0c54 d53f 17a3 ff8b 84fe cebf
000003f0: 709c a3c3 0f3a c5bf e878 6d58 bfb0 a53f
00000400: 808e cf5f 602b 683f ecdb 5904 281b bebf
00000410: ed8f 14d7 686c cfbf 0c23 7c52 d53d b5bf
00000420: 382c 9706 a268 b5bf 78a8 ef53 a55d b9bf
00000430: 106e 36b2 cb59 cd3f a0b1 b086 1ab9 d03f
00000440: 1cc5 adf0 1d2a d6bf 248f b078 611c cf3f
00000450: a84c 72a2 ddd9 a3bf 282b aedb 5ac3 b43f
00000460: b0a9 bd4d dc71 d83f f7f5 8e86 1cb7 cebf
00000470: c05f 19b1 4a3e a7bf dabf fd5c 3275 d1bf
00000480: 80c7 828f c68a acbf 24b1 6b90 926f cdbf
00000490: e801 38ae e4a9 b9bf 7c8a d2e2 aa3d c83f
000004a0: ffbe 12dd 4d84 d7bf a8ba ae37 d836 cb3f
000004b0: 1831 a72f b1d4 a1bf 4e6c dfd7 4e57 d0bf
000004c0: 487e 1b3e 8226 c63f 309a 5384 df3b c8bf
000004d0: f443 0a23 f022 b63f 4098 dd93 63f3 babf
000004e0: 34e5 42c7 1f72 d5bf d289 a7d8 8510 d13f
000004f0: 001f dbd5 8e31 96bf a2f6 4ab2 9929 d93f
00000500: 84e5 88bc 719b cbbf 7c21 459c 955c d53f
00000510: ecd0 538e ca25 c53f 98ba 98d6 b7fc b93f
00000520: a5fd e21d 5de8 d7bf a009 e9c2 5778 91bf
00000530: 344b 376d 16a5 c63f ddc4 bb72 345d c7bf
00000540: ecc7 a7ca bad9 d6bf 4f07 9e6d 7f05 d3bf
00000550: 3411 e8a3 e612 c8bf 47a1 7fd6 c523 cdbf
00000560: 443a 5227 dbd7 c63f 9845 29eb 949e ba3f
00000570: bc00 ce4d 2ca4 d33f d717 6e8e a545 d3bf
00000580: 825a a1a8 1c00 d43f 34e7 2f31 7a78 d13f
00000590: 60ca 6222 992b 833f e2e1 6823 8df7 d73f
000005a0: 446c a3cf 508a d6bf 08c6 3e56 65ca c03f
000005b0: 8c48 c523 14b2 c63f 0f9d aef7 656c d9bf
000005c0: f61e 8e1b 1b34 c0bf 5085 7fcf 85e8 b93f
000005d0: d819 d4b3 ec32 af3f cc24 c8ed d8ab b0bf
000005e0: f250 7c55 3398 d53f c692 066f e72d d83f
000005f0: 007c 4506 2d39 d4bf eccb 2925 8286 ce3f
00000600: 3c3f 79a4 9c9a c93f c0f0 147b e6b7 b13f
00000610: c001 fe6f 8252 a3bf ddf6 06a5 8b4e c8bf
00000620: a0d7 31fe 4464 babf 8208 787e ffea d63f
00000630: a85c 9fc6 a9c3 b9bf 6fd3 a20d 97c5 d2bf
00000640: ae38 5482 7fed d33f 0078 d98e 2c94 5bbf
00000650: 60c2 d938 fdde 823f fab5 75d2 c38b c5bf
00000660: e8eb 5dce 77f8 b7bf 7890 e650 c44a b2bf
00000670: 68c9 6a6e 6c3b d3bf 3456 0781 b6fa c83f
00000680: 84da a999 1ef5 c63f 9abd eb42 7699 c2bf
00000690: 0070 955e 45cc 47bf a8af e5b8 a9fa a1bf
000006a0: d0ca 1627 9445 91bf 8410 391b 29e7 c03f
000006b0: aaef 728f 7f8c d03f 5418 c144 768d bbbf
000006c0: a061 0284 cea9 94bf 8835 ea11 2883 d53f
000006d0: 00d0 36c9 8237 473f b2b0 dbbf c580 d33f
000006e0: 9299 89cc cbad d13f e096 a6bd ca68 c73f
000006f0: 5a78 0e0d 8bf9 c8bf d865 0077 207f d9bf
00000700: b09b b868 0cc8 d33f beb9 8052 1e4b d43f
00000710: 7435 bf61 1aab c73f d533 d694 822f d7bf
00000720: 97bf a6b7 b7a0 d8bf 60c9 0d42 d43f b13f
00000730: 3c5a d019 a2b6 bebf 580f dadd a0c1 b93f
00000740: 6c50 15c6 6550 d83f ca51 c3d9 8e72 d9bf
00000750: 781c 82cd 3184 cd3f 00c7 c8e8 4239 88bf
00000760: 3e9e 04a4 cac6 c0bf c4aa 3e4c e75f c93f
00000770: aaa8 071c 4aba cebf 84b5 2b8e cea7 c73f
00000780: fc96 1664 ce6d bdbf 2076 7544 3d51 b73f
00000790: 109b b769 9694 d6bf 3887 9805 efba d53f
000007a0: 30c7 e36e 87ed d03f e7b1 bd4b 4d4a cabf
000007b0: e075 2af7 362e cfbf e06a 43d4 9888 bbbf
000007c0: 0040 8e0c 2097 2dbf 7862 1e73 cbe9 b13f
000007d0: 4a14 0c8f f053 d93f 30f9 6d71 9425 d8bf
000007e0: 7cfb cdca 7d83 c43f 9003 27d1 5665 cabf
000007f0: 58f2 3ae1 84ae c03f 384d 4d88 d16f c03f
