model/600_600/Theta3.npy (npy, 48208 bytes, 1 tensors)

array f8 [10, 601]
000000 1f 8b fa c6 9d aa c7 3f 45 4a f2 53 ca b2 81 3f
       0.18489429679638023 0.008641796767084329
000010 71 88 84 1a 77 a8 97 3f 05 c4 38 f0 70 bc cb 3f
       0.02310358142234076 0.21668826798989485
000020 a9 9b 9f 09 7f ea c1 3f fd 36 9b 5b 57 77 b2 bf
       0.13996875734229988 -0.07213350283128857
000030 aa 0b 2e 35 b0 20 d9 3f 1d 85 b7 be 79 a5 d0 3f
       0.3926201361975311 0.26009982704825224
000040 4b 04 33 c4 04 59 8b 3f ef 72 3c 41 f9 41 c9 bf
       0.013353383290793405 -0.19732585606916284
000050 e3 65 e1 39 ed 7a a3 bf e1 24 1c 89 e3 2e a8 3f
       -0.03804723102139087 0.04723273323731703
000060 1e 1e 38 c4 cb 03 d9 bf 7d ef c2 66 4f 39 d8 3f
       -0.39085668718368705 0.37849793467807286
000070 84 62 c1 69 9a 24 d7 bf 86 ee c6 b0 d3 92 96 bf
       -0.3616090805785819 -0.02204447523557331
000080 c5 21 60 35 c0 92 c8 3f 88 24 92 6e b8 ce d5 bf
       0.1919784794447549 -0.34074221418320194
000090 5d 2e fd ea d5 90 a8 3f c5 4c a5 34 5f 75 a0 3f
       0.047980008063487324 0.0321454765095495
0000a0 fb 94 01 96 5e ff cf 3f 57 dd 31 8f 53 d3 cd bf
       0.24998075794716343 -0.233011670035675
0000b0 53 23 7e 54 71 0f b2 3f 7f 83 9b f6 48 18 bc 3f
       0.07054813683329302 0.10974555988970101
0000c0 db 7b 6a ea ee ce d2 bf fd 1d 31 ea cd 14 d9 3f
       -0.2938802041261945 0.3918947970418854
0000d0 19 8b a4 04 c7 38 c7 3f c2 61 a9 51 c3 e4 d5 3f
       0.18142020918556837 0.342087583301261
0000e0 77 32 d3 af 00 57 c3 3f 35 f5 3e 68 70 d6 d4 3f
       0.15109261117176562 0.3255883234049464
0000f0 06 87 2d 8f b9 95 d7 bf 87 f9 95 1a b5 b3 d4 3f
       -0.3685134790631398 0.32346847149155916
000100 3e ad 16 0b 8b 12 c4 3f 93 ec d7 7e 47 9b 91 bf
       0.15681589166102045 -0.017193905941877374
000110 72 7d 70 2f 69 a2 a7 3f d8 65 f8 aa ed 8d d7 3f
       0.04616097168058787 0.3680376214630008
000120 93 9b b9 ea 11 5b b9 3f ea 6e 72 58 85 36 d5 3f
       0.09904586773482853 0.33145269048121284
000130 c3 7f ff d5 f5 40 d3 bf 02 df 7d 4b b2 15 d4 3f
       -0.3008398618530885 0.31382424709543966
000140 19 07 24 06 d5 0c b4 3f 45 31 2b 42 01 8c cc bf
       0.07832080268783805 -0.22302261095900114
000150 73 eb b3 f5 5e e3 d7 3f 82 bb e7 09 01 fc c9 bf
       0.37325262064376047 -0.20300305350926
000160 b8 54 b7 7a 33 01 d6 3f f4 c0 db a6 31 72 c4 bf
       0.34382330879209233 -0.15973492286094138
000170 94 14 ab 64 d5 7d cc bf cd 74 3f 35 85 78 b4 3f
       -0.22259013572162145 0.07996399450299237
000180 67 cd 9f 86 32 42 c5 3f 6f ff 3b 41 87 98 d0 3f
       0.16608268331001882 0.25930959101241674
000190 68 e6 6f d9 a3 0a b7 bf 97 88 e7 a9 a0 d5 b1 bf
       -0.09000610407374554 -0.06966594837243388
0001a0 95 38 ae ed fa 22 c2 3f d4 ad 68 78 98 d2 b4 bf
       0.14169251065726898 -0.08133843364401311
0001b0 02 1a 09 dd a4 d0 d7 bf 53 e7 87 75 41 77 d0 bf
       -0.37210961900237305 -0.2572787902605473
0001c0 11 e4 6b a6 81 fb ca 3f 92 42 93 e2 07 e5 c2 3f
       0.21080036760375312 0.14761446536296724
0001d0 8a a6 a5 2c e2 63 b5 3f d3 8f 6f 18 95 6d d3 bf
       0.08355535116211335 -0.30356337915713744
0001e0 61 b0 b8 7e 97 ea d2 3f 19 a5 a5 52 13 6d d5 3f
       0.29556834578648333 0.33478243895531673
0001f0 03 98 05 7e 82 3e d4 bf b3 07 29 3a a2 97 d9 3f
       -0.3163152914697777 0.3998799865695403
000200 7c 30 16 9d 95 ba 81 3f db 92 a8 09 05 3c d6 3f
       0.00865666280403609 0.34741331046306606
000210 20 17 43 87 cf fb 93 3f ec ba 62 9a 62 97 c4 3f
       0.0195152689273278 0.16086990869867834
000220 20 c6 5d 08 44 71 bd bf 5a 9b 7d 2f f6 97 d1 3f
       -0.11500954822783926 0.274900003793325
000230 b8 5b 1c 25 e1 40 d1 3f ca f0 ad 48 10 b3 c5 bf
       0.2695849287423999 -0.16952708767701657
000240 65 b9 59 ba 57 50 ae 3f 84 d7 51 15 dc fc b6 bf
       0.05920671605859943 -0.08979583282947884
000250 11 d9 81 ca b4 2a 90 3f 45 93 4d 14 c8 08 b8 bf
       0.015787911281642645 -0.09388399596862225
000260 c4 06 c7 e9 6d 58 d8 bf 3a a3 0c f6 5f 03 cd bf
       -0.3803972990973359 -0.22666549219254667
000270 bf 7c 30 48 69 19 cc 3f 36 d8 0a 09 69 55 a6 bf
       0.21952549004433838 -0.043620378831676396
000280 42 ee 3a d8 a1 3a d0 bf 02 07 54 26 0a 86 b8 bf
       -0.2535786258338001 -0.09579528270480966
000290 dc 85 92 44 79 c3 c8 3f e0 b8 cf f8 d7 a9 a3 3f
       0.19346538398990176 0.03840517914055552
0002a0 94 df 12 26 64 30 d1 3f 85 f3 f8 29 7b 88 d7 bf
       0.26857856481682885 -0.3677051458251344
0002b0 f0 4c 8f d9 1f 0b 97 bf d9 a4 6e 78 cf 2b b5 bf
       -0.022503373769564072 -0.08269974413146332
0002c0 7c cb 6e 7a ed da c5 bf 4d 31 e3 30 09 eb ce 3f
       -0.17074364164508526 0.24154772650798365
0002d0 83 06 7d 84 1b 8e 9a bf b8 12 57 4c 6a c6 b6 3f
       -0.025932722054909717 0.08896507610104265
0002e0 65 8c b8 5b 2a bf d6 3f 7c 3f 8e 3f 93 42 c6 bf
       0.3554178138458098 -0.17390671351722264
0002f0 f4 1e 74 5e ae bd d4 3f de cd 43 47 e5 33 c2 bf
       0.3240772173307811 -0.1422087285969686
000300 61 6a a5 4b d1 7c bb bf e0 2e 09 90 7d b4 d6 bf
       -0.10737331482725089 -0.3547662645912464
000310 3e ba ac dc c5 d1 c1 bf 62 68 27 53 bf 3c d5 3f
       -0.13921426081783922 0.33183272476674663
000320 a8 da c4 d1 3c ab a4 3f 45 6a 8e 4d a0 97 99 bf
       0.040368939024508166 -0.02499247048727173
000330 40 39 31 2c 9c e9 c8 bf 14 b4 b2 d0 68 04 b1 bf
       -0.19462921293092883 -0.06647353263061034
000340 ec 51 a1 83 6e f3 d5 3f 16 dd f9 ef e9 db bf 3f
       0.3429828916025872 0.12444936856069364
000350 f5 a1 65 69 da 0e c3 3f 6e ca 8e a7 c7 06 c6 bf
       0.14889078279817594 -0.17208190614254043
000360 eb f9 fd f8 14 12 a4 bf 86 15 63 07 3e ee d2 3f
       -0.03920045413450509 0.2957911560191281
000370 14 67 1e fd d5 32 c6 bf ec 98 c5 9c a7 31 d2 bf
       -0.1734263883525321 -0.2842806845641366
000380 08 89 ad 2b 37 71 c1 3f 10 3f be 4f b0 d5 cf 3f
       0.13626756317814448 0.2487087621088837
000390 45 26 3c a5 0f d8 c8 bf f4 1b 69 18 88 9a d0 bf
       -0.19409366195786695 -0.2594318617233846
0003a0 46 88 41 c2 77 5d d9 3f 96 8a 35 4d 05 de d2 bf
       0.39632982225714775 -0.29480106868701605
0003b0 7b 14 fc fd 0b 11 bf 3f 55 b3 37 a6 dd b8 c5 3f
       0.1213538642005733 0.16970415702908306
0003c0 eb 2b 35 44 d9 ff a3 3f 65 e6 ed 6e a8 1f 93 bf
       0.03906134564984839 -0.018675452967249834
0003d0 eb a7 4b e2 f8 23 b3 bf 40 c0 09 9f dd b2 c6 bf
       -0.07476764225762593 -0.17733354821712233
0003e0 36 74 e8 74 bc 53 d5 3f 11 1b a2 4b d2 fe ce bf
       0.3332358495407023 -0.24215153401402081
0003f0 27 34 44 93 9c 3a c5 bf 87 7c f6 50 a5 ae a5 3f
       -0.165851184756691 0.04234806645694627
000400 08 dc b1 ec 10 0c 68 3f ce b9 e8 3e b4 1b be bf
       0.002935441070401893 -0.11761023078790986
000410 f8 61 c9 af bc 6c cf bf e2 cf 9d d7 06 3f b5 bf
       -0.2455058916409738 -0.08299296154092375
000420 6c 9b c7 77 d4 69 b5 bf a7 c7 b1 7f bf 5e b9 bf
       -0.08364608692464309 -0.09910199039020871
000430 cd 59 a8 28 a0 59 cd 3f 4a 04 4c ff 17 b9 d0 3f
       0.2292976568721329 0.2612972252973732
000440 af b1 f4 47 68 2a d6 bf 06 c6 96 4d cf 1b cf 3f
       -0.3463383391088212 0.24303618706248659
000450 41 da 1c ca 72 dc a3 bf 02 38 66 79 2c c3 b4 3f
       -0.03879126279064283 0.08110311473703294
000460 83 bb 80 c9 85 71 d8 3f 71 79 6d 55 88 b7 ce bf
       0.381928869991434 -0.23997596904059607
000470 5f fb bd 91 40 40 a7 bf fd 99 82 4d 37 75 d1 bf
       -0.04541208056524825 -0.2727792984900644
000480 c0 27 7d cb 36 8c ac bf c6 f3 a4 40 ed 6f cd bf
       -0.055757248249008295 -0.2299782338758673
000490 8f d0 39 27 16 ab b9 bf f4 02 46 89 5b 3d c8 3f
       -0.10026682336484981 0.18937248423392072
0004a0 f3 a7 47 ac 79 84 d7 bf 89 cb 04 11 84 36 cb 3f
       -0.3674606497212373 0.21260119276993475
0004b0 e9 aa 30 ab a1 d5 a1 bf 9d f0 ba 9a 87 57 d0 bf
       -0.03483300413821217 -0.2553423892056886
0004c0 84 d8 c7 58 f9 25 c6 3f 89 8c 7b de 8d 3c c8 bf
       0.17303387484543375 -0.1893479667988667
0004d0 8f c6 d8 ea 85 22 b6 3f fc e4 69 a3 af f3 ba bf
       0.08646428092540702 -0.10528085460272857
0004e0 73 1a 7c 72 4c 72 d5 bf 55 b1 28 0c 64 10 d1 3f
       -0.33510123424677046 0.26662541568182024
0004f0 47 28 75 77 cf 33 96 bf 5e e4 59 25 85 29 d9 3f
       -0.021682016054264144 0.3931591858632312
000500 27 fc f8 dd 71 9b cb bf ce f0 3a 63 65 5c d5 3f
       -0.21568129862313976 0.33376440706684896
000510 c5 0a 90 64 a3 25 c5 3f 67 5e 6f e8 80 fc b9 3f
       0.1652111283329615 0.10150914835627987
000520 70 c3 31 05 95 e8 d7 bf 8f 97 ae 2b 97 79 91 bf
       -0.3735706854559373 -0.017065393487107946
000530 2d eb 10 01 6f a4 c6 3f 24 6d 80 07 3b 5d c7 bf
       0.17689311554007628 -0.18253267160694364
000540 75 b8 d2 51 c6 d9 d6 bf 49 62 9e f7 a7 05 d3 bf
       -0.3570419119886375 -0.29722022229683326
000550 1d ea 0c 84 8a 13 c8 bf 7d 0b 88 5d 2e 24 cd bf
       -0.18809634635711428 -0.22766665999378324
000560 1a 46 08 66 38 d7 c6 3f b3 73 2c e0 e1 9d ba 3f
       0.17844300252959117 0.10397159312237995
000570 79 49 3d 70 1e a4 d3 3f 30 3b 76 38 e1 45 d3 bf
       0.3068920227134622 -0.30114012254573463
000580 cc 26 db 0b ed ff d3 3f 87 4d 4d e2 78 78 d1 3f
       0.3124954810888141 0.27297803973962015
000590 53 64 ad 1b 83 2b 83 3f 8a 50 04 b4 46 f7 d7 3f
       0.009360336572784933 0.374467540548047
0005a0 70 58 c2 49 80 8a d6 bf 48 e8 66 cf b9 c9 c0 3f
       -0.3522034378341976 0.13115618350076574
0005b0 c9 fa 5c 4d 9c b1 c6 3f 71 44 09 2c 7f 6c d9 bf
       0.177295244002343 -0.3972471170464536
0005c0 17 79 98 bb 66 34 c0 bf 82 58 3b 2b 66 e7 b9 3f
       -0.1265991607660417 0.1011871200128969
0005d0 ed 51 80 05 de 31 af 3f 81 5f 0c 7f da ab b0 bf
       0.06092733208803112 -0.06512227632299351
0005e0 e4 3c e7 a9 f0 97 d5 3f 74 3b 56 c1 af 2d d8 3f
       0.3373986872874879 0.37778848534156073
0005f0 b3 e9 df f3 37 39 d4 bf a7 13 c1 97 10 86 ce 3f
       -0.31599234405407656 0.2384663334834418
000600 aa 4c 02 b7 3a 9a c9 3f e9 e9 c5 8b 82 b7 b1 3f
       0.20001920639024223 0.06920638954571924
000610 dc 60 cc 7d e2 53 a3 bf c1 59 99 20 ea 4e c8 bf
       -0.037749364715809114 -0.1899082812476092
000620 7d 2f 00 5a 74 65 ba bf 94 eb 99 10 ee ea d6 3f
       -0.10311057278903309 0.3580889856454459
000630 15 6a 78 59 ed c4 b9 bf 62 3e 45 51 bf c5 d2 bf
       -0.1006611197885053 -0.293319539418894
000640 a8 d5 17 b9 61 ed d3 3f 3a 60 33 8b a9 bf 5b bf
       0.3113636310148089 -0.0016936450672826579
000650 62 03 dc 0f 4f da 82 3f 7d 85 67 c9 72 8c c5 bf
       0.009205453559390345 -0.16834864458273194
000660 ca fb 46 8c c6 f8 b7 bf 88 3b 83 10 ed 4a b2 bf
       -0.0936397640680148 -0.07145578053608237
000670 16 35 5a a9 bc 3b d3 bf 9a bb cc 7c 6a fa c8 3f
       -0.3005210546333087 0.19514208883034884
000680 c1 8b 0f 73 1f f5 c6 3f 4c aa 9f fb a5 99 c2 bf
       0.17935555570792697 -0.14531397615731334
000690 04 5d ae 6b 5b 76 48 bf ef 2a cd 43 f9 fb a1 bf
       -0.0007465311422149294 -0.03512553169874432
0006a0 2d 80 68 ef da 4a 91 bf 04 7b 7f 6c fb e6 c0 3f
       -0.016887112486188172 0.132049015023732
0006b0 93 72 89 8d 77 8c d0 3f 31 23 db 38 43 8e bb bf
       0.2585734255024274 -0.10763950479589536
0006c0 c6 87 db 21 c3 ab 94 bf e2 fb 1d fd d8 82 d5 3f
       -0.02018647092962291 0.33611130445927817
0006d0 1d 22 6c d5 88 ab 46 3f 19 1a 39 dd b6 80 d3 3f
       0.0006918352254113334 0.30473109821142114
0006e0 15 3e c1 cb 73 ad d1 3f 3d d8 f7 cf c1 68 c7 3f
       0.2762116899293415 0.18288443236059662
0006f0 5e ee 62 cc d4 f9 c8 bf be 4f 73 e6 3c 7f d9 bf
       -0.19512424449736704 -0.398390984582189
000700 0b 68 3e 1a e4 c7 d3 3f db 39 f6 29 fc 4a d4 3f
       0.3090753799712053 0.3170767221244241
000710 9f 12 97 c1 74 aa c7 3f f4 89 fd cf 9d 2f d7 bf
       0.18488940670626605 -0.36228127776681096
000720 bd 85 58 e3 00 a1 d8 bf f7 f9 68 18 28 3f b1 3f
       -0.3848268718885171 0.06736994358013947
000730 6b b0 46 a7 46 b7 be bf 15 e1 43 cc cd c0 b9 3f
       -0.11998406967058066 0.10059820401136606
000740 76 fd c6 d3 20 50 d8 3f fe e6 bc 26 f0 72 d9 bf
       0.3798906391275162 -0.3976402643489648
000750 d0 87 57 70 e5 83 cd 3f 71 b5 45 3b a3 3a 88 bf
       0.2305876539749634 -0.011830592390391389
000760 00 24 97 03 cf c6 c0 bf 06 db 61 7d 43 5f c9 3f
       -0.13106715846359407 0.19821971532993404
000770 a4 49 f2 53 f2 ba ce bf ac 38 f0 51 a4 a7 c7 3f
       -0.24008015726992682 0.18480352402588573
000780 30 f2 b6 44 0d 6f bd bf 84 3a 38 79 c8 50 b7 3f
       -0.11497576644519181 0.09107640227760255
000790 ae 19 bd c7 c6 94 d6 bf 0f d2 17 ef b1 ba d5 3f
       -0.3528305960247974 0.33951996182375493
0007a0 de 51 9c 7b 4c ed d0 3f 2c 7e 40 d1 fb 4a ca bf
       0.2644835669646265 -0.20541331975344812
0007b0 95 b2 fa 75 59 2e cf bf 1f 20 8c a1 b5 88 bb bf
       -0.2436019731589069 -0.10755477136638135
0007c0 7e 70 41 4b 6e d6 2f bf 6f 5e d2 47 ad e9 b1 3f
       -0.00024290176736741284 0.06997187617741372
0007d0 50 9b 92 6d 99 53 d9 3f 87 de 38 9b 92 25 d8 bf
       0.3957274980588652 -0.377293254455687
0007e0 72 6f 3f c9 76 83 c4 3f 85 27 7f b5 e6 65 ca bf
       0.16026196314384894 -0.20623477804320714
0007f0 fe 98 2c e2 23 ae c0 3f d4 90 14 d3 d0 6f c0 3f
       0.13031433623945782 0.12841234499604204
