model/550_150/ini_Theta2.npy (npy, 661328 bytes, 1 tensors)

array f8 [150, 551]
0	0x3fc33f0a1f2ff646	0.1503613140375128
1	0xbfc1201b99166115	-0.1337923524377024
2	0x3f9bd312a22df270	0.027172366284036575
3	0x3fcc1353f1a43866	0.21933984087849295
4	0xbf810719854c9f00	-0.008314322834464871
5	0x3fb1cf886e48d270	0.069572951245229
6	0xbfd06b4eb76bf38f	-0.256549529192676
7	0x3fd08386494eb13f	0.2580276218311787
8	0x3fc953fd09822900	0.19787562336234288
9	0x3fcd8af8ceb600ae	0.23080358594234468
10	0x3fc3426ffb3a606e	0.1504650093745598
11	0xbf733ff3adaa9b40	-0.004699661129655308
12	0xbfb48b1cbdde2a08	-0.08024768481679001
13	0xbfc36f6ce700e37d	-0.15183793334452025
14	0x3fc264c8378e8ff8	0.1437006255411004
15	0x3fcd4d29be13008e	0.2289173296067059
16	0x3fb48d8a44926c50	0.0802847306644463
17	0xbfbf07c437819662	-0.12121225695735796
18	0x3fb252f2c32509d0	0.07157819046282232
19	0xbfc64e7dab32218d	-0.17427035197421184
20	0x3fb89f2045910878	0.09617807100679154
21	0x3fad7978ea916780	0.0575673853242753
22	0xbfa85af2623987e0	-0.04756886910469382
23	0xbfb47f9f5e9f1e42	-0.08007236538025445
24	0x3f9aaa49c9c215f0	0.026040223063793222
25	0x3fbb005b01812dbc	0.1054741743729925
26	0xbfa22991ec15a020	-0.03547340399637755
27	0x3f8cc6f842d6b240	0.014051379718545864
28	0x3fa97cfa37c450e8	0.04978162699458882
29	0x3fb5a7766924eee0	0.08458652560232904
30	0x3fcf854aa8dc047a	0.2462552380093575
31	0x3fd2eefd33cbe9fd	0.29583673532729887
32	0x3fc29050946b70b8	0.14502913710646737
33	0xbf70dc3046344840	-0.004116238185149668
34	0xbfcbb619320f0a70	-0.21649470276141214
35	0x3fa0fa94a6d72130	0.033161778799298935
36	0xbfaa113d80a67554	-0.05091278262555457
37	0x3fc2e68b3ca1d318	0.147660641294032
38	0xbfd2480afd8064e1	-0.28564715152749726
39	0xbfb247c2f6d13442	-0.07140749479113231
40	0xbfc1521b1f6a7ca3	-0.13531817468626625
41	0xbfb8b7ed03d3b51e	-0.09655648559028804
42	0x3fb2b368dedeff50	0.07305007401646191
43	0xbf7b86b39ea08440	-0.006720258368688781
44	0xbfa6f15d7170b340	-0.04481021890419479
45	0xbfbb3018ed87f4e0	-0.10620265769098891
46	0xbfd0eb62039de56f	-0.2643666301078928
47	0xbfcb3b24f86ac710	-0.21274244432202538
48	0x3fc9eb93c96da3ae	0.20250174842229057
49	0x3fbba0af81494088	0.1079206171646111
50	0xbfc23d35f79e4229	-0.14249300566417958
51	0x3fc28f99014df310	0.1450072533006268
52	0xbfbe3ad3a77799f0	-0.11808512533716686
53	0xbfce6ea7fad3c5c8	-0.2377519583456389
54	0x3faf6b03d3ae80b0	0.06136333426479845
55	0x3f8ba72ac7b70480	0.013502439708533709
56	0x3fd112c66f6f8d61	0.26677094347379265
57	0xbf7779671f4cd900	-0.005731013127663553
58	0xbfc05bb67d35eae3	-0.12779885400580956
59	0x3fcfe70e775d2b66	0.24923878506009628
60	0x3fd293000a01ab49	0.29022217728804783
61	0xbfc1df83d071c6d5	-0.1396336334033125
62	0x3fd129ec38e13289	0.2681837611642455
63	0xbfc6b5ac5206047c	-0.1774192238335991
64	0xbf937771e8320ea0	-0.019010333821383285
65	0xbfbd2886306f6ae6	-0.11389959986210449
66	0x3f98f68b5a152770	0.024377992032249052
67	0xbfb0e183ae027fac	-0.06594107626233264
68	0xbf99ea56bacd1f80	-0.025307994033283432
69	0xbfa3dbe1cb4190f0	-0.03878694158700735
70	0x3fb34d929c407c4c	0.07540241541617937
71	0xbfb4f208aa3d72c4	-0.08181814342737953
72	0xbfc2fb42ff04c25d	-0.1482928986747706
73	0x3fb15129c3f58420	0.06764470132976941
74	0xbfb6f874da61f134	-0.08972864467245217
75	0xbfc6fd351930c4ac	-0.1796022770882123
76	0x3fcd48404ab8682a	0.2287674298139007
77	0x3fc2bedba4520cf4	0.1464495231958619
78	0x3f97f26e735f3d90	0.023385740081548756
79	0xbfa1a3e90a229e10	-0.03445366142960549
80	0x3fd15762ce70336f	0.27095861587513687
81	0xbf971cd9919f71e0	-0.022570991051780953
82	0xbfb74fa141ed8ada	-0.09105880603378172
83	0x3fc7d96f00a1efe0	0.18632304697882685
84	0x3fce1c427808c46e	0.23523741589591246
85	0xbfc882449035f56a	-0.19147545854131504
86	0xbf6e12b59cf4a280	-0.003671030724621993
87	0x3fd18d42b274683d	0.27424685885637584
88	0xbfc4acd16a28066a	-0.16152398761191772
89	0x3fcbf8d394ad2842	0.21853108176793695
90	0xbf97c0504c85f0c0	-0.023194555922132265
91	0x3fd29ccf62b4c147	0.29082092894806916
92	0xbfcf2229c820fda8	-0.24323007842938904
93	0x3fd0f9cd9dbd23b5	0.26524677662069546
94	0x3fcd46af22d24b0e	0.22871960830942623
95	0xbf881904ea50fb80	-0.011766470337645663
96	0x3fc008cc4ee90ada	0.1252684960655504
97	0xbfc59251593d06b8	-0.16852776391356428
98	0x3fc79b199710ab48	0.184420775186789
99	0xbfb3927b310fb09a	-0.07645387599740375
100	0xbfc07fb72f904514	-0.1288975698703686
101	0x3fce5945faf422c6	0.23709940675350633
102	0x3fbb53a010df8f34	0.10674477016396794
103	0x3fa7306f284ebb18	0.045291398687700546
104	0x3fd32fa031ca6849	0.2997818456875661
105	0x3fc2da9f748f06ee	0.14729684058516263
106	0x3faab2cb085ac408	0.05214533307060526
107	0xbfc87a98e6c70bce	-0.19124137180742057
108	0xbfd158d7c7956edd	-0.2710475396213335
109	0x3fd0753d6025e419	0.25715574635938904
110	0xbfc3d9d33995c9c4	-0.15508499442837664
111	0xbf570f1319299500	-0.0014074026591058275
112	0x3fd1f97e101f1975	0.2808528096615171
113	0x3face358a5bbb6c0	0.05642201445685435
114	0x3fbfbe10e62b5280	0.12399392718664082
115	0x3fcd0aba6f16fc7e	0.22688990043932117
116	0x3fd2380ea9fe23b5	0.2846714649281766
117	0x3fc648d24a1938d2	0.1740973340806194
118	0x3fd1dedeacd34387	0.27922789456811653
119	0x3fc9ad31a6581e26	0.20059795973087197
120	0x3fd141430d3523d1	0.26960827150156513
121	0x3fcd51cc5d50eee6	0.2290587859769097
122	0xbfc549ed45b7cec5	-0.1663185682697216
123	0x3f84fbb2587fd5a0	0.010245698285852367
124	0x3fb420d10dd1ee48	0.07862574183848736
125	0x3fc624bcfcd37254	0.17299616189019906
126	0x3f7f3ffe3f91c6c0	0.0076293880057264896
127	0x3fc41eaf2fb59192	0.1571864111857733
128	0x3fbb2bb9ebf60e88	0.10613595972795953
129	0xbfd1f8c61db341c5	-0.2808089532891496
130	0xbfa8b466066c5d40	-0.048251331600278835
131	0x3fc7f9d30d57745a	0.18731153632589576
132	0xbfcb7cf3d0656462	-0.2147507445868398
133	0x3fa26812125cdd20	0.035950245610758325
134	0x3fd108f8b71193dd	0.26617257955359525
135	0xbf9fd59faaf5b200	-0.03108834725337495
136	0x3fbcff72ad6fde80	0.11327282652188764
137	0x3fc0a79d8b4fda20	0.13011521627750344
138	0x3fcdaa5396abd5a2	0.23176045281404095
139	0xbfacaca83b01341c	-0.05600476951858743
140	0x3fbd32c70fee02e0	0.11405605448636491
141	0x3fd0636f1f83a279	0.2560689742809142
142	0xbfd08fd69c0f6e3b	-0.2587791942621355
143	0xbfc0b5a9bdf90c86	-0.13054391647355973
144	0xbfcddb9705c5493e	-0.23326385289926493
145	0xbf84773188586ea0	-0.009992968533928448
146	0x3fb8a581a653aba8	0.09627542792047328
147	0xbfd332130ab2faf7	-0.29993129772985533
148	0x3fc6c9dc203a2602	0.1780352742537588
149	0xbf9ca4a202c292d0	-0.027971774500332114
150	0xbf94689685c369b0	-0.019930221475854715
151	0xbfbf688313306eae	-0.12268847673879676
152	0xbfb011cfea029f58	-0.06277179206028671
153	0x3fd234221e8bc1e5	0.28443196280480115
154	0x3fa2f77513d87778	0.03704419963126687
155	0x3fcc44fa1b41e34e	0.22085501032759186
156	0xbfb690495c705c2a	-0.08813913828667866
157	0x3fc2ad90649b6c80	0.14592175400216334
158	0xbfd1a9aca4f46c41	-0.2759811030279629
159	0x3fd004b4929460c9	0.25028719248213044
160	0x3fc31922eb812104	0.14920460223425647
161	0x3fd1e976a32a7363	0.2798744767585985
162	0xbfbc05a6d2f31058	-0.10946123743184566
163	0xbfbc969dd79353c0	-0.11167322648118638
164	0xbfc06a941fe4ee5d	-0.12825252110802668
165	0xbfb68a02be90f564	-0.08804337646957588
166	0x3fc58e2f50c16c82	0.16840163653509782
167	0xbfbccb8d81782988	-0.11248096857904077
168	0xbfd245de0c7e7eab	-0.28551436634186683
169	0xbfd0afa76480a83b	-0.2607210618467694
170	0x3fcd9825e9215ab6	0.2312056911784645
171	0xbfaca7bcc827b3b8	-0.05596723502444639
172	0xbfb1264b933360ee	-0.06699058860556636
173	0xbfa1a6fe494d5268	-0.0344771828155544
174	0x3fc436ab0cb3d9c8	0.15791833992234516
175	0x3fb90fa8f1f7f4c0	0.0978952017539596
176	0xbfcb546e3f1b90e0	-0.2135141189711538
177	0x3fc5a932863c036e	0.16922599367537877
178	0x3fc8d3a9f1942062	0.19395946784811985
179	0x3facf2cec5f426d8	0.05653997579982012
180	0x3fd13709c8027b05	0.268984265634501
181	0x3fbdb1a3bd25b0f0	0.11599181526043245
182	0xbfbf850e711c0068	-0.12312402974566938
183	0xbfb2d16404c494ca	-0.07350754848865218
184	0xbfd029aaf6a112bd	-0.2525432022560315
185	0xbfbb1d6797f7a15e	-0.10591742954387004
186	0x3f8443ba176e7c60	0.009894803848338352
187	0x3fcfd2d5d9ff1086	0.24862168449738337
188	0xbfc1d74908e18495	-0.13938248571051717
189	0x3fc4b0a59f0ca89c	0.16164083734594648
190	0xbfc2ac8f81bf6759	-0.14589113078437313
191	0xbfca5b1ea9ecd286	-0.20590575501559644
192	0x3f66d261a2e4fd80	0.002785864540015559
193	0xbfb7b801826f2488	-0.09265145716121215
194	0x3fc357ab684ed254	0.1511129626575377
195	0xbfca33c27cec66f0	-0.2047045812585604
196	0xbfcf4f47230ce6fb	-0.24460686885304725
197	0x3fd1582f4564196f	0.27100736404863474
198	0x3fc6d4497baa88e6	0.17835348642717647
199	0xbfc50335e0c78539	-0.16416047549777504
200	0xbfd1810f75d616b7	-0.273502221178528
201	0x3fc9e4b2d20ad6c6	0.20229182487462632
202	0x3f947ca5f79aa9c0	0.020006745564993045
203	0xbfd07bfbcd2628d4	-0.2575673583420557
204	0xbfc26b8cf99f183a	-0.1439071863989641
205	0x3f92f26ecb191740	0.01850293268787273
206	0xbfac825623b988a4	-0.05568188844769509
207	0xbfcf295f8bf0c075	-0.2434501107504762
208	0xbfb2c86d2a56725c	-0.07337076457629038
209	0x3fc0f8821fa62604	0.13258387132036387
210	0x3fa67cb2cb462138	0.043920123399461664
211	0x3fd174b201d1c5fd	0.2727475183265538
212	0x3fa9007471f59840	0.04883159533601189
213	0xbfceb99ed209aa15	-0.24003968482732377
214	0x3fc12906bc21378e	0.1340645235636057
215	0xbfc439c0bd150eb5	-0.15801247818500533
216	0xbfb655a11f78ab58	-0.08724410074561939
217	0xbf9c396f028be8a0	-0.027562841921260017
218	0xbfc164be77f12feb	-0.13588696342992476
219	0xbfd0b3c4b6e5089d	-0.26097219334418204
220	0x3faf2b2691dbcd40	0.060876088433270414
221	0xbfd2d0364923f554	-0.293958255220635
222	0xbfa1a83b6199dd30	-0.034486632980526344
223	0x3fd1bf4b2fc0b59f	0.27730064071041655
224	0xbfb078a9c48d1aae	-0.06434117363560674
225	0x3fd2cb2bb594c93f	0.2936505578283181
226	0x3fd20956935bff83	0.2818199576431583
227	0xbf7681167da0ee40	-0.005494201521340225
228	0xbfd2a26726c36f7d	-0.2911622885273955
229	0xbfc4bc0b53cad4d9	-0.16198865500852014
230	0x3fd31500d55fbf45	0.2981569370012845
231	0xbfb702e707f08e8a	-0.08988803809966775
232	0x3f9f176573fd8650	0.030362687305915792
233	0xbfbc876fb4e862b4	-0.11144159475987686
234	0xbf348af019cdc800	-0.00031345712505193024
235	0xbfc3d44a8b5839fd	-0.1549161129373288
236	0xbfb8d9da42a7424a	-0.09707416655806714
237	0x3fa9f8265b99cce0	0.050721357995735294
238	0xbfd098c8ff6752ed	-0.2593252653289671
239	0xbfc8a7f9450a5ab8	-0.19262615080943646
240	0x3f804b9587890cc0	0.00795666522856775
241	0x3fbf74f6eafe5f90	0.12287848698758652
242	0x3fbb9a32645c98d8	0.10782160711514466
243	0x3fd273db9db29dfb	0.2883214035050227
244	0x3fce2cf6882efbea	0.23574716233812804
245	0x3fc494d7289c480e	0.16079225047047924
246	0x3fc451ba52fd7674	0.15874413540125298
247	0xbfb6ddecc8a73018	-0.0893238057971647
248	0xbfcec347da9b1b2d	-0.2403344933902302
249	0x3fbf80d34cd8ed14	0.12305946947246965
250	0xbfc99af60eb01c90	-0.2000415393560826
251	0xbfd1960bb0eab403	-0.2747830608084884
252	0xbf80e9ce1da02500	-0.008258447913265687
253	0x3fb0152f64ad5a74	0.06282325942934525
254	0xbfcb16804780a542	-0.21162417880376877
255	0x3fcba3251e32f91a	0.21591629004064644
