model/550_150/ini_Theta3.npy (npy, 12208 bytes, 1 tensors)

array f8 [10, 151]
0	0x3fd044b286fd89bf	0.2541929548516712
1	0x3fc49095a6dfb00a	0.16066237114080223
2	0xbfd146f7210c6e51	-0.2699563811054065
3	0x3fd07e8f05dffa79	0.2577245290157531
4	0x3fcbde7e173ef6f2	0.217727433538975
5	0x3fc231f46d0f5cd8	0.14214949917980024
6	0xbfb1feb15b8795b4	-0.07029255375490245
7	0x3fcb96b052ef4096	0.21553615617313387
8	0x3fd0756dffa5f0f5	0.2571673389973193
9	0xbfcdf6a15dd6fe2c	-0.23408906061193713
10	0x3fc0bb4c0696cffa	0.13071585008367476
11	0x3fd18a0dfb1f11d3	0.2740511848790252
12	0x3fc8bb3e17a22d6e	0.19321418909053584
13	0xbfc0ff74e09cc0b8	-0.13279591529272294
14	0xbfbbaf3a4eab1fb2	-0.10814251347176088
15	0xbfd0528fa226ce04	-0.25503912768473946
16	0xbfb7c09e9a0312b2	-0.09278289089258854
17	0xbfa79eb9b0675f38	-0.046132853301683985
18	0xbfcf782029737526	-0.24585344337439458
19	0xbf6c63097489e900	-0.003465193240399178
20	0xbfccd751b3ae80e4	-0.22532101892011902
21	0x3fb8e5183191e008	0.0972457047481613
22	0x3fc551a3b2efb366	0.1665539382660441
23	0x3fbbd24e3c4e55f8	0.10867775890650211
24	0xbfc41b1d432e3a4d	-0.157077462962166
25	0x3fd00ff971dab849	0.25097499960509545
26	0xbfb9b8a198a41b9a	-0.10047349907482186
27	0x3fca7640b4513efa	0.20673378758009858
28	0x3fc558762109cd42	0.16676212895581882
29	0x3fba4cf82cfb6bd0	0.10273696039386881
30	0xbfc53c7ff1697716	-0.16590880668348323
31	0x3fd0d7044f75157d	0.2631235862684987
32	0x3fb1f52d5bf56994	0.07014735694011726
33	0x3fd13e9a98bae22d	0.2694460383895912
34	0xbfabb40913f84784	-0.054107936561321984
35	0xbfcc6522cb005152	-0.22183642303628887
36	0x3fd2691a1a60aad5	0.2876649148553672
37	0x3fceec7d3a837fce	0.24159207684624423
38	0x3fd0a1c1f6b535bb	0.2598729047066077
39	0xbfc6908c7f33589b	-0.17628627978291864
40	0x3fb4f445b1a45b94	0.08185229861224591
41	0x3fb1ca705c7223f8	0.06949522263506924
42	0xbfc99100182ee02a	-0.1997375600892622
43	0xbf768d5fc6b58700	-0.005505918622789485
44	0xbfc6e3d6a7610676	-0.17882807896426173
45	0x3fbae0ecffb93c08	0.10499459498645092
46	0x3f93098a88b24f10	0.018591084092419996
47	0x3fcfd41b4b950b9a	0.24866048040902627
48	0xbfc1a08e870a24f9	-0.1377123031018426
49	0x3faa3f2e9759d1f8	0.051263290381857674
50	0x3fc750c4edb83ce8	0.18215238196760386
51	0x3faf712eb6034780	0.06141038867794091
52	0xbfbda2da04c634f0	-0.11576616875227663
53	0x3fd32d3bf09762f3	0.29963587279557585
54	0x3fb8ce21ce99d198	0.0968953256031625
55	0x3fb3c9768a260518	0.07729283211485372
56	0x3fc6f589ed4a4f04	0.1793682488101852
57	0x3f900bc6af712100	0.015669922311901452
58	0x3fc232265fcb419c	0.14215545346679626
59	0x3fd25e4c12c928bf	0.28700544199513084
60	0x3fd2f0808922dd5f	0.2959290827961549
61	0xbfc2d4ce3b4fbd3f	-0.14711931129520825
62	0x3fcc086b7eaa7422	0.2190069550023575
63	0xbfa60c72aa494ee8	-0.04306372002306863
64	0xbfafa3314a9be810	-0.06179193530802263
65	0x3fc2e8f78a972dcc	0.1477345873557695
66	0x3faa7dae5deea6b0	0.051740120855652605
67	0x3fbaf94a1de77f84	0.10536635618291085
68	0xbfc7ffe217d659f2	-0.18749643482142592
69	0x3f7244490a40fa00	0.004459653198920055
70	0x3fa11cf3a24ba450	0.033424008904895275
71	0x3fcc2e349883979e	0.22016007849668723
72	0x3fc04534b3cd64e8	0.12711199550066188
73	0xbfc576876b3c3795	-0.1676797174081314
74	0xbfbb3ebdece621ca	-0.10642611535707328
75	0x3fb85371df034008	0.09502326674123662
76	0x3fc98d7710503de4	0.19962967201762105
77	0xbf9787ea5d7df5c0	-0.02297941394453118
78	0xbfccb951aa0b2034	-0.22440548708823516
79	0x3fc53ce9bedf3d96	0.16592141933368215
80	0xbfb590102ea81d46	-0.08422948016242512
81	0xbfbdd04a72577762	-0.11645951549095693
82	0x3fa5e0879c733970	0.04272865090171052
83	0xbfc0dffecfc8ad96	-0.13183579583833865
84	0x3fcc92733c0d734e	0.22321930343869173
85	0xbfcecfea33f291d8	-0.24072005783558725
86	0x3fc3ada06e08798e	0.15373616574011034
87	0x3fc16a54cda0d422	0.13605747261468176
88	0xbfa87e8b9c645550	-0.047840464440165875
89	0x3fabdeab3f3fdda8	0.054433204146273895
90	0xbfc0741ed1205acd	-0.1285437127232484
91	0xbfb1efe88b26aae0	-0.07006696126215273
92	0xbfbd1a10c1bc2136	-0.11367897729735862
93	0xbfb48bf40a57d3a2	-0.08026051762119704
94	0x3fc941b5a2865704	0.1973177951410251
95	0xbfa2fe194d668160	-0.03709487027959102
96	0x3fb190a535b8a670	0.06861336289935038
97	0xbfa85d26df4b0730	-0.04758569217439257
98	0xbfc3c38489dba1c1	-0.15440422755570007
99	0x3fb689776d1cbc50	0.0880350724589658
100	0x3fcde1fbc148cdc2	0.23345896661485993
101	0x3fb0dc23ae3d1780	0.0658590603244118
102	0x3fcf76ca754be346	0.24581270911564895
103	0x3fca097822a31eea	0.2034139794470698
104	0x3fd01319eed2eeff	0.2511658508553722
105	0x3fcee3f317144a92	0.2413314688388551
106	0xbfd0f0f2ad2cff51	-0.2647062960786473
107	0x3fd27840f4b5d029	0.288589705443203
108	0x3fcb75d99c46bf72	0.2145339978283079
109	0x3fd26b4cc0543e87	0.28779906065117483
110	0x3fb78052a6a7fe1c	0.09180180138354682
111	0x3f94943c78d2d6f0	0.020096726297842815
112	0xbfd1807e27404d98	-0.2734675772964805
113	0x3fcb76176dafb642	0.21454136710910815
114	0x3fcd4f26f661083a	0.22897803335405503
115	0xbfbfb977f1053cb8	-0.12392377504623908
116	0x3fc6f6f33d55378a	0.1794113206364581
117	0x3fd0e92c3a85bb73	0.2642317363269548
118	0x3fcd107ca458c50e	0.22706563973182664
119	0xbfcb7ee957dac518	-0.21481053151868745
120	0x3fa2b58e0cb75cb0	0.036541403820302576
121	0xbf8e336f319792a0	-0.014746540738039216
122	0xbfb1624775f211b0	-0.06790587071924992
123	0xbfad18ab24cf9954	-0.05682883095123495
124	0x3fc9e101c302f306	0.20217916509673034
125	0x3f984123c1555090	0.023685988116384282
126	0xbfa006472ee66620	-0.03129789779195513
127	0x3fd18e8685d38b3f	0.27432406491259437
128	0xbf98a4bcec575ae0	-0.024065925526737142
129	0xbf995be76ebbae20	-0.024764648564923886
130	0xbfc4e547c9fefacd	-0.1632470833119072
131	0xbfc60387930036f8	-0.17198271444106417
132	0xbfb4168e41817dc2	-0.07846917247069654
133	0x3fbfdd9e70764bf8	0.12447538610130937
134	0x3fc82a0e3138cc74	0.18878343013202292
135	0x3fc6bfb90495f99e	0.1777259132758901
136	0xbfc744961b8271d2	-0.18178058951606474
137	0x3fa5327fa6a3a368	0.04140089902086325
138	0x3fbf2a4d3c748568	0.12173922277408666
139	0x3f9d24bafe4d9cd0	0.028460428019937478
140	0x3fc76e65d675e9e8	0.18305657359799388
141	0xbfcd93167a85bc8f	-0.23105126364268755
142	0x3fd24f4623cf96c5	0.2860884999957814
143	0xbfc4a242947ddcbb	-0.16120178461617293
144	0x3fb4d71e4b9675c8	0.08140744538692168
145	0x3fa50bcbce8a4600	0.04110562225572423
146	0xbfd03793cba37a51	-0.25339217077808934
147	0x3fb8795112f16838	0.09560114586329937
148	0x3fb7e030738abb74	0.09326460667464948
149	0x3f9111a17d8cb5c0	0.01666881874841919
150	0x3fcd2eb7f9646baa	0.22798824002606227
151	0x3fd21fdf28f4203f	0.2831952953279177
152	0xbf2dca9e9022e000	-0.00022729096969498208
153	0x3fc7eae85704f8fe	0.18685631035800293
154	0xbfce2dcd52e8afff	-0.23577276752746454
155	0x3f98fa874f9fef00	0.02439319060793732
156	0xbfd221428258bd49	-0.28328001717723744
157	0xbfcb838439a2c1b2	-0.21495106519934165
158	0x3fc9664f6cf986e6	0.1984347612479304
159	0xbfc07a2dfeddfef5	-0.128728627631055
160	0xbfbeabfe18c4ac08	-0.11981189827626804
161	0x3f925557e3b400a0	0.017903683922668834
162	0x3fc236b211bc7bb4	0.1422941767313809
163	0x3fbc928badbffbe4	0.11161110870305851
164	0xbfabea0a3e0b65f4	-0.054519958566469656
165	0xbfccd32796385b0e	-0.22519392809837097
166	0x3f9cbbe5230c02d0	0.02806051279458438
167	0xbfd23b0df1582482	-0.28485439842967974
168	0xbfbff29f99d637b8	-0.12479588990956259
169	0xbfa67043544ed270	-0.043825248757831115
170	0x3fad8244cd24f278	0.05763449672892745
171	0x3fd0fdb483be7c5d	0.26548493257172884
172	0x3fc6a55aeea05c22	0.1769212403457639
173	0xbfb03e818cb5b208	-0.06345376668259217
174	0xbf82995c29de56c0	-0.009081573512769281
175	0xbfc5b7013f4168e3	-0.16964736546180523
176	0x3fc90d416a964826	0.1957170267529033
177	0xbfc9fd73b7e887b4	-0.2030472419729087
178	0x3fcc4fd6fad395ea	0.22118651626003266
179	0xbf98318def890700	-0.023626535172531327
180	0x3fa5798897e7e690	0.04194285253829577
181	0x3fc5e1ca85aaaa1e	0.17095309759800242
182	0x3fc7eb0c20dcf0b8	0.18686057667389888
183	0xbfc4eb91722d7801	-0.16343896937445382
184	0xbfc2ebdebb6494c5	-0.147823182583272
185	0x3fc670867f89db3c	0.1753090021845426
186	0xbf921443e1e6e1f0	-0.01765543047233281
187	0x3fc3d315f92190b0	0.15487932839017082
188	0xbfbf91ea459e7d90	-0.1233202381104006
189	0x3fbb6f2d9dc28744	0.10716519452628598
190	0x3f94c7507fd83b30	0.020291574290293102
191	0xbf9030325d0efe20	-0.015808855943531097
192	0x3fc659c33b2360bc	0.17461433780295532
193	0x3f9cfa30783ba700	0.028298146570626237
194	0x3fbf209b0cb52ee0	0.12159127292869298
195	0x3fbd913b61d85d30	0.1154973138694586
196	0x3fa5db94bd935c28	0.04269089521556452
197	0x3fd027ac04a2639d	0.2524213834054139
198	0x3fb8c2754848f810	0.09671719565173498
199	0xbfc6e32ae8c51027	-0.17880760541641047
200	0x3fd24e14eb57c837	0.28601572973923645
201	0x3fc654611b995fca	0.17445005271542718
202	0xbf905bdfc8389d90	-0.015975472064523155
203	0xbfba638997f49fd2	-0.10308132133343342
204	0x3fc3e44913bfef22	0.15540421928732778
205	0xbfd04edf851ecdc7	-0.2548140335086057
206	0xbfb3533df54f00ea	-0.07548892249087982
207	0x3fc73a1ec4767ac0	0.18146118729506178
208	0x3fc6cc7469bd3bb6	0.17811446345373633
209	0xbfa11e059f123c90	-0.03343217436587864
210	0xbfb92e80b7f62356	-0.09836582652327527
211	0x3f9e3ba2b7efb880	0.029524366833293403
212	0xbfcab7d8b46cdf00	-0.20873555002048505
213	0x3fba0d8fa7aeff20	0.10176942676389134
214	0x3fbda1feebb7fac0	0.11575310950136508
215	0xbfd13e74063c421d	-0.2694368420498295
216	0x3fa4537abdec2f60	0.039699397739325404
217	0x3fbddee7bc0e40f4	0.11668251362994281
218	0xbfd2493c882e0ff9	-0.28571999834844025
219	0x3fd03410a44c0547	0.25317779583572925
220	0xbfd04aba458ef355	-0.2545610121995215
221	0xbfc57e6cfe085ae9	-0.16792070774018633
222	0xbfb2c33b080dfbee	-0.07329148241659286
223	0xbfd0fcdecf3f937a	-0.2654339813146219
224	0xbfbd50f401a300da	-0.1145164970394065
225	0x3fcf4bc0ffd7d07a	0.24449932567916105
226	0x3fcd3f4f886a06ee	0.2284945884785467
227	0xbfd0ff8a23aebb6a	-0.26559689983962775
228	0xbfce68e2e721e9f4	-0.23757587705388483
229	0xbfac91a1d5091de8	-0.05579858518154507
230	0x3fc4b7663e850568	0.161846905257373
231	0x3fbd70e39ef24774	0.11500380163695728
232	0x3fc7a0b4027fd68e	0.18459177133597787
233	0xbfb2b6cb341a4f36	-0.07310171148338615
234	0xbfd06d6ad98fde12	-0.25667830702102024
235	0x3fa455c95fae6820	0.03971699994072275
236	0xbfc1f76c9b5a6e95	-0.1403632887421408
237	0x3f99a312d623ad30	0.0250361388397497
238	0x3fb7b729be2b1a40	0.09263859646589712
239	0xbfaa2f032f624d04	-0.05113992646615809
240	0x3fd0f482565afb6d	0.2649236529650157
241	0x3fc7334693fe0a9a	0.18125231004895143
242	0x3fc49cbcd4e22346	0.1610332526654707
243	0xbfce6ba015ff52b9	-0.23765946458902024
244	0x3fd189362aa640c5	0.27399973072989453
245	0x3fcf99df04fcaf8a	0.24688327544697258
246	0xbfc321e344da0556	-0.14947167264839817
247	0xbfd26dc76dde8553	-0.2879503796521778
248	0xbfb4db38e36241ba	-0.08147006560671502
249	0x3fcb28ceff47c212	0.21218287911280292
250	0x3fcdf62fb2283cc2	0.2340755100162593
251	0xbfc3209427ce3eea	-0.14943172401080257
252	0x3fd05a48aa9dcfb9	0.2555104890991476
253	0xbf9d02aae0b010f0	-0.02833048817048306
254	0xbfc76244c0285768	-0.18268641836828725
255	0x3faa757c15ccdc88	0.051677587186014284
