model/550_150/Theta2.npy (npy, 661328 bytes, 1 tensors)

array f8 [150, 551]
0.1503522742635226 -0.13363121886596202 0.027132961710750234 0.21905221813979422 -0.008304066778421994 0.06947690861520207 -0.2562336757681497 0.2576927977403926
0.19762471303684484 0.23051116924787948 0.1502677847405452 -0.004700371914882108 -0.08014639631360157 -0.15165353672234202 0.14350973009419649 0.22862190058396023
0.08018073479671355 -0.12106663335359831 0.07148669648015384 -0.17405046548537093 0.0960494036378499 0.05749372479338013 -0.04751689267385769 -0.07997983703603632
0.026000098611792793 0.10533812911070238 -0.035437304661832696 0.014032259100646077 0.04971810802616461 0.08447845242012929 0.2459400023647199 0.2954602908694515
0.14483713755198382 -0.004117461997474774 -0.21622520486545507 0.03311204479576202 -0.05085284096538233 0.14746867617925913 -0.28529402007019156 -0.07131752458700509
-0.1351555051227963 -0.09643475419882484 0.07295654041431807 -0.006711999993742148 -0.0447553190966365 -0.10607058452293183 -0.2640408956763098 -0.21247347381229362
0.20224463936463316 0.10778337312948888 -0.14231290165411647 0.14482054812401948 -0.11794328880212339 -0.23745610190369257 0.061276745828244314 0.013484891642809724
0.26643199348918467 -0.0057320884793795965 -0.12764571288674384 0.24891993569123988 0.2898500318565352 -0.13945792401822527 0.2678439137691474 -0.17719472935028976
-0.01899497493741034 -0.11376010003990107 0.024338919993088143 -0.06586520508021751 -0.02527643300743905 -0.03873954531093561 0.0753068691983203 -0.08171468737890387
-0.14811407791754352 0.06755747857954511 -0.08962224471696988 -0.17938045101868616 0.22847698812443387 0.14625752543452109 0.023355787037158137 -0.03441043870910997
0.27061537417171255 -0.022549351569121915 -0.09095247211231341 0.1860871122379107 0.23493103672818727 -0.19124154122488632 -0.003675001681703802 0.27389829014972933
-0.16132453383424605 0.21825312206120773 -0.02317152052744347 0.2904517180369944 -0.24292263362386632 0.26491052327214 0.22842869198038637 -0.011756193231227893
0.12510932225817725 -0.16831529290622735 0.18418703071241627 -0.07635735878438489 -0.12873517967044543 0.23679272774483054 0.10660617413157762 0.0452329288423184
0.29940211129973343 0.14710967610107395 0.05207216738225978 -0.19100038934872188 -0.27071053180154286 0.2568306154500004 -0.1548937600495562 -0.0014060059606082569
0.28049414754906665 0.056343230990691426 0.12383667320202066 0.22660236453439173 0.28431093350054204 0.1738700067795285 0.27887436185126424 0.20034357989431106
0.2692655047121759 0.22876011930416312 -0.16611329284271098 0.01022462984157157 0.07851961001398135 0.17277090611867632 0.0076114165260309135 0.15698733438028248
0.10599306870401938 -0.28045996677765594 -0.048191649334841456 0.18707424593041524 -0.21448724141962686 0.035897212298055044 0.2658335877089061 -0.03104921398127135
0.11312042674557343 0.12995013476815745 0.2314656789671941 -0.05593501769180936 0.11390688288385979 0.25573971095199555 -0.25846049879117156 -0.13037999299787786
-0.2329699414049671 -0.009981227516388365 0.09614630042348624 -0.2995553829272051 0.1778081130616979 -0.02794509916174098 -0.019907643628896174 -0.12253515649662138
-0.06269877402361651 0.28407088189286483 0.03699142054191574 0.2205679870744648 -0.08802779602654942 0.14572861016560493 -0.27563761785606244 0.24996355689779617
0.14901456884867736 0.27952020923518783 -0.10933037012839503 -0.11154063917732458 -0.12809303952608767 -0.08793742379703345 0.1681803655821185 -0.11234758282025076
-0.28515507195703177 -0.2603939167264754 0.23090645483159306 -0.0558966550986275 -0.06691014952124173 -0.0344342796139032 0.15770974962934464 0.09776238477219003
-0.21325201864999055 0.1690108777873065 0.19371147614007572 0.05646299147956063 0.26864144491951836 0.1158382848820034 -0.1229701742264965 -0.07342062219004596
-0.2522240711916729 -0.10578396569660183 0.009881971366542926 0.24829925536476313 -0.1392144709547818 0.1614352912664553 -0.14571197147440373 -0.20564681124688378
0.0027751293952785797 -0.0925417817558952 0.1509177792730036 -0.20445135686168103 -0.24429746753759535 0.2706553792050042 0.1781208351410674 -0.16396038622018702
-0.27315728841707837 0.20203476804056883 0.019972781930496983 -0.2572500358804547 -0.14372568469459165 0.01847568792111332 -0.05561294296263188 -0.24315017632878697
-0.07328236717404792 0.13241063932322367 0.043864230720597044 0.27239260650548286 0.048769231945073606 -0.2397414671590539 0.133887442517367 -0.15782059735894077
-0.08713409429942151 -0.02752989431785866 -0.13572375277786183 -0.2606440251265679 0.06079938719254625 -0.29358647595352994 -0.034443164240391885 0.2769438551671505
-0.06426275564530036 0.29327026191850575 0.28146052244490105 -0.005495783357908234 -0.29079432644244146 -0.1617838275576455 0.2977792464365719 -0.0897821984202528
0.030323644867511455 -0.11130904587161915 -0.0003173038111335125 -0.15472788017564257 -0.09695632711225799 0.05064862705346569 -0.25899702495680144 -0.19238257906118586
0.007946332106865116 0.12271491935160654 0.10768461926944793 0.2879560616735049 0.23544660660318859 0.16057999287021849 0.158536379558874 -0.0892112983845312
-0.24003846508751364 0.1228958652153395 -0.19979720164432868 -0.2744368428725377 -0.008248223785397484 0.06274248363121938 -0.21136262382806031 0.21564244735897672
00000000: 98a7 6b4a be3e c33f 9e80 60e9 d31a c1bf
00000010: 2ce2 c33c bec8 9b3f 0f6a 8330 e709 cc3f
00000020: 81a0 e5f9 b801 81bf 6158 541a 3dc9 b13f
00000030: 6eb7 63ee 2166 d0bf 336c adee 097e d03f
00000040: fdf3 af3f c44b c93f 7b24 a4d6 6381 cd3f
00000050: 6a2f 8d8a f93b c33f ce8d 747a b240 73bf
00000060: 0226 0f67 7984 b4bf ebc8 4512 6269 c3bf
00000070: 3ec8 b4de 865e c23f 0f28 1481 7b43 cd3f
00000080: 3b9c b881 b986 b43f 9df9 e30e 39fe bebf
00000090: 0939 7bbf f34c b23f cf7e 8e20 4947 c6bf
000000a0: 33c4 6c97 b196 b83f 13f3 6c47 d16f ad3f
000000b0: ab61 1558 2254 a8bf 63c0 6800 8f79 b4bf
000000c0: 8bf4 eb14 c59f 9a3f 0763 8d8b 70f7 ba3f
000000d0: 8f73 29a1 d624 a2bf f601 69ef f1bc 8c3f
000000e0: 2095 fbdf a674 a93f 2774 5c3e 61a0 b53f
000000f0: 1ca2 7745 f67a cf3f a142 a347 d2e8 d23f
00000100: 5d19 84f8 058a c23f 9263 f2c9 78dd 70bf
00000110: 65e8 bb7b 44ad cbbf a0c2 00db 0ff4 a03f
00000120: 5fc3 b531 6209 aabf 1eea afea 40e0 c23f
00000130: a688 7cd9 4142 d2bf e59c bb83 dd41 b2bf
00000140: 053a 308d c64c c1bf 0f54 7bb3 f2af b8bf
00000150: 36da 1ba3 47ad b23f e907 6cc7 0a7e 7bbf
00000160: 7927 af4f 2bea a6bf e8f5 971b 7127 bbbf
00000170: 831f efc8 0be6 d0bf c349 a5ae 5432 cbbf
00000180: 9263 eeff 26e3 c93f d4ca a4ee b097 bb3f
00000190: 289f 3325 4f37 c2bf 69a0 fdce 7a89 c23f
000001a0: db13 3008 8831 bebf 83bc f427 f664 cebf
000001b0: b6db ac66 aa5f af3f b28c c484 f79d 8b3f
000001c0: 7a39 a9c6 380d d13f aa4c e8c8 877a 77bf
000001d0: a75d 29d9 b156 c0bf dee2 8ec3 9bdc cf3f
000001e0: 4960 e425 e78c d23f 32c5 69db c1d9 c1bf
000001f0: 6e8d 84cc 5a24 d13f e7a1 ca1f 51ae c6bf
00000200: 48fc 9330 6b73 93bf 0dd5 42c5 611f bdbf
00000210: 05a4 8f45 4dec 983f ce8c c3c5 8adc b0bf
00000220: 7485 81b4 10e2 99bf 0242 5870 abd5 a3bf
00000230: a0f5 5e9c 4f47 b33f 812f e5f5 40eb b4bf
00000240: 6dd4 5df0 66f5 c2bf 1a70 1969 724b b13f
00000250: cfb1 0dc2 7bf1 b6bf d45f 5549 f0f5 c6bf
00000260: ed06 f1e3 bb3e cd3f 0080 440c 91b8 c23f
00000270: 83dc fc55 94ea 973f 5e14 cbb9 3e9e a1bf
00000280: 1030 7725 c351 d13f f13b 245e 2d17 97bf
00000290: 0276 3645 a948 b7bf 926b a2d6 b3d1 c73f
000002a0: 640e c85f 3812 ce3f 6b48 9952 9a7a c8bf
000002b0: 6126 2481 091b 6ebf e4e5 a7b1 8c87 d13f
000002c0: ec25 6e46 48a6 c4bf 345b c0e2 b7ef cb3f
000002d0: 8db2 746b 46ba 97bf 414c 82cd c296 d23f
000002e0: 7fb4 6fbf 1618 cfbf 537c 7444 4bf4 d03f
000002f0: 6f0c c3c0 263d cd3f beee a08b a113 88bf
00000300: 3305 c30f 9503 c03f cb75 3903 5b8b c5bf
00000310: 20eb a0cc 7093 c73f f1b1 c9e6 278c b3bf
00000320: 5fbe 43f5 647a c0bf 711e cc5e 394f ce3f
00000330: f361 72cf 8a4a bb3f aafc 283c c528 a73f
00000340: 6daf 1879 6729 d33f f8be e367 7dd4 c23f
00000350: e895 e0ff 33a9 aa3f dc54 e364 b372 c8bf
00000360: 254e 3144 5253 d1bf 1409 7ead e96f d03f
00000370: 6337 e208 8fd3 c3bf 2b50 9a67 3709 57bf
00000380: 3654 9cb9 9df3 d13f f677 e91c 05d9 ac3f
00000390: e2b7 729d c2b3 bf3f bf8c 6f68 4e01 cd3f
000003a0: 7cec 517c 2632 d23f b1ca 6f54 5f41 c63f
000003b0: ea04 f6d9 13d9 d13f 5408 cec1 dba4 c93f
000003c0: b080 2b62 a53b d13f 1a2d 85f7 0248 cd3f
000003d0: 3a5c 184c 3343 c5bf 7d1b 4496 a6f0 843f
000003e0: 31cf 1a75 dc19 b43f ad70 bd67 5b1d c63f
000003f0: 757a e310 262d 7f3f fd56 8635 2918 c43f
00000400: d1ba af9b 5c22 bb3f 046d 495c 0ef3 d1bf
00000410: 33b9 aa6b 93ac a8bf 95f5 1884 0cf2 c73f
00000420: 293d a763 5174 cbbf 09e9 ac91 1e61 a23f
00000430: 9ed6 58e1 6a03 d13f 1dda 767a 5dcb 9fbf
00000440: c0bd 61d5 75f5 bc3f dd52 78bd 34a2 c03f
00000450: 92bf a7d8 aaa0 cd3f 5800 60bf 83a3 acbf
00000460: db85 c660 0029 bd3f b6f2 b417 0a5e d03f
00000470: 636b 67e7 9d8a d0bf 9542 fda6 4ab0 c0bf
00000480: 0187 a483 f5d1 cdbf 64f9 0dae 0971 84bf
00000490: 8644 f33f 0b9d b83f add6 4057 ea2b d3bf
000004a0: 8d1f 488f 6ac2 c63f 0fc0 eedb a39d 9cbf
000004b0: 5c5e 4e59 ab62 94bf 1763 c3c9 765e bfbf
000004c0: 2444 eedf 060d b0bf 6972 dea2 372e d23f
000004d0: a193 eb1a 8af0 a23f a0c2 8361 923b cc3f
000004e0: 60af 1259 fd88 b6bf f55b 602f 3ca7 c23f
000004f0: f84d 8ff6 0ba4 d1bf f5af 084b cefe cf3f
00000500: f492 eacd e812 c33f 0c1e 4fbb a8e3 d13f
00000510: 6439 293c 13fd bbbf 1f09 7165 ed8d bcbf
00000520: 550d ce4b 5a65 c0bf 1481 4d27 1183 b6bf
00000530: 3594 0029 ef86 c53f 9464 ffa9 cfc2 bcbf
00000540: bd03 160f fb3f d2bf 4ab9 1a3f 4baa d0bf
00000550: 66ef f7bb 578e cd3f 7e73 3583 7c9e acbf
00000560: 07d6 f607 0621 b1bf 3d27 9bb1 5ea1 a1bf
00000570: 968d 7544 d52f c43f 6122 60a5 f406 b93f
00000580: 3c2f f496 d74b cbbf d0e2 6100 26a2 c53f
00000590: 4ed5 70a3 89cb c83f 9896 ad9b b7e8 ac3f
000005a0: 9ae3 11e3 6b31 d13f 3e64 31ed 93a7 bd3f
000005b0: 6aac af2c f97a bfbf 0f81 28a3 b1cb b2bf
000005c0: be0f 426e 7024 d0bf d5ab 1b71 a814 bbbf
000005d0: 51e8 b6be ff3c 843f f7d6 b41e 45c8 cf3f
000005e0: c0bb f09f c7d1 c1bf bd6f 3460 e9a9 c43f
000005f0: c822 0f9c b0a6 c2bf a480 6a7c a252 cabf
00000600: 0b23 d63f debb 663f 36b7 2776 d1b0 b7bf
00000610: 4e66 2e17 4651 c33f d8ff ab49 762b cabf
00000620: 72e8 c8b0 2345 cfbf 9501 8bf0 6a52 d13f
00000630: 4663 d5dc a9cc c63f a7de 5368 a7fc c4bf
00000640: c595 1ab5 687b d1bf f3d0 b178 46dc c93f
00000650: 9976 ceb4 be73 943f 9a16 c0da c876 d0bf
00000660: a3e2 ad6d 9a65 c2bf e1b2 916d 4aeb 923f
00000670: b383 84b6 4c79 acbf 9ba4 ac83 8b1f cfbf
00000680: e1d0 621a a2c2 b2bf ba91 c4f2 d4f2 c03f
00000690: ca7d d158 5f75 a63f 6b3f 2766 e16e d13f
000006a0: 59a0 82e0 47f8 a83f 99ba 7830 d9af cebf
000006b0: 9684 7a45 3923 c13f d65a 2520 7733 c4bf
000006c0: c6f1 6185 6b4e b6bf 59b8 07ef cb30 9cbf
000006d0: bf53 bc5b 655f c1bf 1640 f446 64ae d0bf
000006e0: 3ab8 37e7 1821 af3f da2b 31ee 1eca d2bf
000006f0: 366b f7cf 88a2 a1bf 3e59 31b8 72b9 d13f
00000700: 7fef d821 8673 b0bf d913 f5a1 f0c4 d23f
00000710: e604 c1fe 7203 d23f 7f20 9c1c bf82 76bf
00000720: 47b0 7bce 5f9c d2bf 87de 301c 55b5 c4bf
00000730: b1d8 37af d00e d33f 275c fa55 f7fb b6bf
00000740: f683 015c 290d 9f3f 577f c4e7 bf7e bcbf
00000750: 0102 e17d 79cb 34bf 1520 9188 1fce c3bf
00000760: 9061 163e 21d2 b8bf ea59 90e9 9dee a93f
00000770: 38d9 fc41 6893 d0bf 9da7 b10a fe9f c8bf
00000780: f957 2da4 2a46 803f 7baf 58b5 3e6a bf3f
00000790: b763 0b1e 3891 bb3f 81a6 e442 df6d d23f
000007a0: bf4d a849 1d23 ce3f 077f e29c e28d c43f
000007b0: e43e b78a eb4a c43f 4ec9 fe38 8dd6 b6bf
000007c0: c29c aa96 94b9 cebf 9bdb e979 1a76 bf3f
000007d0: d485 7267 f492 c9bf 611f 3d8c 5f90 d1bf
000007e0: 4958 44db 71e4 80bf 3112 4433 e40f b03f
000007f0: 3619 7832 ee0d cbbf 6ba2 84f5 2b9a cb3f
