model/550_150/Theta3.npy (npy, 12208 bytes, 1 tensors)

array f8 [10, 151]
0.25378265743461587 0.1603378135487278 -0.2700036346678471 0.25720030378525527 0.2173934833700883 0.14162021730998892 -0.0705906677709707 0.2151903309477312
0.2564766580153647 -0.23397887874270118 0.1304729449739193 0.27365447101145873 0.19284456770252423 -0.13301891357480958 -0.1083778632917054 -0.25510392867771575
-0.09267206122672986 -0.046125848113069946 -0.24559152347260854 -0.003479544643541797 -0.22532027610075395 0.09698898168711878 0.16633709471279734 0.1082926132555445
-0.15688457945734352 0.2505984988515923 -0.10068203276457907 0.20641902898679698 0.1663840049089287 0.10242864143416847 -0.16584369614753894 0.26276655196032045
0.06991152335019692 0.2688848748339323 -0.054210381548956396 -0.22159817127650727 0.28729617241117683 0.24120471598433818 0.2595237894741489 -0.1764716693330183
0.08142338529584367 0.0692447475246428 -0.19986301248160215 -0.005576056993139142 -0.1788517819095809 0.10468428753081388 0.01854840603063243 0.24829271793938754
-0.1375961946419525 0.05116824818832155 0.18185341605381022 0.06102971608044065 -0.11585056044623136 0.29923435840164225 0.09669296984964879 0.07691855424881594
0.17890294660072625 0.015610133362154307 0.14167046284407647 0.28651160699808664 0.2955188534327327 -0.1471212525551069 0.21872604496212927 -0.04303458668371656
-0.06209037790515292 0.1475385573288373 0.051628008583445684 0.10516332257659881 -0.18759452975275667 0.004206605093087782 0.033006118856169435 0.21986844130525793
0.12666544835589796 -0.16784335869064854 -0.10658754461050891 0.09480196792931636 0.19928535794036228 -0.023233212043141317 -0.22443783028437095 0.1656899374164052
-0.08436268726608055 -0.11631637941448493 0.04245112302198427 -0.13189849599019277 0.22271987057475848 -0.24080965908265953 0.1533497612067129 0.1356348379556951
-0.048186946014907 0.05396606410781583 -0.12879029980430068 -0.06999627380079351 -0.11384070020500622 -0.08044976261498445 0.19703102548010007 -0.037119478117125765
0.06826245270037812 -0.04767490931969085 -0.15460005910311297 0.08789188544790974 0.23292238334943952 0.06563881815415924 0.2451677895957689 0.2030988886936967
0.25075014701706483 0.2409880579234073 -0.2647369489364386 0.28819764210189963 0.2142410458627123 0.2874013604076538 0.09166766569413808 0.019987734254952393
-0.27341908144864613 0.21424666692261843 0.22864106109719 -0.1239049486386506 0.1788895211155209 0.2637763715263425 0.2266740622966154 -0.21457401806673324
0.03644376693424145 -0.014989215407304397 -0.06810241336357027 -0.05678325261509403 0.2017227838404315 0.023612309912349264 -0.03165659454576887 0.2739293098375008
-0.024220861354923743 -0.02508370593681918 -0.16340216636184915 -0.1719899766033228 -0.07861132228868009 0.12409127728001582 0.18851875754010863 0.17744939924165745
-0.18160269106790078 0.04132246225090652 0.12148707221220126 0.028376082688534254 0.18276040771226904 -0.23109371390051697 0.2856551119923106 -0.16109633415197203
0.08126656942392725 0.040886057285837954 -0.25346366739706794 0.09544773976238034 0.09295989854744514 0.0164709120955377 0.2276893366915148 0.28289044152627996
-0.0003340785281498296 0.18632850071452292 -0.23565998521232503 0.024323606166710164 -0.2831841681483151 -0.21496340345513765 0.1981376795306182 -0.12883933094459024
-0.11980227461517672 0.01781626933525469 0.14207173572054269 0.11137594900050553 -0.05474132232977522 -0.22518815425435426 0.027736117169623566 -0.28449691143135136
-0.12467335966460129 -0.043816077698548686 0.057550311406126056 0.26494090578321944 0.17658551276170872 -0.0633786189884351 -0.009256081509658589 -0.16943715247354577
0.19542086383678958 -0.20305142637970164 0.22088502866022733 -0.02374977044318948 0.04176719636585416 0.17063141612517047 0.18661562926100467 -0.16335996350999213
-0.14781470151356765 0.17500705527311727 -0.01766552344463414 0.15467955911863832 -0.12323109202887886 0.10701479695681271 0.01996226403419361 -0.0160446440753262
0.17428354048354242 0.02798411859219438 0.12139641295652576 0.11518304483393584 0.042521617203462064 0.25208621140288673 0.09656317255532976 -0.17862870476261164
0.2856389868484704 0.17417224822958247 -0.01618343971474593 -0.10311772014246036 0.15518968026833044 -0.25455800001237444 -0.07561087671501625 0.18107140634897928
0.1778582385089816 -0.033621062564542045 -0.09837001247445984 0.02944567483650782 -0.2086267925461327 0.10163888464010429 0.11559179875975818 -0.2693779558442867
0.03964625455094749 0.11651755638456647 -0.28540601533125315 0.2526076265684197 -0.25445762598624155 -0.16798560895315487 -0.0732088289418222 -0.26533311568240786
-0.11465824969604088 0.24397396480939187 0.22813818385815024 -0.2653386211154757 -0.23749641669660396 -0.05596415169866396 0.16162975544292826 0.11470619556803269
0.18435478169613512 -0.07318386786665343 -0.2565472674011787 0.03951564175089778 -0.1404811958136176 0.02487801759998501 0.09233677202607717 -0.05137928997154965
0.2642913846014058 0.18071877562306116 0.16082007773323131 -0.23762205592636346 0.273461806855265 0.24653420247388197 -0.14932785384320896 -0.2877998380508949
-0.08150210347440613 0.21162111569156652 0.23375075415171565 -0.1494291542344318 0.25510202999131 -0.028544462285350295 -0.18250122303441993 0.05151312712582851
00000000: 3950 7e9d f93d d03f d580 c010 f385 c43f
00000010: 2fc5 2c53 bd47 d1bf 18da 5143 f875 d03f
00000020: fe11 b8b6 8cd3 cb3f 963f e67c 9c20 c23f
00000030: a2a7 7ae1 3a12 b2bf 80ff ea54 5b8b cb3f
00000040: 6a41 9712 1d6a d03f 9ccb 1318 05f3 cdbf
00000050: 5280 d663 56b3 c03f 4f7f d90a 8e83 d13f
00000060: 442e bf7b 21af c83f 25d1 c685 c306 c1bf
00000070: 70bf 72d2 a6be bbbf 391f b06d 9f53 d0bf
00000080: 46c2 3830 5bb9 b7bf 3db3 4aa2 ce9d a7bf
00000090: 82ad be04 8b6f cfbf af13 5e4e 2281 6cbf
000000a0: 263d 7d78 4bd7 ccbf 0024 6b18 45d4 b83f
000000b0: 6899 f3ae 884a c53f 77b8 5490 10b9 bb3f
000000c0: 6a0c 023d cb14 c4bf 53a2 3f49 ce09 d03f
000000d0: 66c7 0436 4cc6 b9bf 749b 6251 f06b ca3f
000000e0: 31a7 d431 124c c53f b42a 2271 c338 ba3f
000000f0: d1c8 99c1 5d3a c5bf a5be c9cc 2ad1 d03f
00000100: 2913 67ba b8e5 b13f 3040 f3e7 6835 d13f
00000110: 8e80 b68f 76c1 abbf 6c35 3e31 545d ccbf
00000120: 2768 317c 0f63 d23f fe97 65cf cbdf ce3f
00000130: 50d4 14ab 099c d03f f558 3aa8 9f96 c6bf
00000140: 5eaa f9b8 29d8 b43f 16c2 0916 06ba b13f
00000150: 42ee 2477 1c95 c9bf 1792 d166 ebd6 76bf
00000160: 4e05 117d 9de4 c6bf 7493 59e7 96cc ba3f
00000170: 3890 2d75 5afe 923f 4b3b b147 0ec8 cf3f
00000180: 3c47 058a c09c c1bf c0f9 1f81 b932 aa3f
00000190: bcf9 4e05 f946 c73f f69f 4c75 493f af3f
000001a0: 6bff 56e0 61a8 bdbf 962c cbdd a726 d33f
000001b0: 0ee2 41d7 dec0 b83f cc4a f432 efb0 b33f
000001c0: 9471 67b0 4ae6 c63f f194 36a2 34f8 8f3f
000001d0: 24bc 5cfa 4122 c23f c4cb 7ec7 3456 d23f
000001e0: 8d14 b6e8 c7e9 d23f a1a7 2284 ded4 c2bf
000001f0: 9ea8 f20c 37ff cb3f a78f ce1c a108 a6bf
00000200: 7f71 ff5c 4fca afbf 222d 501f 8be2 c23f
00000210: d8d5 d880 fc6e aa3f 5b87 34c7 fbeb ba3f
00000220: d329 19f9 1803 c8bf f7fc d4f4 f13a 713f
00000230: df3a 1c92 2de6 a03f db0e 6a2a a624 cc3f
00000240: 9762 1ccb 9236 c03f 4aac 3624 e47b c5bf
00000250: 0159 4342 5249 bbbf ae54 da17 f144 b83f
00000260: 1c77 76bf 2e82 c93f bd13 a077 72ca 97bf
00000270: bd3d 87fa 60ba ccbf 5a68 3def 5335 c53f
00000280: 617c cf06 cb98 b5bf f907 9305 e9c6 bdbf
00000290: 6ea4 1d52 27bc a53f 08b1 55c7 0ce2 c0bf
000002a0: 3bdb 24b0 1582 cc3f 4d14 29d5 d9d2 cebf
000002b0: 16ba 9d08 f7a0 c33f 70e6 9b7c 7b5c c13f
000002c0: 2ccf 749a f5ab a8bf 75b2 dfa0 70a1 ab3f
000002d0: f8ca d956 337c c0bf 0ef7 d09a 46eb b1bf
000002e0: e690 5504 aa24 bdbf 8dfe 660b 5b98 b4bf
000002f0: ebff 5d09 5038 c93f 5c83 1d01 5301 a3bf
00000300: 3093 e4e9 a579 b13f 3d55 bc80 d868 a8bf
00000310: 625d e74a efc9 c3bf 0a22 9525 1580 b63f
00000320: fd00 7f91 66d0 cd3f f5f8 51a1 b4cd b03f
00000330: 0858 2c7b a861 cf3f 328d 65f6 24ff c93f
00000340: 79f3 3958 4a0c d03f a5f8 c059 b2d8 ce3f
00000350: 8c63 6e3e 73f1 d0bf 8b2a e785 d471 d23f
00000360: c478 b826 406c cb3f cdb6 f1ac c864 d23f
00000370: b7c9 413a 8877 b73f 06de c823 aa77 943f
00000380: a827 3bbf b27f d1bf d9d5 da4d 6f6c cb3f
00000390: 9eb3 f73b 1c44 cd3f 352f 3716 3cb8 bfbf
000003a0: d3e5 6411 dae5 c63f a671 4a4a b6e1 d03f
000003b0: ce2c 35da a703 cd3f cf7e 1553 2977 cbbf
000003c0: 6050 40e6 c1a8 a23f 1790 bc6f aab2 8ebf
000003d0: 69da 2ce6 286f b1bf c779 e2c9 b112 adbf
000003e0: 13f3 b95b 0dd2 c93f 341d 6d4b d32d 983f
000003f0: f2b9 8d0c 4b35 a0bf 27bf cacc 0e88 d13f
00000400: c1f4 997d 5acd 98bf 7dfc a402 8baf 99bf
00000410: 1d52 4fb8 5cea c4bf 4723 607e c403 c6bf
00000420: 1a40 5322 df1f b4bf 02f4 a229 72c4 bf3f
00000430: f19d 28f5 6121 c83f b708 3873 a9b6 c63f
00000440: ea48 80c9 c13e c7bf c069 eabf 3728 a53f
00000450: 22c7 09da c619 bf3f 501b 8bac 9e0e 9d3f
00000460: 765c 106b b164 c73f 82c7 c193 7a94 cdbf
00000470: dd4c fc60 2c48 d23f 3117 58ff cd9e c4bf
00000480: d512 efc9 e2cd b43f 9263 cf6d 04ef a43f
00000490: ca74 8cac bf38 d0bf c3ac c158 436f b83f
000004a0: 11cb 194c 38cc b73f f27a 2433 c0dd 903f
000004b0: 6c76 5e97 ec24 cd3f 3635 ad82 e01a d23f
000004c0: e780 4a5a e8e4 35bf e5d7 70c0 9cd9 c73f
000004d0: 5d3c bb3c 1b2a cebf a6f7 0694 49e8 983f
000004e0: 5f49 3c7d b01f d2bf 1c9d d6b9 eb83 cbbf
000004f0: 173c d852 935c c93f 853a 6ca4 ce7d c0bf
00000500: 7b66 75a3 5cab bebf 5bce 8698 6d3e 923f
00000510: 1d87 4d19 682f c23f 81a4 845a 2283 bc3f
00000520: fdd7 4afa 0d07 acbf fd09 fc26 f7d2 ccbf
00000530: 476f a550 db66 9c3f 4c48 9a88 3235 d2bf
00000540: e320 71e2 97ea bfbf 922e 8299 0f6f a6bf
00000550: aa54 ba02 3c77 ad3f f389 6db3 caf4 d03f
00000560: 9b24 21a5 5a9a c63f 4f2b d2c7 9439 b0bf
00000570: ae18 fc3a daf4 82bf 95f5 4cda 1db0 c5bf
00000580: 504a 9105 8d03 c93f 007e dad1 96fd c9bf
00000590: 09c7 22eb f545 cc3f be30 5d1d dc51 98bf
000005a0: 64b8 df8c 8262 a53f 4ec1 f60f 40d7 c53f
000005b0: da9a 4c5c 05e3 c73f 5326 60b2 fae8 c4bf
000005c0: 0334 6f96 97eb c2bf 96d0 7b95 a166 c63f
000005d0: c57f d835 e916 92bf a11a e32f 8acc c33f
000005e0: 6249 1da6 128c bfbf 701a 1e5d 5265 bb3f
000005f0: 7352 b9dc fc70 943f d464 51d6 016e 90bf
00000600: e3cf 4d4d ec4e c63f 98b8 a468 dea7 9c3f
00000610: 44ff 7fd7 d513 bf3f 898e 9dd2 a27c bd3f
00000620: d417 86b6 64c5 a53f 43de 6f34 2e22 d03f
00000630: 8086 1f34 5db8 b83f 6187 8a2e 4edd c6bf
00000640: 2583 bebe e847 d23f 2928 02b7 464b c63f
00000650: aa19 3f41 6492 90bf f962 a643 ec65 babf
00000660: 3bef b664 41dd c33f 9140 3fa3 ad4a d0bf
00000670: 7b7f b602 3c5b b3bf 563a 410c 592d c73f
00000680: f330 dc0a 0fc4 c63f f6cb 57a8 c736 a1bf
00000690: 8623 7cf2 c62e b9bf 5ace b9c9 0127 9e3f
000006a0: c80a 8761 48b4 cabf 68fa 8785 0105 ba3f
000006b0: c5e5 5b93 6c97 bd3f ae54 a709 7d3d d1bf
000006c0: 5e11 698d 834c a43f 65e0 1436 18d4 bd3f
000006d0: 677b 7b97 1744 d2bf 0138 b52d b92a d03f
000006e0: 8a09 75a3 0849 d0bf 5183 536c 8d80 c5bf
000006f0: cd65 1556 d0bd b2bf e3b5 99bf 37fb d0bf
00000700: b03d a938 3e5a bdbf fe44 f7f3 893a cf3f
00000710: 19de 51cb a133 cd3f 06a1 03d7 4efb d0bf
00000720: 6d86 5057 4866 cebf 1d9a 9652 55a7 acbf
00000730: a10b d8a8 48b0 c43f f4ff 9c9e 625d bd3f
00000740: da80 1fff ef98 c73f 0002 158f 2dbc b2bf
00000750: 4e70 d73a 456b d0bf 2849 00ea 643b a43f
00000760: 8f79 dcae 49fb c1bf 48cc ec7f 9f79 993f
00000770: 39f9 11f8 61a3 b73f f52f 3de4 624e aabf
00000780: ee90 5e69 26ea d03f b47f 89f7 ca21 c73f
00000790: 96c3 3397 c095 c43f ad89 8147 666a cebf
000007a0: e87f 49f3 6580 d13f 0a42 7cc8 6e8e cf3f
000007b0: beb8 51d4 2c1d c3bf 8d40 0e03 506b d2bf
000007c0: f14f fa64 52dd b4bf 5de7 8495 6616 cb3f
000007d0: 389c 3f72 8beb cd3f dbbe 4099 7e20 c3bf
000007e0: 432d fd76 9753 d03f b16c fd6f c23a 9dbf
000007f0: cbd7 3438 335c c7bf 49e7 a3b8 ed5f aa3f
