model/400_80/ini_Theta3.npy (npy, 6608 bytes, 1 tensors)

array f8 [10, 81]
0.027396297422364158 0.02166057492040474 0.3484838126972759 -0.2745333200251293 0.3927290548380814 0.035777465465358316 -0.09539950958072696 0.4147610795389186
-0.46883522526396626 0.38147278779189 -0.4234317306610821 0.3263678894505354 0.34901032470053384 0.3895461942063675 0.2894179327544898 -0.23382232626957278
0.48446903223427895 0.18939877473093347 0.21540604574173372 -0.24375240902939532 -0.024824372447364573 -0.12489908214182921 0.49977463512511 0.11508943680326955
0.1518788739646031 0.1350079529701943 -0.4766568632139764 -0.21470759493745062 0.07421026499332939 0.0379434545931332 0.46908676014466544 0.21359588161764398
0.4954612687883462 -0.3372852502508509 -0.09751088233733929 0.3491790365479672 0.03781682363284222 0.2880837147732679 -0.2671961798317366 -0.3498696457599355
0.305656267664845 0.40338978748824483 0.006186816358663472 0.24373620653022 -0.0411173786731267 -0.16112239734553735 -0.24306331369483336 0.28900764686020397
-0.35764406400516646 0.06086909800663454 0.480061249987798 0.11092749444717931 0.48161597566675096 -0.024018884478256952 0.38105680879044723 0.3127008278419551
0.03974456181199948 -0.4258532765696812 0.254668204305208 -0.02362586927256194 0.48549616261244066 -0.09146047633078247 -0.3364206659247754 -0.25984744778995594
0.015063730616567184 -0.263348138163191 -0.04962052515804827 0.4685103266078733 -0.04100326350293915 -0.26156641857322405 -0.1684783831231912 -0.17728325386594823
-0.3426799331673326 0.10570827048748455 -0.046947354930639174 -0.38813536002880833 0.38898634997963843 0.18327546588727506 0.39206611806945535 -0.2933775733335954
0.09535820679406526 0.23264608029598222 -0.21825431807976148 -0.3887151877561349 -0.27912638621113217 0.08573733917184423 -0.44640927558196 -0.23216124422290707
0.04871593901127702 0.053008543391556584 0.4647093800790496 -0.0028639625876686337 0.10284405338351099 -0.3362013449321384 0.31566240221237885 0.4167356230589335
-0.23292738418342895 0.005395146386158678 0.4216061929939653 -0.3929611902538568 0.4218000410531706 0.30376849707954257 0.24630878163021563 0.17123067130249703
0.25932352256030233 0.1431412937667338 0.24773667129816135 -0.2742030022469608 0.09959842589047685 0.03400725794472437 0.17627656032530103 0.2232139339478334
0.07764454463165926 -0.1680828989419204 -0.30961324988473193 0.4523583680167397 -0.32456022323721134 0.33805567560121685 0.47010001242673094 -0.2409315259656516
0.2407675063422252 -0.4753599373511642 -0.07754467384991104 0.1977602103979461 -0.17604630507409824 0.1523388995742091 -0.35387938463595403 0.45029965230459035
-0.19808576224476326 0.47897624488845403 -0.08082476969766839 0.4531141501236138 -0.33051604510699284 -0.29895678787492763 -0.36107826070566384 0.1561520020930669
0.35083482133719557 0.21245619881352584 -0.37323662071361385 0.27747309720431923 -0.3181425172430167 -0.39785724047124693 -0.030499874630739332 -0.205564629606806
0.36477265993437313 -0.4712770024813179 0.0641918670550633 0.36581369060216706 0.3940640885406421 0.3058940059428302 0.4705071997315542 0.2522273883364119
0.22206005812929897 -0.34426898530778294 -0.44247542153428554 -0.1359875936231153 0.46404610187659456 0.10792196880023552 0.014860007941173703 -0.08634271104244728
-0.4414180566312915 0.2969080914498743 -0.4828938454106576 -0.15237462225250953 -0.24887389709795704 0.45334570912710026 -0.2767330298720041 0.11243669059606332
-0.1993536594077342 -0.15411417814879314 -0.4007947476815781 -0.19553366720645704 -0.2568959594940199 -0.01086567207445599 -0.15428398716051717 0.23867606279350295
0.08706749840399419 -0.48613766747644704 0.008357608779136716 -0.049731841111712694 -0.20584552749661356 0.2363408222669109 -0.10940782110460201 -0.07888706111951382
-0.1655326984909683 -0.06576302446753024 0.44110069667297325 -0.42822634744394195 0.026884258805155326 0.013318794663890743 -0.24267045292212952 -0.3925436256542909
0.3865060755564942 0.12140023664433586 -0.15069233816381855 -0.2775849028436518 0.4186447969573778 0.2197191247908299 0.2577528137270747 0.2131107061502896
-0.05690583106879654 -0.46273071797887233 0.12880939634382949 -0.42636742850922726 0.23208952250533188 -0.0755431625801678 0.12012348484683877 -0.019450079334991655
0.06601471362920974 0.34717242831949635 0.03245917577520785 -0.18470266759450304 -0.0058260635198311705 -0.22767153174603927 0.31486518172059874 0.35937754066435257
-0.08025016844666621 -0.2998689077153339 -0.4355753540662729 0.13613367178539848 0.05856815869383769 0.179555528215529 -0.44497179658831865 0.00956969933669749
0.4322648458638446 0.32703859507826305 0.3998124320500255 -0.24975902705928732 0.2125321482333168 0.3359034177143424 0.2560128784313216 -0.24806709454807718
-0.03923463957401674 -0.3161493775495493 0.27299493646375905 0.28276525218009285 0.17460702343626444 0.13444906079214758 -0.17677507739099896 0.325548483329995
0.3522566144918502 -0.4900785246107363 0.0681641431386828 -0.08460113889057819 0.15510357884490644 0.4258504439582491 0.2774641261829194 0.2436367497319668
-0.18332695035375712 0.2733156694281832 0.24913156168351536 -0.13616090448136542 -0.22922689533716667 -0.4398538547289368 0.46361586013148803 0.1756338999495115
00000000: a098 d765 c60d 9c3f 6031 9593 302e 963f
00000010: 9617 ae0c 8f4d d63f 16e5 ca33 f491 d1bf
00000020: bafc ad0b 7922 d93f 1008 3788 6c51 a23f
00000030: 2023 b42d 1a6c b8bf ea7d 110e 728b da3f
00000040: 842d ee75 6501 debf d053 f8d6 0c6a d83f
00000050: 36cb d166 8119 dbbf dae4 e924 36e3 d43f
00000060: 5087 a366 2f56 d63f 7e72 1929 53ee d83f
00000070: 0e9d 03cb d285 d23f b483 33d6 e3ed cdbf
00000080: 6ebe 5766 8a01 df3f 2498 af13 383e c83f
00000090: 8024 e9e0 6c92 cb3f ac1d 8d68 4733 cfbf
000000a0: 607a 386f 8f6b 99bf b07d 19e1 62f9 bfbf
000000b0: 3ce4 4ec0 4efc df3f d062 2f57 8076 bd3f
000000c0: a8cd 5056 c470 c33f 647b 5acb f047 c13f
000000d0: 16c0 bac9 8b81 debf f0c5 3ad9 897b cbbf
000000e0: 0081 2ca5 71ff b23f 0048 2611 536d a33f
000000f0: 32b5 7379 8405 de3f 30d5 0d1f 1c57 cb3f
00000100: f45b 782e a3b5 df3f 8209 d0df 1496 d5bf
00000110: 189a a422 79f6 b8bf 1807 9b07 f358 d63f
00000120: 80ba 7b09 ba5c a33f 3687 5dad f66f d23f
00000130: 9494 7f01 be19 d1bf d4ba 99a7 4364 d6bf
00000140: 1207 5c4e df8f d33f 8c5a 3366 23d1 d93f
00000150: 803e d4de 5857 793f a8fe f27d bf32 cf3f
00000160: 208b 6549 560d a5bf 1848 a0a1 a89f c4bf
00000170: 0c9e 96db b21c cfbf 5abe e3ed 197f d23f
00000180: a6af a0ed a3e3 d6bf 3010 8d02 3c2a af3f
00000190: f690 31d2 52b9 de3f 38bb e088 be65 bc3f
000001a0: a611 2ed0 cbd2 de3f 4035 480d 6898 98bf
000001b0: 0214 eb18 3c63 d83f 4ada 4055 4a03 d43f
000001c0: 904f 5a32 6659 a43f e4b7 f019 2e41 dbbf
000001d0: 409a 34de 7b4c d03f 80fd 753f 6131 98bf
000001e0: 6640 307f 5e12 df3f 80a0 b72a f469 b7bf
000001f0: e21b 768b ea87 d5bf 503e 8d30 57a1 d0bf
00000200: c0ce d4b2 bbd9 8e3f b4e5 3726 b2da d0bf
00000210: 5040 8789 dc67 a9bf 3e9f a7bc 12fc dd3f
00000220: 607d 8c37 61fe a4bf fc3e 6013 81bd d0bf
00000230: 9c6c cc1c b390 c5bf 8cc9 bdb8 37b1 c6bf
00000240: 06bf 7cd0 77ee d5bf 7014 a97c b20f bb3f
00000250: 2021 1fd4 7b09 a8bf baac 6fb1 35d7 d8bf
00000260: 7430 f000 27e5 d83f b08f 120a 9275 c73f
00000270: 5097 be7c 9c17 d93f a23f b6ba b2c6 d2bf
00000280: 70f1 953b 6569 b83f 80f8 34c5 58c7 cd3f
00000290: 7c82 2eeb c1ef cbbf 16c0 b7aa b5e0 d8bf
000002a0: 008f 0eeb 34dd d1bf 7804 cadb e1f2 b53f
000002b0: 405b d035 f891 dcbf d803 abab 75b7 cdbf
000002c0: e0d9 b1a9 4bf1 a83f 60f8 8c90 ef23 ab3f
000002d0: 785f 6569 ccbd dd3f 0007 d534 2a76 67bf
000002e0: 38c9 dee5 fc53 ba3f 38b4 56a5 5284 d5bf
000002f0: c40d 8513 d033 d43f 8271 07e4 cbab da3f
00000300: 5890 b484 90d0 cdbf 8029 9294 3819 763f
00000310: 2ecf ac8a 98fb da3f 0034 2fb1 4626 d9bf
00000320: bc96 7199 c5fe da3f cebf 206c f170 d33f
00000330: 80e1 e8d0 0b87 cf3f 2c7e a8fa e2ea c53f
00000340: 98b8 1eb0 c198 d03f 48b6 b733 7452 c23f
00000350: b46c 9fd2 d5b5 cf3f d067 c7bf 8a8c d1bf
00000360: f8c3 ee4d 487f b93f 2001 6639 6669 a13f
00000370: 5403 d3f6 3a90 c63f 28a2 2831 4692 cc3f
00000380: c8e1 e74b 83e0 b33f 4c78 fc8c bd83 c5bf
00000390: dc71 aa17 b4d0 d3bf 8a0b 2d83 70f3 dc3f
000003a0: d8b8 183e 98c5 d4bf 66cd bb45 b4a2 d53f
000003b0: 4c35 ce5c 1e16 de3f 4c86 4c20 d8d6 cebf
000003c0: 48f4 d63a 78d1 ce3f 761e 3016 4c6c debf
000003d0: 2013 2abe f7d9 b3bf 28fc 0de2 3450 c93f
000003e0: 6cfc 6f71 af88 c6bf bc38 ca4f d77f c33f
000003f0: 9c5c efb7 f5a5 d6bf c418 03a2 b5d1 dc3f
00000400: a47e 52cf df5a c9bf c4d5 d6fa 8ba7 de3f
00000410: 58e7 8e9e eeb0 b4bf 38b0 087e d2ff dc3f
00000420: 3c6b 22c5 2c27 d5bf f2c2 b5a6 1b22 d3bf
00000430: bac0 41fe e71b d7bf 28ea 18ef c9fc c33f
00000440: 923d fce4 1374 d63f d847 dec4 c331 cb3f
00000450: 1a9c e8d9 1be3 d7bf d6ca 8085 1ec2 d13f
00000460: e6a7 c16e 725c d4bf 8640 1337 7e76 d9bf
00000470: 20d5 48f0 5b3b 9fbf 2c13 b018 f14f cabf
00000480: ee27 396d 6f58 d73f 2ee8 4004 6729 debf
00000490: 78b1 abd1 e06e b03f 062f 64d3 7d69 d73f
000004a0: c8d8 3395 5838 d93f da47 e473 c493 d33f
000004b0: cc4a d83a ca1c de3f 48dd 0358 7e24 d03f
000004c0: ace3 b4c7 766c cc3f 5823 3bc8 8008 d6bf
000004d0: 2e82 316e 8451 dcbf 44f2 a29d 0a68 c1bf
000004e0: 4a5c d96b eeb2 dd3f 7056 842e c6a0 bb3f
000004f0: 4050 0181 ec6e 8e3f c0df 2c50 8e1a b6bf
00000500: f418 4685 3140 dcbf ac7a accb 8a00 d33f
00000510: fe9e 5e96 bbe7 debf 104e a8f9 0281 c3bf
00000520: d490 6e90 19db cfbf 98e6 9eb8 9d03 dd3f
00000530: e87c 4174 feb5 d1bf 2806 fba4 a6c8 bc3f
00000540: 0440 bfb3 6b84 c9bf b8de 7f6d 03ba c3bf
00000550: 5cdc 6c03 9fa6 d9bf 5497 f548 3f07 c9bf
00000560: 3816 20c0 fb70 d0bf 00b9 abd1 bd40 86bf
00000570: dc50 93e3 93bf c3bf 28a0 04ee ef8c ce3f
00000580: 588f 303a 0e4a b63f 6490 ca29 e11c dfbf
00000590: 4082 0843 cb1d 813f c012 4aae 7376 a9bf
000005a0: 001b 5070 2559 cabf 044e 2c83 6a40 ce3f
000005b0: 7825 92a5 2602 bcbf 40fb 9543 f131 b4bf
000005c0: acfa 37eb 2c30 c5bf 60c4 5f77 d8d5 b0bf
000005d0: d201 9d6a fe3a dc3f 36aa 637b 0f68 dbbf
000005e0: 60a1 6111 8c87 9b3f 4045 075c e246 8b3f
000005f0: 60c6 804d d30f cfbf 800f 9c4c 6f1f d9bf
00000600: d01b 8efa 83bc d83f 9034 1dfe 1514 bf3f
00000610: 90ef 15f4 e249 c3bf a6ea e477 f3c3 d1bf
00000620: cea3 e48b 13cb da3f 4824 a49b c11f cc3f
00000630: 9a39 5aa8 057f d03f 1ce6 ab2c 3647 cb3f
00000640: 10cc c8d6 c222 adbf 0eba 244d 619d ddbf
00000650: 886c 5b88 d37c c03f 42b6 619c 9a49 dbbf
00000660: c8cb 7306 1cb5 cd3f 08de b7f4 cb56 b3bf
00000670: c812 e6a6 69c0 be3f c0f4 97ba b8ea 93bf
00000680: 709e 171c 57e6 b03f 0821 6db4 1238 d63f
00000690: 70bb d134 7d9e a03f 64b3 6646 56a4 c7bf
000006a0: 8074 8304 12dd 77bf e42b 8a3b 5724 cdbf
000006b0: 80e6 884a c026 d43f de7f 04a8 0a00 d73f
000006c0: 9817 fa68 468b b4bf de5f ee5b 0d31 d3bf
000006d0: fa20 2a73 77e0 dbbf 90f1 1902 d46c c13f
000006e0: f09b 5a4c a5fc ad3f c837 c0f0 acfb c63f
000006f0: f04e 7ffc 6a7a dcbf 4027 784d 4799 833f
00000700: 3e86 0c2c 3aaa db3f f004 9949 33ee d43f
00000710: ea19 0ce2 8696 d93f 80da 8c92 1af8 cfbf
00000720: 445f 01e1 4034 cb3f 92a7 6c0c 717f d53f
00000730: 10e9 0dd7 8362 d03f 101c 269d a9c0 cfbf
00000740: b076 ae0b 9016 a4bf f277 4e99 ca3b d4bf
00000750: e677 05c1 bf78 d13f 9ac1 a36d d318 d23f
00000760: c0c3 a7df 8559 c63f a843 8a77 a035 c13f
00000770: ec33 12d4 90a0 c6bf ee8a 4a4e c9d5 d43f
00000780: 04b3 c253 5f8b d63f ea33 eb50 725d dfbf
00000790: 905e 8a8d 3473 b13f 7848 bd94 6ba8 b5bf
000007a0: b8d2 501f 6fda c33f ac6a 7238 2241 db3f
000007b0: f034 f1e4 f8c1 d13f a4ec 1930 7d2f cf3f
000007c0: b055 1fec 4177 c7bf ce6a 6b01 017e d13f
000007d0: 6c82 ea02 8be3 cf3f 18e1 de73 b86d c1bf
000007e0: 7c1a 6b91 4e57 cdbf f023 45c8 9026 dcbf
000007f0: 56fc 4adb e1ab dd3f 3811 2df0 2b7b c63f
