model/400_80/Theta2.npy (npy, 256768 bytes, 1 tensors)

array f8 [80, 401]
00000000: 96be b154 f455 cebf 7ce5 d739 8210 be3f
00000010: 2032 359b f55c db3f f02d 1e54 f942 c2bf
00000020: fd3f 68e8 d8fb d3bf 27bf 4504 ad50 c6bf
00000030: 6b83 d786 e0d3 c6bf 1716 f372 dd57 bd3f
00000040: 5f41 67de a77a c03f eb2f bd91 3bfe c23f
00000050: 0793 5bf7 3bbf d83f 8508 d0ef 8ea0 d7bf
00000060: 0042 6f60 6952 cbbf b0b3 0348 ddd9 dbbf
00000070: dea7 1636 41c6 c63f 6db6 ef36 832e cdbf
00000080: c17b 6ffd 12a9 dbbf 35bc 7bb3 5859 cc3f
00000090: 65f4 37d7 27c9 c63f fe2c c49f 03b3 c03f
000000a0: 71a6 1973 2ec8 dbbf beea abd3 8dbc d13f
000000b0: fbfa df9f b5c2 a0bf ae29 2c9c 135e b4bf
000000c0: e39d 8850 ef78 b33f 5987 4954 5352 b1bf
000000d0: cf36 c9bd 66e6 c63f 60e1 3728 8d00 a3bf
000000e0: 013d 6987 9d87 c83f f600 646d 6662 c4bf
000000f0: 84a4 31c0 4904 debf 3996 707c 0900 c53f
00000100: 2cb6 f054 fd49 d83f 69d8 6cb8 74d7 ccbf
00000110: edba 84cc 9a4c a1bf cfc5 c037 bf9a d8bf
00000120: fb49 b897 1601 a0bf 4f21 4375 ba0f db3f
00000130: a174 fc5f c8f7 dd3f 423a 6019 c89e cfbf
00000140: 5250 c8ca 9a13 d93f d70d 1e25 5ecc 9c3f
00000150: 8d6e 3ab4 4ec4 c8bf fa9d 2a38 4942 863f
00000160: ec1a 410c 3bf6 a13f c7cd 1054 6faf 85bf
00000170: 9460 c423 e3b8 c63f 836f ac9f 8642 c8bf
00000180: 5f83 51b1 926e cf3f 80c6 8b2a d1dd d7bf
00000190: c5d2 53d9 4564 b9bf 7b39 bc3c c793 a13f
000001a0: 0df5 e4c3 8c74 c43f 2cd3 000f 1746 d8bf
000001b0: 021a 948f 4b7f db3f a603 f3b9 b169 ddbf
000001c0: 72df 31e4 3c69 bd3f 9e97 e05a b214 cabf
000001d0: dc21 a94c fb18 d53f 417f 5b1b bf5d aabf
000001e0: 0d0c 2419 433e cc3f 4b5b 4dee 03a7 cebf
000001f0: 869e c396 184d d2bf 5432 79ea 2583 9f3f
00000200: a39d 89aa a34a c13f c7cc 01c7 f244 88bf
00000210: 2676 e172 4ea4 b53f 6d99 d60c ad01 cebf
00000220: db52 2554 142a db3f ab73 8aff a355 d63f
00000230: 85fe b17b b6f4 c33f 1cf3 dca0 c036 bf3f
00000240: c7ab 45a8 df8b abbf 0248 d00e f4ac d53f
00000250: 7d2e 3643 a01e d0bf 355c 3c7b b46c d73f
00000260: 8206 cdbd 4f6f d8bf ee90 d3e4 fd47 d63f
00000270: 2c50 ddfe 4994 cabf a4b9 29ae 6fff d53f
00000280: 3592 a079 2299 d1bf bb89 47fc bf3a c83f
00000290: 0f9b a3a0 a526 d9bf f11e 999d ad52 de3f
000002a0: 18f1 e386 adb4 d73f d006 5a46 0722 d8bf
000002b0: 7d78 952e 3afb c83f 0131 cb05 3342 ccbf
000002c0: 0a5c 20f3 1b07 d0bf 0438 4886 cd6a cbbf
000002d0: b65a 4a71 aa35 b4bf 6f73 d39c 4136 d3bf
000002e0: 0ad1 a237 9a38 d03f a358 28a8 d0a4 dc3f
000002f0: c0ea 5194 2905 d63f 0d68 b4d0 8e3d c43f
00000300: 32bf 5a8d 69e0 cb3f 5fd3 a729 2707 da3f
00000310: 705c d1c8 0a2d c63f 0bf0 d7d5 7bf0 cd3f
00000320: 9770 ae99 9c89 b93f 5110 ed1b c423 d3bf
00000330: 3807 aab4 4c72 a73f d037 92d5 a63b dc3f
00000340: 6684 a614 0048 b2bf 8f3b f4be d5c7 b3bf
00000350: d5b5 3f10 89a8 ddbf 211d d38c 4d49 c9bf
00000360: bcc6 a784 2322 d53f de37 f894 786f dd3f
00000370: d01c e866 789e bdbf 523f e005 4d16 b93f
00000380: a472 ac44 9a68 d1bf 3619 e44d d2b5 88bf
00000390: c9b6 35dc aa71 d83f 485f de1f d1e3 d9bf
000003a0: 3b6f 38b8 e613 d33f 3bd7 5163 9989 cf3f
000003b0: d1c7 5512 80ee b9bf e505 26d4 4e58 80bf
000003c0: f9c0 bbfd 863e b23f 6cbb 8aaa 5b5e d23f
000003d0: 2ad3 72fa 4fc5 c7bf 0924 3a2d 7266 d3bf
000003e0: c75a 2e97 7605 dabf 12dd f18b ab51 b03f
000003f0: f800 18b8 cec2 a5bf 2a6c 3228 fb6d ab3f
00000400: 6499 feb9 63d8 d33f d02c 28bf f801 d53f
00000410: f83f 0312 4787 c2bf 77e7 837e 7c64 b43f
00000420: e476 cbbb c35e b7bf f5d6 a23d b59a ddbf
00000430: abb6 3214 c6d3 c9bf 131a 545c 91d5 923f
00000440: 80b3 4b41 ab7d d93f 13a1 8056 e389 de3f
00000450: 4d50 1cc7 18c3 b7bf bbae d9a1 b5c1 a93f
00000460: f391 158b 5a8c d83f ec02 b030 e129 ddbf
00000470: 9d69 b0b7 eb33 d4bf 0f15 2162 eab3 d03f
00000480: 3470 c43d 6e46 913f 7ff8 1fec f623 d43f
00000490: 1766 1e4d 5e70 c8bf 008e 181b 5cdd c8bf
000004a0: b5ce 22ee 200d c2bf 0fc3 fb10 6c71 d5bf
000004b0: f14c b5c0 eb7b d03f 0f55 2174 6862 dd3f
000004c0: c3f5 6442 9e3f d8bf 2740 5240 46c5 ccbf
000004d0: 6a39 87a6 c577 c23f 611e e459 fc33 bb3f
000004e0: df88 9da3 0e3c b03f b7ef 351a 70bd d4bf
000004f0: 371e 2c00 bd75 ba3f 6f11 8a78 7d0e be3f
00000500: 0ac7 cb38 abde c4bf 09f0 bf22 9981 9d3f
00000510: 2912 fe13 e2fb bc3f 415b b4f4 6269 d93f
00000520: 3253 1261 f8e8 cabf 044b 2e61 84e5 da3f
00000530: a7e1 5020 f9bb cb3f 97cf a604 35a6 c33f
00000540: 47e6 b442 e977 d9bf 7406 9ab4 49fb db3f
00000550: b459 afa3 fa3f d23f 6c40 ae87 843d cabf
00000560: 3c1f 7eb3 a67c bc3f 7820 f1df 8fa9 d23f
00000570: af21 2f36 3065 ae3f e1c6 d5f5 d555 c93f
00000580: 59aa 4269 ed94 d53f 8dff 8164 a6c2 ca3f
00000590: 23e4 0ed9 f4e7 d7bf bcd1 4e2f 4791 d73f
000005a0: a11a adbd 3031 cbbf 1b6c 2eae 8c28 d93f
000005b0: 242b 6a3a c108 d23f cfce daad c71b cf3f
000005c0: 701d 03e5 7aa3 d03f 1e62 5194 24c3 b0bf
000005d0: bbc1 3aaa f299 de3f 443e be11 8736 c23f
000005e0: e71c 5310 9fb8 de3f dc38 e1bd b5d3 d1bf
000005f0: 032f cc41 d2d9 db3f 7d6e bc82 71bc c83f
00000600: 7a38 7f32 addb d43f 90b3 2a30 cfa8 d33f
00000610: 48ae fb12 87a8 c5bf fc1b ffd7 c8cf c1bf
00000620: 39f7 f911 9ae6 d13f d38f eff9 d7a9 d83f
00000630: 6bf4 3946 6681 b73f 1573 7013 4b47 c6bf
00000640: 8e3e c018 f865 d53f 636c 76aa e1b0 b33f
00000650: b443 bc3c 863f d83f 24a6 7f0c bda5 d8bf
00000660: c38e ebfd a72b dd3f 9f02 1810 aa7e c03f
00000670: 1d7d 8412 5f0e d7bf d0e7 60b2 d4ca cabf
00000680: 74a6 f9e0 0196 cd3f 5bb7 01fd e245 c63f
00000690: e948 dfff 9597 cd3f f46c 4510 67fb d43f
000006a0: 3cca 9d83 9370 cfbf e082 e2d6 c3eb d53f
000006b0: ff9f 3c6c b935 de3f 5fd2 38b1 af40 dc3f
000006c0: b473 f77c bfad c03f 7d3e afcc 9b91 c13f
000006d0: e044 4424 b120 d0bf 2933 43b2 27e8 dabf
000006e0: 38c4 93c4 15a9 ddbf 1b02 65af e286 7f3f
000006f0: 5f23 fffa 83fe d8bf 0dd5 deff 5784 b5bf
00000700: df91 f0c6 70b8 bf3f 7e51 6312 4e9d debf
00000710: 0ae6 fe4b 9b0f 5fbf bdb8 1ec1 d70d c53f
00000720: 3833 2686 3e80 b3bf c24b bfaa c330 a5bf
00000730: ddd3 3086 c6d7 ce3f 0a69 c0c1 5caf d63f
00000740: de2f e565 7dae cebf 48f1 6c52 43d1 b23f
00000750: dc5a df6a ffe8 dabf af5f a1e6 ecfd ce3f
00000760: 3836 21b0 4eba ddbf 59a4 1ccf 92c3 d0bf
00000770: deba 3853 b916 c9bf 06e5 2225 4e9d d4bf
00000780: 3d47 38b7 53b2 d93f 83f0 9d40 1ffd af3f
00000790: 5072 9006 5e3b cfbf d906 7adb dd4e d8bf
000007a0: b810 82f7 c10c dd3f 14f4 1b5c 6e0d 953f
000007b0: 7c17 e885 2b4b dabf aa16 d6f0 8034 cabf
000007c0: a464 83e8 b3da dcbf 192f a4c8 0356 d6bf
000007d0: b5ee cabc 6638 d33f 33b0 8694 a0e4 bc3f
000007e0: 4d3a 9a2d ab2e ca3f dfe0 5a1d b14f bebf
000007f0: f768 3750 dd0b b73f cbb7 a20b 5f0f d53f
-0.23699812064613884 0.11743940269652414 0.42754879147540414 -0.14266888243979237 -0.3122465390779324 -0.17433703144660592 -0.17834097465586338 0.11462196403871193
0.12874315604723116 0.14838356605684963 0.3866720119097384 -0.3691747037811484 -0.2134525032875132 -0.43517238648092427 0.17792525425949085 -0.22798195059242535
-0.4321944689708595 0.22147663844904888 0.1780137825843752 0.13046307850922995 -0.4340931057000495 0.2771334235291468 -0.03273551537130533 -0.07956049502187199
0.07606406894830502 -0.06766243751328939 0.1789062906922738 -0.03711358180948099 0.1916386519610356 -0.15925293294277026 -0.4690117241758076 0.1640636308303998
0.3795159654135627 -0.2253251934541283 -0.033787572351107055 -0.38444500393515296 -0.0312583027081423 0.42283498240842204 0.46824845670364296 -0.24703313101822927
0.3918215732858289 0.028123351111856678 -0.19349082756240357 0.010868618036808709 0.03508171581829864 -0.010588521721820577 0.17751731153908124 -0.189530208554853
0.24556192072034386 -0.37291363863833027 -0.09918629222722604 0.03433058372876282 0.1598068195834589 -0.3792779585376589 0.42964447995510124 -0.459576064673508
0.11488705226099485 -0.20375661313408683 0.32964975820916975 -0.051496479119804046 0.22065008857325133 -0.2394719041428409 -0.28595556948719325 0.030773727832910616
0.13509031130818724 -0.011850258539402593 0.08453836731629191 -0.23442614676350662 0.42444332330096096 0.3489770885005849 0.15590554275330618 0.12192920615502739
-0.05380152634719298 0.3386812348045397 -0.25186926425588024 0.36600982699150403 -0.38179391417734376 0.3481440291054828 -0.2076504225211705 0.3437155915079535
-0.2749715984121253 0.18929290598232548 -0.39298382460985776 0.47379627600137925 0.3704027001656569 -0.37707692976264884 0.1951668479404737 -0.22077024252792657
-0.25043390982449465 -0.21419686371558566 -0.07894387498741193 -0.3001865417007172 0.25345473702624643 0.4475595132984244 0.3440650890767465 0.1581285971704464
0.2177860202987119 0.40668658321310674 0.17324957662160356 0.23390148107125727 0.09975603820788802 -0.29905798651839627 0.045793911985141766 0.4411408506065273
-0.07141113762055937 -0.07726798927272525 -0.46341158472827476 -0.19754952789501437 0.33020866350771505 0.4599286513119959 -0.11569931518907883 0.0979965342851277
-0.2720094366684782 -0.012065546991391157 0.3819377089010741 -0.40452983963176736 0.2980896758106046 0.24638669347376116 -0.10129547546037478 -0.007980933999308834
0.07126659102118883 0.2870091596077404 -0.18570899704868654 -0.3031278077765483 -0.4065834499719298 0.06374618689175218 -0.04250188824880924 0.05357346406636794
0.3100823704102338 0.3282453409926349 -0.14475334529424777 0.07965829933882938 -0.09128974280198637 -0.4625676252284017 -0.2017753218291792 0.018392821560178584
0.398295224919643 0.47716601798539776 -0.09282069073771133 0.050306011206740796 0.38356650907942863 -0.4556811309303572 -0.31566899240865515 0.26098117430622464
0.016870234031657286 0.3146951013476453 -0.19092921033443197 -0.19425536463778315 -0.14102565410359139 -0.3350477376798588 0.25756353205834076 0.4591313489994073
-0.37888294681382834 -0.2247703374928289 0.14428015357266172 0.1062619895420709 0.0634163999034487 -0.32406237182271574 0.10335904363830016 0.11740860169272137
-0.16304531357996438 0.02881469034763032 0.11321843135926514 0.39705728432584314 -0.2102346872312864 0.4202586125403942 0.21667398527075685 0.1535097382271686
-0.3979437972480792 0.4372123969734283 0.2851549719320261 -0.2050023710730814 0.11127702600617523 0.29159924382520996 0.0593657556669912 0.19793200019517257
0.3372148063596448 0.2090652457009096 -0.3735324973782232 0.36824206943427007 -0.21243867169888112 0.3930999470700855 0.28178435043871475 0.24303527821540746
0.25997803081960225 -0.06547764416735233 0.4781462347409861 0.14228905073513165 0.4800183925076013 -0.27854674857088724 0.43516975808664443 0.19325083621594166
0.3259079926618892 0.30717830375470445 -0.1692055552187972 -0.13915358111100307 0.2796998191405354 0.3853664341715987 0.09181822981368419 -0.1740506977957003
0.33434870163998986 0.07691774760898933 0.3788772194976062 -0.3851158735329554 0.4557895641030251 0.1288654879172286 -0.36025215919831216 -0.20931490621461402
0.231140360690279 0.17400777200549097 0.23118853563079902 0.3278443964861275 -0.2456230538042109 0.34251495346874883 0.47202907152177426 0.44144813830215485
0.13030236818204133 0.13725612158167513 -0.251995358864475 -0.42041962059447485 -0.4634451312732071 0.007696996201332708 -0.3905343962801932 -0.08405065533482432
0.12390808922697925 -0.47835113330554424 -0.0018958107539063262 0.1644849484413892 -0.07617560172202509 -0.04138766726796163 0.24095994522363542 0.35445326729826887
-0.23970000720362256 0.07350559961645786 -0.42047105252042427 0.24212418805359223 -0.46449629974526685 -0.2619368574692707 -0.19600597919039492 -0.3221011507663011
0.40150921719133575 0.062478043210803434 -0.2439992458393072 -0.379813637097056 0.45390366717061736 0.020559048053645126 -0.4108380134278986 -0.20472728499969622
-0.4508485575330019 -0.34899992555505005 0.30031746327197634 0.1128635752308476 0.20454921461755973 -0.11840350119280484 0.09002478798302947 0.3290631879452774
