model/400_80/Theta3.npy (npy, 6608 bytes, 1 tensors)

array f8 [10, 81]
000000 87 f8 50 6a 9e d5 95 3f b5 f4 15 34 91 22 92 3f
       0.02132270358946944 0.017709988407194916
000010 f6 b2 02 d9 75 48 d5 3f 12 0c dd 70 3f 14 d1 bf
       0.3325476283305727 -0.2668608286077766
000020 b1 1a 73 bb ed c6 d7 3f 4f 71 6c b1 f2 2b a0 3f
       0.3715166407168154 0.031585296781687526
000030 87 b2 86 bc 0e 3e b8 bf 6f 49 ee 15 08 6f d9 3f
       -0.09469692328156941 0.3974018301170394
000040 6d 14 22 f2 0f 31 dd bf 50 30 0e 66 0e 72 d7 3f
       -0.4561195244389811 0.3663364407191283
000050 f2 a3 ef a3 81 65 da bf f6 3b 2e 2a 3c 0e d4 3f
       -0.4124454594553405 0.31336883658599335
000060 a2 23 46 ef 9e 16 d5 3f 82 d1 0a dd ec f1 d7 3f
       0.32950566641425827 0.37414094530256403
000070 17 be 65 84 05 c3 d1 3f ed cc 22 22 69 7f cd bf
       0.27752817086636256 -0.23045076529306333
000080 dc 6f bf 59 a0 80 dd 3f aa df ab 1e a8 3d c7 3f
       0.46097573055680896 0.18156911370874457
000090 07 72 91 bb 52 19 ca 3f 2c a2 68 cd 49 b9 ce bf
       0.20389780195809257 -0.2400295498821533
0000a0 f3 e5 c8 ea f1 bd 9a bf 1a 68 02 d5 7d c6 be bf
       -0.026115207629322467 -0.12021624041008785
0000b0 10 bf b7 c2 60 a1 de 3f 2e b1 60 07 57 d5 ba 3f
       0.4785997296848885 0.10481780939216342
0000c0 e9 f0 f4 43 a5 31 c2 3f f9 fb 29 92 d4 1b c0 3f
       0.1421400625057523 0.12584931504167665
0000d0 5b 0c e6 a4 05 ad dd bf 48 df 53 73 9f 22 cb bf
       -0.46368542769795845 -0.21199410563689924
0000e0 36 88 d7 58 cc 1e b1 3f 94 5c 86 80 d2 14 a0 3f
       0.0668761937045311 0.03140886134058821
0000f0 7b 2e 07 ee 18 d5 dc 3f 30 ff ab c4 88 1a ca 3f
       0.4505064320080476 0.20393476107710162
000100 5f 64 3b 0d 17 16 de 3f 8b 15 8f 53 5a 16 d5 bf
       0.4700982693880799 -0.32948930892992995
000110 2d c6 5a b8 b1 e6 b8 bf 40 8c 6e ea cb 71 d5 3f
       -0.09727011442989726 0.3350705899594608
000120 a4 7f cc b1 dc b8 a0 3f 1f 99 68 f8 ce b3 d1 3f
       0.03266038580318245 0.2765996385445692
000130 28 83 10 d6 64 cc d0 bf 2c 0c 4d 7b cb e1 d5 bf
       -0.2624752130960126 -0.34190642396078164
000140 c6 7d 19 17 85 c8 d2 3f 0c 36 5e 09 66 b3 d8 3f
       0.29348876243417654 0.3859496203884596
000150 a6 75 6f a5 0b 0f 57 3f 93 ae bb eb 87 a9 cd 3f
       0.001407395718835283 0.23173617372900832
000160 a4 ad 7d 59 17 c4 a6 bf fc 71 ab a8 e0 91 c4 bf
       -0.044464807199655426 -0.16070183025193774
000170 6f 69 54 44 99 93 ce bf f7 5b a8 d1 30 c4 d1 3f
       -0.23887935482418807 0.2775995299757023
000180 cb be a6 1c d1 41 d6 bf 85 e4 86 93 08 f3 aa 3f
       -0.34776714132293013 0.05263544846406724
000190 56 20 1a c7 ff 7f dd 3f bd c3 20 e2 bd d2 b9 3f
       0.4609374470096602 0.10087191363051225
0001a0 6d e3 d7 f0 b2 88 dd 3f 84 61 78 d5 07 e7 9b bf
       0.46146844405989534 -0.02724849930209096
0001b0 cb 36 d8 da b9 13 d7 3f ff a0 fd 8c 62 38 d3 3f
       0.36057897922078713 0.30031646507860893
0001c0 94 00 83 8a 02 05 a1 3f 33 60 03 1b bc 76 da bf
       0.03324134770218837 -0.4134969962883616
0001d0 78 8c 12 47 7d 45 cf 3f 48 68 0c 43 ea bf 9a bf
       0.24430814714751015 -0.02612272295218812
0001e0 54 ee e5 13 8f b1 dd 3f c5 48 50 4e 8a 89 b6 bf
       0.46396233504467443 -0.08803619777634981
0001f0 47 b5 c0 36 53 0f d5 bf a1 5a d2 00 cf fd cf bf
       -0.3290603670783025 -0.24993312397119374
000200 d8 fd 96 a2 2f cd 81 3f 08 29 dc 08 62 81 d0 bf
       0.008692142629000907 -0.257896908428521
000210 c9 08 7e 5d 1d 8d a9 bf 3c e5 82 7b f5 cc dc 3f
       -0.049904744780194195 0.4500096994557514
000220 fd 16 76 f4 66 32 a7 bf 05 e7 4a 0d e0 28 d0 bf
       -0.045306413022485593 -0.25249482439140564
000230 0f f1 21 9d b0 c3 c4 bf 8e f5 58 f1 1c d5 c5 bf
       -0.16222198173989752 -0.1705661943869185
000240 33 56 17 f1 9a 6d d5 bf 81 11 11 23 cd 7d b8 3f
       -0.3348147730260706 0.09566957574958758
000250 59 11 39 e8 78 16 aa bf 7d 2a 0a 52 8e 04 d8 bf
       -0.0509526999926801 -0.3752780724686671
000260 32 4b d9 a9 5c c9 d7 3f 0d c7 ef ce 51 c8 c5 3f
       0.37166515909955244 0.1701757679398316
000270 ee c8 95 a1 00 09 d8 3f 51 24 ff b9 f6 6a d2 bf
       0.37554946689409874 -0.28777855075583597
000280 23 c1 60 ec 2a 37 b7 3f 42 cb ea 25 22 68 cd 3f
       0.09068554182954762 0.2297403988974001
000290 21 2d 25 fe 45 18 cb bf 13 28 62 49 6e 00 d8 bf
       -0.21167826566156925 -0.37502629438734053
0002a0 37 2a 8c d3 f9 45 d1 bf 2b 07 6f 80 2d 62 b4 3f
       -0.2698959890264265 0.07962307344044166
0002b0 ea c2 73 a2 f5 8f db bf 96 06 3f f7 1f c9 cc bf
       -0.43066159119102443 -0.22488784382408217
0002c0 17 90 97 7c a2 80 a7 3f cd ea 8f 48 ad bf a8 3f
       0.04590327998064952 0.048337378604590954
0002d0 5b bf 21 3c 86 90 dc 3f f4 f1 c6 a0 26 f9 75 bf
       0.4463210665917267 -0.005364561930431656
0002e0 b8 0e 9c bf 1c 42 b9 3f 9f d5 2a 4f f0 da d4 bf
       0.09866504362076511 -0.3258629582517986
0002f0 ed 30 0e d9 61 67 d3 3f 27 61 24 4b 7a 99 d9 3f
       0.3031849498445485 0.39999253595444134
000300 20 e0 37 46 f5 ff cc bf 64 e3 91 c8 b4 12 69 3f
       -0.22656122139574197 0.003060677616812434
000310 43 88 91 1e e3 e6 d9 3f 4d 15 42 06 2e 4b d8 bf
       0.4047172354240766 -0.3795886098017334
000320 06 5d 99 4e 26 c2 d9 3f 33 f2 84 12 bc a9 d2 3f
       0.4024749534195994 0.2916097813465825
000330 b1 4c 2b 8a 04 45 ce 3f be 60 e9 00 49 f6 c4 3f
       0.23648125406780232 0.16376602692139913
000340 64 ae a2 74 45 8b cf 3f 24 19 19 b5 67 5f c1 3f
       0.24643772311297873 0.1357240328090451
000350 0b 57 42 0f fc 3f ce 3f d7 11 01 75 07 08 d1 bf
       0.23632765526843288 -0.26611505914868644
000360 7c 0b 90 1e c7 d2 b7 3f 8c dd 9c 86 9f 7f 9f 3f
       0.09305996414336265 0.030760281172857826
000370 9c ce fe fc 62 63 c5 3f 60 d0 28 ef a7 72 cb 3f
       0.16709554055488673 0.21443652322489282
000380 56 4b d5 f6 43 e5 b2 3f 2a d8 3a 20 8b 08 c5 bf
       0.07381081367684081 -0.16432322572444608
000390 33 eb 2a 5d f2 31 d3 bf dc 7f 43 8a 8f c0 db 3f
       -0.2999235067215295 0.4336279726248884
0003a0 0f 37 6e 18 5a 01 d4 bf 1d 35 84 d0 9a b1 d4 3f
       -0.31258251558107103 0.32334013331349515
0003b0 31 0b 0c 52 51 e6 dc 3f be 2f 3a fd 2a f9 cd bf
       0.45155747425467313 -0.23416650166143244
0003c0 ea af 27 25 6d 44 cd 3f b1 f0 87 fd 8f 3d dd bf
       0.2286507064267192 -0.45688247450722047
0003d0 3d fd a8 50 2c 34 b3 bf fd 76 fa 66 02 1a c8 3f
       -0.0750148484157664 0.18829374340287322
0003e0 5b 1a da f1 94 d7 c5 bf b7 3c 18 72 db 71 c2 3f
       -0.1706415348928257 0.14409964629201052
0003f0 e1 1f 03 f9 05 f1 d5 bf fa 04 90 25 fa 87 db 3f
       -0.34283589665983355 0.4301743857214003
000400 e4 43 2f 99 6c 5d c8 bf 18 23 e7 89 c0 56 dd 3f
       -0.19035108070104834 0.45841992823675204
000410 aa ef cd bc 41 96 b4 bf c7 36 cf 58 77 d8 db 3f
       -0.08041773662074428 0.4350870482711397
000420 68 e6 ab d0 39 7f d4 bf e8 d1 d7 1e a7 71 d2 bf
       -0.32026524904322295 -0.2881868172837856
000430 61 1d 8d e5 56 59 d6 bf e1 cb 6a 05 68 e2 c2 3f
       -0.34920284669029483 0.14753437294493124
000440 de 12 10 9a 0e 91 d5 3f c9 3d 75 51 95 dc c9 3f
       0.3369785789985097 0.2020441673034681
000450 d0 e0 8a b4 bb 13 d7 bf 39 aa 74 bb 87 0b d1 3f
       -0.3605794203863413 0.2663287478086747
000460 4d 91 95 d5 1d b5 d3 bf 3d 55 42 5a a9 91 d8 bf
       -0.30792947633587603 -0.3838904744564678
000470 cf 93 76 f2 57 1a 9e bf a7 f2 ab 72 3c a1 c9 bf
       -0.02939736764314543 -0.20023303603365614
000480 3a d5 d3 f1 fe 6e d6 3f b0 6a 5b d9 f6 26 dd bf
       0.35052465072597594 -0.45550318933752987
000490 27 63 88 a7 88 93 ae 3f bb 31 3e 6c 4e 78 d6 3f
       0.05971934361531899 0.3510929162082694
0004a0 97 bd e6 7e 25 39 d8 3f 59 13 93 36 df a0 d2 3f
       0.3784879435797505 0.2910688431696165
0004b0 78 62 6f 22 fa e5 dc 3f d5 c6 66 c7 4d fe ce 3f
       0.4515366874962079 0.2421357368125913
0004c0 83 c2 57 b8 3b 48 cb 3f b1 7a 55 5a 18 55 d5 bf
       0.21314188481439453 -0.3333187944571519
0004d0 b9 f0 d3 c3 8d 63 db bf 30 be 8d de ba 14 c1 bf
       -0.4279512798673398 -0.1334451281249911
0004e0 b3 82 8b 86 06 83 dc 3f de 4f 5b e2 aa 50 ba 3f
       0.445497161284986 0.10279338861738505
0004f0 03 81 2d 13 fc 7b 87 3f f0 6c 29 78 47 7b b5 bf
       0.011466950736292341 -0.0839123409618201
000500 6f 65 d0 64 9a 52 db bf 6e 9c 1b c8 95 44 d2 3f
       -0.42691669316408015 0.2854361013582495
000510 61 0e 49 59 6a 07 df bf 67 57 51 98 6f f1 c2 bf
       -0.4848276016166207 -0.14799303948773998
000520 66 73 92 c7 14 c2 ce bf 32 7f 19 44 3c d9 db 3f
       -0.2402978872750296 0.4351339974436882
000530 54 6e 67 71 ce 21 d1 bf 7e 73 55 3b e4 9b bb 3f
       -0.2676883799992755 0.10784746597842162
000540 02 6e 92 02 53 a1 c8 bf 1a 9e 8c 3f 31 07 c3 bf
       -0.1924232256468344 -0.14865699389450598
000550 b0 55 d7 07 2a c3 d8 bf 06 19 f4 0f 5d 0d c8 bf
       -0.3869118763517134 -0.18790782240848375
000560 59 a7 e2 80 eb d3 cf bf a3 0a 46 aa 47 8c 85 bf
       -0.2486547831843449 -0.010521469005430112
000570 e9 83 24 10 ff 34 c3 bf 95 a1 e6 96 5b 59 cd 3f
       -0.15005481994833694 0.2292894827671829
000580 55 7e 7b ad ee 5e b5 3f 5e 07 6f eb 93 04 de bf
       0.08347980246934956 -0.4690294074208533
000590 db e7 5e 74 24 3f 7c 3f 72 09 fe e2 8b 7f a8 bf
       0.0068961547858012685 -0.04784810205366598
0005a0 09 5b e5 0a bb 6e c9 bf 28 96 22 2d f1 d3 cc 3f
       -0.1986917308047043 0.22521795944082723
0005b0 69 7f b4 79 55 fa ba bf 77 88 c3 33 bd 6a b3 bf
       -0.10538229199710049 -0.07584745897068666
0005c0 cd 79 33 e0 b7 68 c4 bf 29 f1 60 5e ff a3 b0 bf
       -0.15944574782675006 -0.06500240377585399
0005d0 84 e3 f4 27 8c 0f db 3f 7b 06 d5 e9 9e 75 da bf
       0.42282394315730465 -0.4134290011898895
0005e0 b5 b1 a4 b4 85 c8 98 3f 1d b3 e9 08 0b 76 86 3f
       0.024202431822389864 0.01096733685445766
0005f0 7b b6 8a 09 9e 0c ce bf 17 cf 93 cd b1 3f d8 bf
       -0.23476005044851775 -0.3788876063911046
000600 c0 b1 46 96 00 c3 d7 3f 0d dc a8 d0 90 b6 bd 3f
       0.3712769954243207 0.11606698126057342
000610 01 c3 3c 29 01 c6 c2 bf 6a 51 62 42 1a 2f d1 bf
       -0.14666761888067728 -0.26849991305177545
000620 34 7e 3f fd 73 b4 d9 3f de 86 2d 30 ba f8 ca 3f
       0.4016389821171942 0.21071555473741105
000630 a4 ea ce 1b df 98 cf 3f 20 50 20 9e 59 33 ca 3f
       0.24685276849580362 0.2046920797444054
000640 b7 d4 50 d4 e8 f1 ac bf 8d 60 70 86 72 92 dc bf
       -0.05653312293763107 -0.44643843773656827
000650 52 c0 86 25 2e ae bf 3f d1 5e dd c2 2c 4a da bf
       0.12375152984782403 -0.4107772734619007
000660 96 32 8f ad 23 5e cc 3f 8e 23 1a 86 04 b3 b2 bf
       0.2216229054887619 -0.07304409288384603
000670 a2 e8 d9 ea 7e 2a bd 3f 4b b1 8f b8 9b 10 95 bf
       0.11392968400642414 -0.020571168079116558
000680 d8 07 43 a4 f5 a5 af 3f 9f 15 a7 21 8f 58 d5 3f
       0.06181304578923602 0.3335302189483062
000690 83 55 e8 42 84 f9 9e 3f 93 6b d0 35 d5 f4 c6 bf
       0.030248705466950476 -0.1793467057003367
0006a0 94 f7 03 21 9b 31 77 bf 22 4f 12 28 1e 3b cc bf
       -0.005662542316938874 -0.2205541320478171
0006b0 d6 01 6d e2 02 63 d3 3f 34 eb 1d 2f 8a 07 d6 3f
       0.30291816818137585 0.34421019173867085
0006c0 84 ce ca 26 07 30 b4 bf f3 53 1c a2 5f 70 d2 bf
       -0.07885784813952951 -0.28810873824232813
0006d0 48 e9 58 ae 8f e6 da bf 16 61 f9 16 2e 9c c0 3f
       -0.42032234216789677 0.12976623651298586
0006e0 d9 45 75 25 d6 bf ac 3f a2 ff 2b 2b 66 01 c6 3f
       0.05615109641315614 0.17191769702912746
0006f0 7b b8 f6 5c 1b 73 db bf 30 3d 35 09 f7 d0 82 3f
       -0.428900566849627 0.00918763157701949
000700 af b7 19 88 d0 75 da 3f 1f 88 bc 02 91 1a d4 3f
       0.41344083109913304 0.3141214873049893
000710 cd 69 83 79 10 77 d8 3f 46 6f 3f 57 41 e1 ce bf
       0.3822671114591259 -0.24124924430986477
000720 9d d1 e1 85 cc 15 ca 3f b9 40 1b c9 1f a7 d4 3f
       0.20379025017940658 0.32270044936468484
000730 83 8c f0 38 5e 3e cf 3f 4a d9 20 05 26 93 ce bf
       0.24409082203155572 -0.23886561632543596
000740 1e 0e 07 38 a7 5b a3 bf b5 55 29 9e 8d 71 d3 bf
       -0.037808633412648826 -0.3038057369752452
000750 1d b8 e5 04 39 ac d0 3f 84 4d 99 05 2a 44 d1 3f
       0.26051164129501264 0.26978540941964746
000760 c6 f7 c4 f1 b6 3b c5 3f a3 5b 9e b8 2c 77 c0 3f
       0.16588484578272594 0.12863692297534354
000770 18 20 28 3e 57 e1 c5 bf 0a 96 79 1b f0 e5 d3 3f
       -0.17093935523030335 0.3109092968282715
000780 cb 90 c7 92 41 ac d5 3f 99 4b 90 09 5a 41 de bf
       0.3386386807817529 -0.47273875173521557
000790 d0 af 1d 68 d8 a4 b0 3f 74 e9 be 50 97 9e b6 bf
       0.06501534025090838 -0.08835740777332096
0007a0 85 fe 43 7f 52 ca c2 3f 70 16 ef e3 ae 1e da 3f
       0.1467993852056574 0.4081227518002839
0007b0 cd 37 0d aa d5 f6 d0 3f 81 dd e2 ba cf 81 cd 3f
       0.265065589967773 0.23052403092672694
0007c0 09 ee 26 ca a0 c9 c6 bf 1a 02 95 d1 d7 b3 d0 3f
       -0.1780282008238461 0.26097674815176364
0007d0 2d b6 93 25 5b 8b ce 3f a0 64 b7 de be 31 c1 bf
       0.23862780890287763 -0.13433061480353548
0007e0 1b bb 37 af 16 34 cc bf 5b 85 d1 06 be 45 db bf
       -0.22033961825896928 -0.4261317316614474
0007f0 14 ca 1c f0 e2 80 dc 3f e8 87 c7 5f 05 21 c5 3f
       0.44536660622102997 0.1650702207253396
