model/500_200/ini_Theta3.npy (npy, 16208 bytes, 1 tensors)

array f8 [10, 201]
0	0x3fa0bb40cb542ff0	0.032678627796570825
1	0x3fd61148bc5bdb92	0.3448049392167657
2	0x3fa48cb8b9b8a130	0.04013612048248871
3	0xbfd57a24debddfa0	-0.3355800795757151
4	0x3fa414ab13d22380	0.039220186395204415
5	0x3fd937235ba9bc1c	0.39399036361186446
6	0xbfb269dfa0a98d10	-0.07192800209445616
7	0x3fc549c63da0a8a4	0.16631391534003115
8	0x3fbe8152438ed280	0.1191607870994833
9	0x3fd794ddb1c0cb10	0.3684610591764548
10	0x3fbbfb414ece2e68	0.10930259870490888
11	0x3fdc66e83a1fccd2	0.4437809531802489
12	0x3fc82b4aa3944f00	0.18882115351936335
13	0xbfd35210bf6996e4	-0.30188387577650944
14	0xbfc8e590df31ac74	-0.19450579546114322
15	0x3fd39a4e570fa86c	0.306293091793697
16	0x3fcecb4498fbf9d8	0.2405782458299217
17	0x3fb75e9148b1d020	0.09128673577089375
18	0x3fc4b731e5556d6c	0.16184066484388937
19	0x3fcbc550e0e48b50	0.21695910435763688
20	0xbfd18334f29716f2	-0.2736332291645872
21	0x3fdb7345ef4979e4	0.42891071670410796
22	0x3fae3055915304f0	0.05896251105287742
23	0x3fb1d58b8a7a33c8	0.06966468935770742
24	0xbfcc785e8fda5c40	-0.22242338203497702
25	0x3fd988a830748a9c	0.39896588069874794
26	0xbfcea956485bf19c	-0.23954275639688383
27	0x3fdcb7c33d5d26aa	0.44871598236623333
28	0x3fba9972b36577c8	0.10390393142503662
29	0xbfd18dcbcee981fc	-0.27427954870475424
30	0xbfd74451c605841e	-0.3635448869518444
31	0xbfda0d7fd7adc82c	-0.4070739370573644
32	0xbfd27767b65a9ea6	-0.28853791053777866
33	0xbfd7fedd9fb9a608	-0.37493076894915633
34	0xbfc9891c79ee9e2c	-0.19949680284229154
35	0x3f605bf45dd5a200	0.0019969723495487646
36	0xbfca2c2572927924	-0.20447223753303334
37	0xbfd4bcbf6a71a1f4	-0.3240202464571944
38	0xbfd718e37d211d82	-0.3608940813032505
39	0x3fc98c73cc74ffb4	0.1995987652135206
40	0xbfdec27f146924d6	-0.48062111848100864
41	0xbfdc8a6c5c6e8a78	-0.44594868685286526
42	0xbfd6fdb20374d090	-0.3592343362572672
43	0x3fc11721a0a0ca18	0.1335184130017104
44	0x3fc6c5ed732a8eb4	0.1779152691207081
45	0xbfc20c4fafe6f9c8	-0.14100071038224216
46	0x3fdb19a95d99b2a4	0.423441258818267
47	0xbfde0bddcf839108	-0.46947427048714063
48	0xbfdaa0fb2ff53986	-0.41607551272763776
49	0x3fcc6e9678adc790	0.22212487118264024
50	0x3fd67beba5c5d1a2	0.35131350697272457
51	0x3fd13f6f965ece70	0.2694968193493201
52	0x3fd421ba19395152	0.3145585295035477
53	0xbfdca13595adc91a	-0.44733943574023416
54	0xbfc13edd2bb8e860	-0.13473095545652125
55	0xbfdbf11ed7e60452	-0.4365918262847731
56	0x3fdbae2e3f0388b6	0.4325061431283176
57	0x3fc45f6f519242dc	0.15916244013762693
58	0xbfc2a3f3f98b4d68	-0.1456284492947859
59	0x3fc6653638e97d08	0.17496373919400576
60	0xbfd295dc26aaadbe	-0.2903967263798356
61	0xbfda2c213e697482	-0.40894347281375343
62	0x3fcb54f199d8c2b4	0.21352977764174386
63	0xbfac6c1073333230	-0.05551196485757648
64	0x3faa5f5f2105e4e0	0.0515088775454815
65	0x3fd2d132a02edca6	0.29401841776729964
66	0x3fc9b25171c56928	0.20075433783751717
67	0xbfdf42d624b327ae	-0.4884543760678025
68	0x3fddda942735ed52	0.46646598652997284
69	0xbfa91e43e5a9c540	-0.04905903032784886
70	0xbfd94ffe933756d2	-0.3955074727685829
71	0xbf91b5a3f65f0e60	-0.017294465935050574
72	0x3fd9384479798476	0.39405929434548825
73	0xbfd1b4705eb6be50	-0.27663811921499804
74	0xbfbbd637e19149e0	-0.10873746163387166
75	0xbfd0df52a88f2292	-0.2636305471501511
76	0x3fd42fa0cc820dbc	0.3154069897793439
77	0xbfa4b4317f070920	-0.04043726611736731
78	0x3fa7c2878a5c7a70	0.0464060169599535
79	0xbfceebce25b3ff8c	-0.24157120552990496
80	0x3fd72252a68cf64a	0.3614699007483507
81	0xbfd65ee42555bb8e	-0.34954169889436393
82	0xbfd0bc03ef14b13e	-0.261475547292111
83	0xbfae1250a59603f0	-0.058733482564100714
84	0x3fd3834336e63d12	0.3048866306425718
85	0xbfb7f0356f1adc00	-0.093509044289803
86	0x3fddaf4aa1eee4ae	0.4638239461306267
87	0xbfc1034891e6e950	-0.13291270374413466
88	0x3fdf45c088949748	0.48863232934887835
89	0xbfd74ee3380b0e1a	-0.3641899153992384
90	0xbfc7bf6715c4f438	-0.18552864611584297
91	0x3fa1b6ee3e5f7e60	0.03459877501859121
92	0x3fd41d17349bc792	0.314275552154066
93	0xbf4be66e144b2000	-0.0008514440056268668
94	0xbfb810653e06cda8	-0.09400017513580983
95	0xbfd52547441f5168	-0.3304002919442355
96	0xbfc7bb200dc2f0d0	-0.18539810821483238
97	0x3fca6e29c2f52b54	0.2064869119588716
98	0xbfd0094aa7ca9198	-0.2505671156489142
99	0x3fb40461c947b1d0	0.07819186367095843
100	0xbfc3cafd8b6dfa8c	-0.15463227565847537
101	0x3fd708a13067da56	0.3599017117225335
102	0xbf97d0c739d17be0	-0.02325736322779537
103	0x3fd9ae291e018772	0.4012549202944832
104	0x3fd4bfe649f65d5e	0.3242126199997609
105	0x3fd25494d4dc921e	0.28641243731752464
106	0x3fcdfd67690c2294	0.23429577473895746
107	0x3fd865251c08dbf4	0.3811733983779384
108	0xbfc20171e1e9f62c	-0.14066909342720757
109	0xbfde9e967d631e60	-0.4784294342502786
110	0xbfdbc0116dab1abe	-0.43359790525247977
111	0x3fd209d935e9786a	0.28185110344737174
112	0x3fb26ccb77a422e0	0.07197257681776703
113	0xbfb1dc50c1de8d38	-0.06976799710405579
114	0xbf881f7bef554780	-0.011778801194541222
115	0xbfd030870d4fb99c	-0.2529618864054102
116	0xbfc541d8b31f46dc	-0.16607197519493055
117	0xbfaa62d72eb85c70	-0.05153534360231837
118	0x3f84b359a72b3d80	0.010107708372202096
119	0xbfb79a607bf367d0	-0.09219935442106864
120	0x3fd3beb47e273418	0.30851471252100415
121	0xbfd1b22ec11c2006	-0.27650040491471406
122	0x3fd46e9eab311884	0.31925169675776766
123	0x3fb3ef0fc8f05e50	0.07786654144035166
124	0xbfd9333477ce1a0c	-0.39375030231204344
125	0xbfc22fa3c11b47e8	-0.14207884720832387
126	0x3fc2fb04b9b76b04	0.1482854754275068
127	0xbfbf6ab1438f2d00	-0.12272174739262098
128	0xbfc7dc94c7b6e6fc	-0.186419103161647
129	0xbfd6acc77ad96560	-0.35429560658447734
130	0x3fde24aca843a930	0.4709884303289469
131	0xbfdacb4fd57ed954	-0.41865917061968116
132	0x3fd8a66658a6f742	0.38515623719637315
133	0xbfc49a998346847c	-0.16096800718245052
134	0xbf8c74c3d82e4880	-0.01389458659631182
135	0x3fc2f2f9404c8e8c	0.14803996696092658
136	0x3fc9158e136ebc24	0.19597030590873132
137	0x3fcd9d06192857fc	0.23135448673627923
138	0xbfd15c4ecff515c8	-0.2712590246995572
139	0xbfa31a6d1440c540	-0.03731099006871341
140	0x3fd5c1872773ab86	0.3399370084068142
141	0x3fa24c564152d3b0	0.035738654588761576
142	0xbfdc4dfa184c8040	-0.4422593343060761
143	0x3fd3d0a52b0283f4	0.3096096916215736
144	0xbfc189911f89b904	-0.13701070823612593
145	0xbfc1093501134610	-0.1330934767961911
146	0xbfcda5aa8f897ecc	-0.2316182328095152
147	0xbfd7fe6316d19580	-0.3749015543783898
148	0xbfcb2c5bc11d80fc	-0.21229121140914475
149	0xbfd4eb8b1e829f1e	-0.3268764303161208
150	0x3fdd8e5ddf8a5440	0.4618143733035289
151	0x3fbef087a68eb840	0.12085769478173436
152	0xbfb8f52b1bf62508	-0.09749097283033248
153	0xbf7d626c1f677800	-0.007173940996350936
154	0xbfde7b9718eb5660	-0.4762933486320886
155	0x3fda1809bd4927a4	0.4077171658033143
156	0xbf99266ac4b706c0	-0.024560611969497215
157	0x3fb00503c4d94cf0	0.06257651859168667
158	0xbf6e0bb06de63c00	-0.0036676832089095335
159	0xbfc8aaba0319b780	-0.1927101626528689
160	0x3fccc880e1c8e5f8	0.22486887955328405
161	0x3fda12265819224a	0.4073577747663292
162	0xbfd0781c7bf2d7da	-0.25733100990634983
163	0x3fd42c3490cc2732	0.3151980794942687
164	0x3fd00174f7959ec4	0.25008892229241675
165	0xbfd83dd7d3332f0c	-0.3787746012210256
166	0xbfd8e9c55bad645a	-0.3892682452474837
167	0xbfd999ca453bfdee	-0.40001160393873547
168	0xbfddf689143415bc	-0.46817233059877217
169	0x3f9f00b26cf7e020	0.030276096249480244
170	0x3fceca7918bad054	0.24055398662096883
171	0x3fc9c2a86cb22614	0.20125298793236424
172	0x3fdd894a7ed79cf0	0.4615045775121436
173	0x3fdb193e484d635a	0.4234157281949159
174	0xbfb4bf6d3f66b550	-0.08104594037896118
175	0xbfa143d6a9da34e0	-0.03372069190400295
176	0xbfd53e6e99e01f1e	-0.33193554903890454
177	0x3fc0992d08eaa910	0.12967455802328987
178	0x3fcf009802408d98	0.2422056208607557
179	0xbfda51c0c2c18b96	-0.4112398054041305
180	0xbfb4b843a8b476a8	-0.08093664997837868
181	0xbf76bb4040ccfe80	-0.005549670208722213
182	0x3fb3b95f20ef9268	0.07704729608628613
183	0x3fdc3cfa3af4d8c6	0.4412217689272321
184	0x3fb36ee879fa0510	0.07591107347436243
185	0x3fb720f9a05892d0	0.09034691014000917
186	0x3fd8d466664b9294	0.3879638670899024
187	0x3fd679b59ca63226	0.35117855356000616
188	0xbfd39d7913ed7a62	-0.30648638673839035
189	0x3fd91aaa3dd5457e	0.39225250280750135
190	0x3fdf48998fb33fd6	0.4888061431238361
191	0x3fd1c46fb74739f6	0.2776145257784316
192	0x3fd776b96077b452	0.36662134571708294
193	0xbfd21857c42b65a4	-0.28273576886348395
194	0xbfd5a7fa4db3ba6c	-0.33837754810421106
195	0x3fd4adeeb1775984	0.32311599093136345
196	0xbfcac941b57f62c0	-0.20926686632335212
197	0x3fdc57521c1131f8	0.44282963505682416
198	0xbfc9fcdedb279c2c	-0.20302949620165245
199	0x3fd41048907bc54e	0.3134938631984213
200	0xbfac42081ff42850	-0.05519128217754654
201	0x3fcba32810ae86f0	0.21591664137400057
202	0x3fcb04caa0be71d8	0.21108372544121212
203	0x3fb093dd22670cd8	0.06475622262864833
204	0x3fd51e47f5cb2666	0.32997321131970236
205	0xbfd9c0c6436228e0	-0.4023910196343774
206	0xbfd69cdeeeb92ed0	-0.35332463562802463
207	0xbfd3b676ea7e7936	-0.3080117502194243
208	0x3fddce25f643421c	0.46570729302496416
209	0xbf1184a13864e000	-6.682619104914078e-05
210	0xbfdb63ffcfc995a4	-0.4279784707235541
211	0xbfbccf7a21b711d8	-0.11254084895251226
212	0xbfbd555812296d38	-0.11458349650768163
213	0x3fd1ad5c8ffbc6b2	0.2762061506356118
214	0x3fcb61c0e21e1af4	0.21392069855593088
215	0x3fcef2a7cd67e778	0.24178025750716947
216	0xbfabef3ed22c4400	-0.054559672504304046
217	0x3fd2e61d1d8de192	0.29529502760080917
218	0x3fd35d055d5332a8	0.30255254853981706
219	0xbfbbd67ce69f5360	-0.10874157553128105
220	0x3fd4360301265a08	0.3157966147640825
221	0xbfbc85cae05fd340	-0.11141651132477381
222	0xbf836dd4b7bb28c0	-0.00948682962134162
223	0x3f75f5ffdc566f80	0.005361556487880281
224	0x3fd9954a44b3988a	0.3997369452394045
225	0xbfddd54a37099ab0	-0.46614318251378517
226	0x3fd7520a2d936ac2	0.3643823094441069
227	0x3fd7e4ed75191b0e	0.37334762988432224
228	0x3fb448d950ff0878	0.07923658587881899
229	0x3fcfbe2e19518394	0.24799133526087458
230	0xbf957ce9c4502220	-0.02098431835841741
231	0x3fdb6f3e44dcb0aa	0.42866474842845526
232	0x3fc07842b536d22c	0.12867006157252214
233	0xbfdc4adb07b7b4cc	-0.44206882241890066
234	0x3fb4d48965c3d6c0	0.08136805281159365
235	0x3fdef42ce5007ab0	0.48365328181709355
236	0xbfdbb26139add3ae	-0.4327624381324381
237	0x3fd9de90fa1ce2b6	0.40420936989861944
238	0x3fdc910eed3df244	0.4463536564651671
239	0xbfb2d1ff151902a0	-0.07351679101067043
240	0xbfc51eeed85df1b8	-0.16500649990838467
241	0x3fd3eb786fcfbed0	0.3112469760808212
242	0x3fda43f1f3c0c782	0.4103970413590262
243	0xbfd1c460ed835ae4	-0.2776110000099108
244	0xbfde6e711df01ae2	-0.4754908363687901
245	0xbfbca3a3f1a392b0	-0.11187195443523978
246	0x3fd3937a36e9805e	0.3058763061762927
247	0x3fd708947ee7157e	0.35989868538702996
248	0xbfd74c17d8816280	-0.3640193571386945
249	0xbfd4e970c1295504	-0.32674807418273155
250	0x3fd5ce967225be20	0.3407341112824458
251	0xbfbab75965c2fb50	-0.10436018690505233
252	0xbfd2dc15a5846c0a	-0.2946828953151345
253	0x3fd1f6bb22a3ee58	0.28068426497313714
254	0x3fc5bb2cb3e8f21c	0.1697746160952115
255	0x3fd66ce00c9948fc	0.3503952143702376
