model/500_200/ini_Theta2.npy (npy, 801728 bytes, 1 tensors)

array f8 [200, 501]
00000000: e031 127f cd4e aa3f 4465 6ad9 d401 d5bf
00000010: 54f2 98ac 09dc c0bf c810 8917 8241 dabf
00000020: a82e 265b 1dd7 dfbf 8847 0498 165f bc3f
00000030: 904a a902 3c3d bbbf 5ec9 2cce 5da2 d0bf
00000040: f408 c522 4a7d d2bf dc31 5230 2d1c c93f
00000050: e668 4233 0004 d23f 9e0b 0e6b 4efd da3f
00000060: e67b f2e7 c69a d0bf 2865 cda6 89be c7bf
00000070: e8b4 41d0 8a88 cbbf e89e 97cf 3cfe c6bf
00000080: 1a0e 2a39 04e5 dfbf 2098 24d4 8f33 ac3f
00000090: 96c5 ac05 4a1b d53f 8456 64af 03dc c3bf
000000a0: 408c f2bc 027e d8bf 0e58 d56c 5ae4 d13f
000000b0: 2484 9ffd f4e0 c83f aac7 1dde cc24 d93f
000000c0: e808 5539 fea0 bf3f 70f4 84dc 7c46 a63f
000000d0: 52e7 868b 9fd2 df3f c8a9 fac3 40dc b53f
000000e0: 5ee0 c1c1 2eed dfbf 38d7 793f 1c94 b03f
000000f0: ccaa 6d51 64f9 df3f e663 1787 4eed ddbf
00000100: 7071 bbd8 8120 b83f 346a 6c27 2c9c c8bf
00000110: 2065 3563 0cdd ccbf 6090 4036 ff16 d63f
00000120: a0ee cac7 3415 b3bf c0d5 7123 999b a9bf
00000130: 8096 e246 bac2 d03f 60a2 4864 66c2 a2bf
00000140: 3246 be81 8705 d93f fcf1 18b2 d4c8 da3f
00000150: 40be 28ef e443 9dbf 14d7 6330 22e5 c33f
00000160: 90f0 e253 cc50 bd3f 40a0 d103 7b95 b6bf
00000170: b027 2ab3 5d4c a53f c21b b68c 9a84 db3f
00000180: a861 7ba2 e3a0 d03f 9cf6 121d 0fa6 c63f
00000190: bc2e 5ff7 1b50 d3bf 60f6 9e0e adbb ca3f
000001a0: 4ed0 fde4 580f d43f 9894 cc31 7a59 da3f
000001b0: 709d b8c5 4fcc cc3f 5a2b e5c7 43df dcbf
000001c0: 221e f0e9 8df0 dc3f b8ed ab1c 17bc d6bf
000001d0: 5434 9cba 4df2 d9bf 0679 2759 dc5e ddbf
000001e0: 98dc b7b5 85d5 debf e076 da3c 4e37 c43f
000001f0: 00c7 ca18 81c0 66bf 16ef b3dd d17e d53f
00000200: cc09 9ca1 4927 df3f 8ef6 c17b f453 d6bf
00000210: 3c03 2ab6 8775 d93f fef5 c6f7 45db d03f
00000220: 82c7 90dc 05e1 d7bf c489 1024 5e62 d53f
00000230: 54af a0a4 840f debf ac67 2fc3 a619 d0bf
00000240: 6096 3716 844c ae3f 7892 421f 1964 b8bf
00000250: dcff 3fb5 08bb c6bf c06c 4fe4 4edb 8c3f
00000260: c88a 0d45 ed81 c7bf 96ba e3f7 41ce d93f
00000270: e840 05ac 48ae dc3f a44b 0736 af43 dcbf
00000280: dc5c c55c 5c9f d5bf 860b ad06 c077 dabf
00000290: 46c1 d989 3d29 dabf 1414 729a e683 dc3f
000002a0: 909e 5b8d ce4d dd3f 6652 a965 079f df3f
000002b0: 5c47 2a0f 75dd cabf de1b 7aab ccb4 df3f
000002c0: 000f 90ae 0999 66bf 3094 cdff edb8 d3bf
000002d0: 7c72 e77d 89fd cebf 2440 7855 274e cebf
000002e0: 7093 dbbd 045e be3f 5ccc 5191 848c c33f
000002f0: 002c 024c d61a 6d3f c462 920e 5b6e c7bf
00000300: d49d a813 cba7 c63f 8afa 0c5b 6aaf de3f
00000310: a0d9 0411 ecc3 a2bf d253 34a2 15da da3f
00000320: 503e b502 a03a d2bf 9093 d2ee 20d0 c13f
00000330: 14bf e201 f40e c33f 60f8 a90f 0df2 d73f
00000340: 5cd1 6c2e 57c8 ca3f a0f2 938d 9378 973f
00000350: 1602 34d8 26cc d3bf 6c6f 7b30 4bfd cf3f
00000360: 1e60 f49b a608 d03f 223f dca3 09c8 d43f
00000370: 70d9 8bbe 69e7 c73f 9c7b c73f 7c7d dfbf
00000380: 10ec 2924 b05b d7bf 680e 9b25 65fd debf
00000390: b09a de48 5797 de3f a800 e42b 8fa7 c13f
000003a0: 0c6e 231e 2a2d db3f 86d8 bf74 c268 dc3f
000003b0: b86d e2f0 a8cc dbbf bc46 9a3f 137f c7bf
000003c0: 76cd 200e 9f3c debf e890 d297 003d b2bf
000003d0: b0c4 f02d 238b db3f 4efd 2a8b 257c da3f
000003e0: 60bc 30ea 3e4c 96bf 204e d347 0358 ce3f
000003f0: 16bb 0cfc a44c d0bf def7 e121 2de4 de3f
00000400: 929d c68c babb dcbf 9c10 029f 805d d8bf
00000410: ec60 b7ed b8c7 d03f 8891 9582 7a0f c6bf
00000420: a027 ce55 b03f 91bf bcfb 10a1 2dde cc3f
00000430: a44e f0b7 5c32 ca3f 0062 c2b5 a415 c6bf
00000440: 427c fb20 52af d7bf 0c52 bd82 a908 d23f
00000450: e835 936c a7ed d73f b46d 9f3e 6fca d7bf
00000460: d4de f01e bc22 df3f 08c8 1124 84f2 b73f
00000470: 3a7d 4646 b142 d3bf 602d 0632 7615 933f
00000480: c8a9 37c3 d099 d6bf 68ab 20a0 0c9c df3f
00000490: 540c f9ef b614 cc3f 28ba 334d dae9 b73f
000004a0: 0054 8a9b f527 72bf 58e2 26b0 2029 b5bf
000004b0: 5c66 414f 5a5c c9bf 6806 9ce5 581c dbbf
000004c0: 8418 fb8e ea24 de3f ecad 135d 5a0c c83f
000004d0: 0061 7977 5382 633f 8c45 ecb1 0f25 cb3f
000004e0: 14ee 8ac4 6a1d dbbf f02c 4ca5 3dfe a7bf
000004f0: 9002 4519 0936 b7bf 8236 ac78 6fb5 d8bf
00000500: c099 c586 2eb7 da3f a25f c0cc c9ed db3f
00000510: d85b cf5a 0134 b23f 9017 be04 f5e9 a2bf
00000520: a491 47ca a4e7 cc3f d8d0 130c 1b57 c03f
00000530: 406b e52d 1a3c dcbf 809a 713e dca5 c73f
00000540: f0ed c5c8 8893 dc3f 122b 0d95 2247 df3f
00000550: 5047 4ef9 9999 adbf 3048 df5e c86a c93f
00000560: 2a13 90cd e464 dcbf 8478 4a69 5dbe d83f
00000570: 90a0 3549 5e5b a43f c2a8 9563 fc94 ddbf
00000580: 5a77 4ba0 3993 d93f 04e2 aa29 d8b2 da3f
00000590: be01 b67e 4581 df3f 3cbf cd3d 467f c13f
000005a0: 7074 a982 7e29 ab3f 1e51 cfb0 d2c6 d7bf
000005b0: 246e 235b a90d d3bf 06ec 5f55 4bda dbbf
000005c0: ec13 a358 7407 cabf d820 c07a ce85 d73f
000005d0: 1c03 96e6 ff19 db3f 1ccf 22e4 7759 c33f
000005e0: 00c8 5de6 7aec dc3f 5063 835b c179 ccbf
000005f0: 68f9 e5ab 1167 b73f 8480 a3c4 972b c9bf
00000600: 4497 ed56 d307 d13f 0a17 d21f 86a5 d5bf
00000610: f2cf d3ad 0bf9 d6bf 2008 616c 9f61 9cbf
00000620: 06a9 a2bb 3678 d23f 1821 8ac6 8a14 cb3f
00000630: 3aff a416 64a8 d2bf 68e5 bebd f1d0 d43f
00000640: 20a9 27ea 9ddf a9bf ae23 9e49 345f d8bf
00000650: 0a13 2ff1 b301 d73f 48ef dc48 1737 b4bf
00000660: ca1e c973 42ae d3bf 9cc0 7880 4602 d83f
00000670: c016 d396 db4a 863f aa7b 35d2 c147 d5bf
00000680: f445 d9e6 8820 d73f 4c28 dbb0 cfc8 c83f
00000690: e84c 5f28 cd74 c73f 6068 7e4b fe4c d2bf
000006a0: 0e4f 58d6 9f31 d53f 4e2c 3d59 695b d3bf
000006b0: bc38 d706 0239 ce3f c8c8 1f9e 3aef cf3f
000006c0: 50be 99f7 4d7f b53f d647 5f7c f772 d13f
000006d0: 5ccb 893e c6c5 c5bf 6013 03eb e972 d2bf
000006e0: b64b e257 2ade d8bf 7c6b 7bfa 9937 cfbf
000006f0: 4052 7e2b 2de5 b1bf 28b1 8ebe 0305 d23f
00000700: da76 2c0b 121b d93f b843 2788 8f36 b63f
00000710: 14d2 e774 6b54 c73f 2886 3252 dc61 b63f
00000720: a08e 49ad d0c0 9cbf 8685 f281 56cc d1bf
00000730: 8467 895a eea2 c23f 5a57 b304 ab2a d93f
00000740: 48fb a05d 3ca2 c13f 0c32 9c68 7206 dabf
00000750: 7ee8 fb5d c56e d0bf fad0 b1a9 f556 dd3f
00000760: 1e7f 4a46 7921 df3f 44d0 aef9 0b23 cfbf
00000770: 96f5 7222 8824 d03f 3a6d 1350 2837 d1bf
00000780: c07c e85a 94f3 d5bf 020c 66ac 1372 db3f
00000790: b0e3 52df bd72 d93f 907f 2d92 1333 ad3f
000007a0: 6653 9b75 e026 debf 5a68 2ef7 0e38 d9bf
000007b0: 2060 cb64 0a9d c3bf 38a7 78bc 7697 c1bf
000007c0: 28ef de0e 165a c03f cc97 b18c cffb d7bf
000007d0: a8e6 9d41 6647 dd3f e050 6ab2 f189 afbf
000007e0: 7cc6 eefc 1f20 c13f 2ea0 03cf 4fdc ddbf
000007f0: 7822 cbea a0e6 cebf e873 02a5 3852 d7bf
0.0513824670425469 -0.32823678237908305 -0.1317150204430556 -0.410248301490594 -0.49750455762180446 0.1108259316572725 -0.10640311303112981 -0.2599100602557395
-0.2888970698878801 0.19617237910678298 0.2814941883640486 0.4217105908830322 -0.2594468369588284 -0.18550224918980374 -0.2151044384840255 -0.17963371406880602
-0.49835305769394866 0.05508088554988455 0.3297905974787566 -0.1551518064886076 -0.3826910824956862 0.279562574656098 0.1943651426691143 0.39287110987708707
0.12355030917845833 0.043506528776995235 0.49723042131119144 0.085392043920968 -0.49885147973646393 0.06475998449044773 0.49959667160025556 -0.46760905449406065
0.09424602071107357 -0.1922660057542359 -0.22549586147469203 0.34515362070147226 -0.0745423305297046 -0.05001524503397148 0.26188523218511506 -0.03663940405050847
0.39096248312225435 0.4185077418549381 -0.028579308602443954 0.1554301010398197 0.11451413200387806 -0.08821839183076552 0.04159825145786955 0.4299684881338487
0.2598198973405723 0.17694271964676467 -0.3017644801845838 0.20885241712487623 0.3134367214436268 0.41171126235196587 0.22498509554246082 -0.45112700005545536
0.45218227239135633 -0.355230119704824 -0.405414039837358 -0.4589148398062125 -0.48178236719054146 0.15793779345852155 -0.0027773400709855123 0.33586546564741704
0.48677292616062284 -0.3488742073603611 0.39779846944297836 0.2633833808611995 -0.37310930766681605 0.33412889024671366 -0.4696971519176618 -0.2515656381707412
0.05917752047734548 -0.09527737630066635 -0.17758282518479873 0.014090172140575397 -0.18365255233501032 0.40321397026029027 0.4481374435317904 -0.4416311290380526
-0.33785161075270564 -0.41355896617840704 -0.4087671133229559 0.44555058558063476 0.4578739529083373 0.4940813534533731 -0.20988333931432634 0.4954101252155264
-0.0027585209941224376 -0.3081622121883951 -0.24211233756695438 -0.23676006005598638 0.1186221087951489 0.15272576423339757 0.0035528359877097238 -0.18305528842463137
0.17699564418692992 0.4794565095107052 -0.036651017262943286 0.4195608219172843 -0.2848281885571611 0.13916408215768827 0.14889383403851097 0.374148621842215
0.20923890845154858 0.02292089988349011 -0.3093354331358865 0.2499174105386105 0.25052800397816266 0.3247093296240441 0.18674966625230693 -0.49203401783409517
-0.36497119456879634 -0.48421600983076596 0.47798711887518675 0.13792600291345036 0.4246316236801426 0.4438940181856953 -0.4343664505374494 -0.18356552701566453
-0.4724500310869283 -0.07124332148174839 0.4303672741544444 0.4138273104726594 -0.02177522949585542 0.23706093794918193 -0.25467800726157586 0.48267677601677217
-0.44895805118218235 -0.38070693519717635 0.26219008650288234 -0.17234736801323103 -0.01684451602662984 0.22553034176413955 0.20466193181402048 -0.1725355041023846
-0.3700757333844572 0.2817786957505468 0.37388024905234696 -0.3717306243467775 0.4864950468213298 0.09354425316431059 -0.3009455858500193 0.018636557391386588
-0.35313815178110675 0.4938994945284123 0.21938215939926187 0.09341205963912869 -0.004432639507872871 -0.08265880871375353 -0.19813088292976289 -0.42360517905044626
0.47100318873379643 0.18787698311585588 0.0023814802369025445 0.21206852138179177 -0.42367047494528376 -0.046861578395771875 -0.09066826693470831 -0.3860739401287462
0.4174305263644804 0.4363884448553056 0.0711060377792444 -0.036941201046871375 0.22581920506412445 0.12765825357167304 -0.44116835100219376 0.18474915551196958
0.44650477988008586 0.48871674114040886 -0.05781251114161867 0.19857124931746872 -0.44365806650630424 0.38661895067514984 0.03975958484335351 -0.4622183773523255
0.3996109071139152 0.41716579503147977 0.4922651040469893 0.1366966058517337 0.053050950479453074 -0.3715101935060988 -0.2977088346503669 -0.43519862496731354
-0.203352492599293 0.3675419043288577 0.42346189039385407 0.1511678565926723 0.45193359848701675 -0.22246567696017872 0.0914164585755991 -0.1966428480291179
0.26610263337203244 -0.3382277785061524 -0.35895053839999413 -0.02771615122788529 0.28858726810234747 0.21156439489664858 -0.2915277691972623 0.3252529480920061
-0.0505341862043045 -0.3808108061717189 0.3594789367019052 -0.07896562127001261 -0.30751096064748806 0.37513887926162126 0.010884967365551446 -0.3325047066518275
0.36136076492138547 0.19362827430296858 0.18325199576665985 -0.2859493005031535 0.3311538308346237 -0.3024543162798111 0.23611474355715767 0.24948818894296765
0.083973763417583 0.2726420130321662 -0.17009809545160237 -0.28826377821342497 -0.3885599001161454 -0.24388432245799752 -0.06990320503093361 0.281556068507387
0.3922772511594822 0.0867700297742563 0.1822637863948705 0.08743073469897722 -0.028079281403178613 -0.2780967968957032 0.14559726162661601 0.3932292505172562
0.13776354381294653 -0.40664348808130124 -0.25676092317701904 0.458432594029787 0.4864180742679184 -0.24325704280420457 0.2522297226349449 -0.26899154491339383
-0.34299191358327263 0.42883769832423024 0.39762827691043423 0.05703030738254633 -0.47112285122903186 -0.3940465368156133 -0.1532299987945871 -0.1374348087568309
0.1277492115603931 -0.3747443078958639 0.4574828758992262 -0.06159930518075085 0.13379287576895027 -0.4665717622397122 -0.24141322578931912 -0.3643933879300776
