model/500_200/ini_Theta3.npy (npy, 16208 bytes, 1 tensors)

array f8 [10, 201]
0	0xbf70c782b6ee5300	-0.004096518138699379
1	0xbf882e513a653380	-0.011807093233665134
2	0xbfc500aa9bd18420	-0.16408283813783076
3	0x3fc39a553ac39d4c	0.15314736718503708
4	0xbfd3df414d93d3f0	-0.31050140930102454
5	0xbf9134ad0b58d160	-0.01680250531917815
6	0xbf92a7cdb6b15ec0	-0.018218244815527695
7	0x3fc0cffad421d754	0.13134703977601225
8	0x3fc13ecb65308a5c	0.13472883644961342
9	0x3fa485b8f0284620	0.040082721057967285
10	0x3fc8871c8d26ea74	0.19162327663601142
11	0x3fc3f7a1273df724	0.15599455276599727
12	0x3f92f0f7f19aa920	0.01849734699377692
13	0xbfa4aade85c3fe90	-0.0403661287582483
14	0xbfdd14a6775ca23e	-0.4543853917735169
15	0xbfca5bf67d3c952c	-0.2059314834124647
16	0x3fd952268e58511c	0.3956390752876062
17	0x3fc06a39e04a7e78	0.12824176265438658
18	0x3fdce0d0efb4e70a	0.4512216893086679
19	0xbfda17938ead72c2	-0.40768898900368467
20	0xbfda53788f56baf8	-0.4113446616928935
21	0xbfd5cad273b92206	-0.340504277239717
22	0xbfd6aaeda9a8f75e	-0.3541826397739579
23	0xbfdd064d04c24674	-0.4535095736001502
24	0xbfc80e6918c6d7b8	-0.1879397746067164
25	0x3f80601a3c7e8cc0	0.007995800944462395
26	0x3fc168f357ae2bf0	0.1360153368117092
27	0xbfd29cda435d998e	-0.2908235223643708
28	0xbfa981bfa5dd7070	-0.049818028447334295
29	0xbf980d635cac0d20	-0.02348857167363605
30	0xbfcc7b6ebf3e49d0	-0.22251686418583327
31	0x3fc20b7fd787e464	0.1409759333035111
32	0x3fd9a9bd563f6068	0.4009850828420043
33	0xbfca2efd52008c54	-0.204559006729229
34	0xbfce60a6e3461e3c	-0.23732458207472173
35	0x3fc77d2f2118c734	0.18350781551412754
36	0x3fdaa90173c3be4a	0.4165652876390352
37	0x3f9589707e6e4e80	0.021032102314690437
38	0xbfde3ad26e584104	-0.4723402097306606
39	0xbfc15a58c8623198	-0.13556966575960128
40	0xbfdcf13c26f9f548	-0.4522238140705963
41	0x3fd319862a0edd2a	0.2984328661654724
42	0x3fddc3f49565854a	0.4650851687384444
43	0xbfc0eff649afa830	-0.13232306096989666
44	0x3fb9860c5bd57bb8	0.09970166437186279
45	0x3fa9cf4f7343ef80	0.0504097774700929
46	0xbfdf39935fc2148e	-0.4878891406190825
47	0xbfbf928fc83e8a00	-0.12333010329033556
48	0xbfc3c5ba976f5124	-0.1544717063358202
49	0x3fd0d7f2a609cde2	0.26318041052510754
50	0x3fb93ba4f4e9e7d8	0.09856635073984366
51	0xbf93bcb1759b1660	-0.01927449493702793
52	0x3fd7200850eda0c4	0.3613301077189244
53	0x3fb3d0c6768f4418	0.07740440744898114
54	0x3fd520e354e47708	0.330132325079703
55	0xbfc8a473232d9df0	-0.19251860826192013
56	0x3fc59f3633c3f2c4	0.16892125632866428
57	0xbfdba32abb6bb88c	-0.43183391859828
58	0x3fce21caba6dd8b8	0.23540624716742342
59	0x3fd46e3c3e90c584	0.31922823057092153
60	0xbfbf1cccb7c40840	-0.12153319822758224
61	0x3fd29fb364c67638	0.29099736062366643
62	0xbfcbacf4d98a4acc	-0.21621571180420174
63	0xbfd69b9dbf8e88e2	-0.3532480593368189
64	0xbfc96cdf5de27e80	-0.19863502582755999
65	0x3fd9e36ea42b54e4	0.40450635940699287
66	0xbfd6f6b711d39c9e	-0.35880829563979855
67	0x3fd02947035f2bea	0.252519372265566
68	0x3f7a09bf85aab900	0.006356952794403847
69	0x3fd51d12fbaff8a8	0.32989954546781997
70	0x3fd5e0b9cc6a70ae	0.34184117281416604
71	0xbfbd54f0d8f43f98	-0.11457734390955776
72	0x3fc6770e5eb24500	0.1755083048233601
73	0xbfda64f9ba354b9e	-0.41241305527108263
74	0xbfca2a2cde8bc16c	-0.2044120871210099
75	0x3fcbc20957a34270	0.2168590238493553
76	0xbfdb7bb246d395a8	-0.4294248286881506
77	0xbfb6da418fb79870	-0.08926782377929654
78	0x3fd44cfe758f553a	0.31719933968027514
79	0xbfbc7fb7f16ca9f0	-0.11132383007194568
80	0x3fbc7988ff70a9d8	0.1112294791825329
81	0xbfd65747476b7d2c	-0.34907705282781154
82	0xbfda2fe6df01c472	-0.40917369630830713
83	0x3fd5e97b4677fe76	0.3423755825205953
84	0xbfd246e4b12ef370	-0.28557698538843734
85	0x3fdd1e520f08030c	0.4549756190099721
86	0xbfc79e7b382c9a74	-0.18452396624452982
87	0xbfd41f841703225a	-0.3144235825280127
88	0xbfb0e45411e34130	-0.06598401486121896
89	0xbfc4b203fafdc174	-0.16168260341101937
90	0x3fd21eb0e8b237ba	0.28312323307261134
91	0xbf98d5631a5ebaa0	-0.02425150726747438
92	0x3fa473957a19e2d0	0.03994433513157036
93	0x3fdea51b959a6f64	0.47882737741178105
94	0x3fcc366392a76cf8	0.22040981922950897
95	0x3fc4eaa2d061aae8	0.16341052222136132
96	0xbfdfdf7840985bfc	-0.4980145102321669
97	0x3fd0c3bccbcdb9dc	0.2619468679685306
98	0xbfded0e9a32b4320	-0.4815010159918973
99	0x3fc0495b86218e70	0.12723869370812535
100	0xbfcb27c7254545c0	-0.2121514255509691
101	0xbfd73d75c025f8f2	-0.36312621845708215
102	0xbfc17bd8fd0b9e04	-0.1365920291493553
103	0xbfd24c9170e42d96	-0.28592334770720507
104	0xbfd599ceebb78f6c	-0.3375127126621382
105	0x3fcd41ac646605b4	0.2285666933276339
106	0xbfdf180ffa41cd02	-0.48584365309871214
107	0x3f91d9d71deb43a0	0.017432557297812346
108	0x3fd6ff6a0d61f8c2	0.35933924967674724
109	0xbfd887a0a018fc82	-0.38327804216891803
110	0x3fd6139b7715b898	0.3449467337549179
111	0x3fd817d8c6963ce6	0.37645549195526795
112	0xbfc69119be6825e4	-0.17630311772545249
113	0x3fae5551b70f4550	0.05924468383421788
114	0xbfcb954bad226858	-0.21549364045933106
115	0x3fcf87c718ade92c	0.24633110718770845
116	0x3fdc389612575bc2	0.4409537486184797
117	0x3fd016f29b918750	0.2514006156180715
118	0xbfdf1a5528129990	-0.4859822169622925
119	0xbfcd3d905ac489dc	-0.22844128067033764
120	0x3fda7b0b8ce13874	0.41376007802762804
121	0x3fb1a8773152ddb8	0.06897683099929608
122	0xbfbaa38701fec188	-0.10405772970876204
123	0x3fde9bc4bbb4fd5e	0.4782573540760121
124	0xbfd64f5cc609d20c	-0.3485938962906239
125	0x3fa7af6312314c10	0.04625997159077866
126	0x3f8739f469f0ad00	0.011341008646999828
127	0xbfd7d4f2f33162ce	-0.37237237691219327
128	0xbfba6fe09f689118	-0.10326961414154245
129	0xbfce6da1e8f9db88	-0.23772071719914956
130	0xbfb83962a67c71f0	-0.09462563099481947
131	0xbfd19caeab15c260	-0.2751881285430837
132	0xbfb30ff229847e08	-0.07446206582653059
133	0xbfa773bd6979b350	-0.04580490028897677
134	0xbfd05b53d46319f0	-0.25557418576172974
135	0xbfd3fd67671cad7a	-0.3123415476754513
136	0x3fd87f666abe6658	0.38277588295168163
137	0xbfd885efb9d3c598	-0.3831748308867531
138	0x3fdceea0c6292bea	0.4520646987118072
139	0x3fda1b44b901d6b6	0.4079143339834944
140	0x3fdfccdcaea793ec	0.4968787866221749
141	0xbfd6e361c631e614	-0.3576282916543232
142	0xbfc6115680811814	-0.17240411066649186
143	0xbfd1fd261f9fad82	-0.28107598388916
144	0xbfdf5d08408e279a	-0.49005323700168335
145	0xbfb4e1ee21c88430	-0.08157242131029885
146	0x3fdf84ebf2d7ec24	0.49248789515667313
147	0x3fd4328a762c7594	0.3155847696342218
148	0xbfbf687209d53b70	-0.12268746128141372
149	0x3fddffb526852122	0.46873215448114725
150	0xbfb7532d1016ec90	-0.09111291544734201
151	0xbfd341257e0a380e	-0.30085122402749753
152	0xbfd6d39c31b5e17e	-0.3566656575635746
153	0xbfb70db4ec3ebec0	-0.09005289809897032
154	0xbfd7b5d848581cf2	-0.3704739290701148
155	0xbfa5762c93bcc5f0	-0.04191722205576898
156	0xbfb9dfa5c9297e38	-0.10106884156402252
157	0xbfc2642308f77114	-0.14368093431301843
158	0xbfd74a084a357f5a	-0.363893578023626
159	0xbfcc5315b2eaf60c	-0.2212855456945565
160	0xbfd2fcf4a664021e	-0.29668918847167614
161	0x3fb5d98ae473dcb8	0.0853506858583043
162	0x3fafbae4866b8900	0.06197275296087135
163	0xbfcf89d4caefa958	-0.24639377507203153
164	0x3fc07025b38f9144	0.12842246310823147
165	0x3fa24785aa7e7d40	0.03570192056872168
166	0xbfdc06463ccbf67e	-0.43788295685940415
167	0xbfbb6b8977e3a3e0	-0.10710963417990582
168	0x3fb36dd7a4dcb428	0.07589481139139365
169	0x3fbb28640c55fec8	0.10608506489915748
170	0x3fda9eddeb438ad0	0.4159464643000037
171	0x3fdba2489a7eb0a6	0.43178000533476746
172	0x3fb320ad78f64108	0.07471737101719012
173	0xbfc6305017280b78	-0.17334939127621474
174	0xbfc70043420ba2b8	-0.17969551777720993
175	0x3fd9b7bf5a5f306a	0.4018400557076861
176	0x3fd8e1cf01f356da	0.3887822646187097
177	0xbfd1e46d9f3c6994	-0.2795671515501905
178	0x3fb13c85b42975d8	0.06732974670872893
179	0x3fc834505f5446e8	0.18909649519678529
180	0xbfb9e36bfd56be90	-0.10112643179922487
181	0x3fd631475299358c	0.34675772730118903
182	0xbfd22dd9fdb567cc	-0.2840485551474756
183	0xbf8405668b5edec0	-0.009775925758602866
184	0x3fdce1e313fff4f8	0.4512870498000008
185	0xbfd0645006dc7a5e	-0.25612259550135785
186	0xbfdf9daeb6847ed2	-0.4939991743467377
187	0xbfd448bc827ca1b2	-0.316939475468213
188	0xbfdee6117426e5b0	-0.48279224722827063
189	0x3fcb3a3227614458	0.21271349833344533
190	0xbfd5c7a204fb361a	-0.34030962454275626
191	0xbfd35453554af90c	-0.3020218213022339
192	0x3fc66678b7e0f840	0.17500218370872922
193	0xbfced823bc514244	-0.24097105689226528
194	0xbfdc09a895b09726	-0.4380895101370349
195	0x3fd72259a8ab846c	0.3614715716522088
196	0x3fc3ddcc2d0fd38c	0.15520622444423926
197	0xbfb1721ae537f570	-0.06814735504300073
198	0x3fccc125268638a8	0.22464432126111444
199	0xbf8a5f8608584e40	-0.01287750924078701
200	0x3fccb0526b86ef48	0.22413091898294568
201	0x3fd6b55d2895360a	0.3548195740048362
202	0xbfd676e14e6ad506	-0.35100586564961167
203	0x3fdfc3c76c4e85cc	0.496324401634493
204	0x3fd602f241d85cb0	0.3439298289317305
205	0xbfdca5bae77839fc	-0.4476153622098591
206	0xbfddbef4d2365c42	-0.46478004959630337
207	0x3fc6a1cb320f255c	0.17681255287451847
208	0x3fa00334f8cd9e60	0.03127446686886226
209	0xbfdd121eaab6e10a	-0.45423094436002087
210	0xbfc9ff13dfca3508	-0.2030968516086562
211	0xbfa159724299bb40	-0.033885546331353655
212	0x3fdfec6328d47444	0.4988029383401378
213	0xbfc6d86d4be384ac	-0.17847982602601087
214	0xbfd0f346c1fce8fc	-0.2648484129346256
215	0x3fc011e2508b8b60	0.1255457776342963
216	0x3fdc905fd144b364	0.4463119071613646
217	0x3fd8045a2045043a	0.37526562835052213
218	0x3f82f172df7d4400	0.009249589391091106
219	0x3fce290c09067a20	0.23562765541733288
220	0xbfd1201d106a23fe	-0.2675850544260924
221	0xbfc84efc9b625f74	-0.18991048419115553
222	0x3fd3babb8ba2cb84	0.30827225338287456
223	0x3fcb606a1ecf4938	0.21387983803158206
224	0x3fcd59c9b39c9fb8	0.22930260915859235
225	0x3fde3705755c2b14	0.47210823498669297
226	0x3fb3f203433447b8	0.07791157141426097
227	0x3fd3b41969ec75ea	0.30786738723858653
228	0x3f6402747caf9900	0.0024425768983632468
229	0x3fd32c9167541754	0.29959521380111664
230	0x3fcbdf19069f1548	0.21774590323745202
231	0x3fa705a9d3803880	0.0449650831870807
232	0x3fc6c083a8984fdc	0.17775006992508124
233	0x3fca96aa688c0498	0.20772295098143867
234	0x3fd58730bd104034	0.3363763662646335
235	0x3fd6a12a7a49a272	0.3535867876258073
236	0xbfc9af49b13d3148	-0.20066186098336858
237	0x3fca132f4246c610	0.20371046768336543
238	0xbfd69f3a532894a8	-0.35346849556874327
239	0x3f9a8035a5b70de0	0.02587970565742903
240	0x3fd306c0bf2352a6	0.297287165315803
241	0xbfd20d05587b449c	-0.28204473152897847
242	0x3fd2cb3da87c9376	0.29365483716747265
243	0xbfd4116cf6441c92	-0.3135635762159349
244	0xbfcf02886099cfd8	-0.24226479260289469
245	0xbfceeee3634fa390	-0.24166529034780782
246	0x3fddf57bf36102ba	0.4681081654307878
247	0x3fc54c64ac32d388	0.16639383705264899
248	0xbfc7e44e134e86cc	-0.18665481512748838
249	0xbf841f4bc647dec0	-0.009825317371891074
250	0x3fbbba94c0e3a150	0.10831575116356373
251	0x3f72e02827192180	0.004608303877440156
252	0x3fd6dcc046601a7a	0.35722357628438994
253	0xbfa78b9c70c6f620	-0.045987023131129456
254	0x3fdcd60c2047c4ba	0.45056441452386375
255	0x3f51f434f8981e00	0.0010958211227051207
