model/500_200/ini_Theta2.npy (npy, 801728 bytes, 1 tensors)

array f8 [200, 501]
0.2371242093439836 0.4295732854944465 0.04901236737639114 -0.20653663968460867 0.15577051862326263 -0.03726300597430299 -0.01303705281927059 0.15186649916011585
0.3228775727247034 -0.085684660575166 -0.35490158163117347 0.4094338214782812 0.11201455761281087 -0.18613962215150892 -0.3749711955412034 0.3003840839627512
0.3338585493789108 -0.3537725217907247 0.06560983938908038 0.19682397228642445 -0.28818154124722717 -0.4005968103635693 -0.15308140831189332 0.4094920880342928
-0.36825581474409075 0.03655898384749945 -0.2938374703832324 -0.0055674587978058465 -0.12190410661675088 0.22102056267963066 -0.45290817652910176 0.4957395560033113
-0.46426173039116414 -0.4787989285073776 0.4125536835696042 -0.13219560784634965 0.20927944329634762 -0.268629276583617 0.45022547268448 -0.02836509380756491
-0.16465459149600514 -0.32328685629822507 -0.3586777585678662 -0.31953614453118984 -0.2001693468340946 -0.2119129927154183 0.41098747942937786 -0.4306642376334109
0.43149773208200815 0.054132244487803405 0.46615782463975375 0.17197787454387214 0.21531172672202414 -0.12887799189926363 -0.38188471351464703 -0.36019754679795
-0.13631796640731586 -0.055993843745529404 -0.072168515896885 0.3893985561664203 0.44212068981128916 -0.49286720921835725 -0.21442629655341383 0.07752022778680667
0.12169637219849261 0.18534473274504504 -0.25051078825534334 -0.45417350707605886 0.407720777454454 0.4513020795179663 0.49914843531770003 -0.2958709353327795
-0.18047383443321952 -0.009667848236077914 -0.4148407469375922 -0.45924848980287436 -0.3822478904600518 0.1451365426502782 0.08088312915152873 0.49840079499465817
-0.11247409161102362 0.03175583705379692 -0.03950470391260197 0.07736746936238048 -0.04436290971043999 0.11775017223779094 0.4075508634881012 -0.45217101914165825
0.12312097400203548 -0.005651841797652435 -0.4801813825973351 0.49270982793704676 -0.2673297619081815 -0.22029863243506498 0.0037899780134965644 0.4197739150098322
0.29739221916941716 -0.0230037397714018 -0.15770117767867198 -0.3310994833199138 -0.15814755538918168 -0.3764654434096024 0.4341767215615956 0.29304386260118764
0.48438014269853513 -0.25733932510558066 -0.06070595972102266 0.29252059998307844 -0.16284472790767635 0.30625299672855244 -0.008570763580450613 -0.1652617289430629
-0.3899297039498366 0.17277596631811165 -0.3289164885339658 -0.11514394289681762 0.06488090441860894 -0.0011401901902042821 -0.38584367608083625 -0.45396951505448746
0.15675461799374235 -0.24713175958681277 0.49614888289912884 0.057958337365629276 0.041752529730063936 -0.1571116590452195 -0.013301640419646543 0.10547106158848751
0.14595637897155578 0.49496854249387423 -0.4865526360176762 -0.33627465732060224 0.2575842123844492 0.41186501908165807 0.37518087951176915 -0.14029577443570596
-0.053020592243317455 -0.39471151920026704 -0.16124187495223052 0.30964449263253213 0.46188839385950553 -0.3296181685128152 -0.47291016867970503 -0.4673328315681261
0.23014940399362716 -0.16595342072953512 0.3243240642657179 0.09798678589834375 0.4947927953975161 -0.4906567587540054 -0.4282668348389761 0.3878909514023422
0.1101295472727487 -0.08646527876847954 -0.23857556938507474 -0.22940285352216294 0.005962166349903875 0.006209910901653681 0.10168140119979385 -0.4213449295120224
0.4392858037366011 -0.21866255358900055 -0.01777125558333037 0.2888074191047483 -0.47495801409362426 0.48591091007075826 0.24605541143445342 -0.05101299298371964
-0.3472911988113284 -0.31385680244069003 -0.018404961056987412 -0.05625352478214363 -0.22036012822213047 -0.1584334346442574 -0.35507545478287916 -0.08683297604792273
0.3386320545483057 0.32956835311744026 -0.1497105215474812 -0.20087584105195821 0.436120617858899 -0.005971319742572145 0.20955106544977997 0.28526091008993715
0.38162652633283267 0.21147372846017054 -0.39335713966938024 0.4742284841089466 0.2757076423729947 -0.3590237797812238 -0.34808825252456355 0.252459280750028
0.3777129599637159 0.3840913713610531 -0.15090225489738873 -0.18500245458583076 -0.3433323160952264 -0.2280322901912457 0.24420604224079212 0.08608054248721342
0.11172723980210897 0.21609806255433006 0.27703752687395344 -0.4828997775652659 -0.17856390897763397 -0.4678022863435187 0.028927062074506793 -0.4385268464316513
0.0007941817506864624 0.04479977533377233 -0.39652660091295544 0.19548255000742465 -0.3651359663362239 -0.4499945271415863 -0.10442761171416981 -0.03320236241477592
-0.10435364806040426 -0.22355675155411692 -0.22007324088110536 0.18862743648798663 0.3382597405216309 0.29776245106424437 0.1674378641607045 0.003387080970264744
0.16788240738471016 -0.4090727488863918 -0.28896024499806405 0.341883043767501 -0.1637341271794236 -0.08197738149240907 0.2068745824276007 0.4774443115816146
-0.32757373330167394 -0.12359544741711226 -0.20121506209365936 0.3968647458825545 -0.1814111143305409 -0.3802036579562257 -0.08326133023517202 0.4998319137860592
-0.4672583148162579 -0.40341146107969517 -0.07763641505609231 0.3575004955828843 -0.18705898779666497 0.09867885885511773 0.4815068598560587 -0.32659540194973224
0.19850813503651066 -0.14531049096317783 0.4149088012098524 0.39979635841170946 -0.09382558005134867 0.19671171258257636 -0.061714653668326735 0.08196270932076255
00000000: 4073 1c0a 165a ce3f 54c5 1bf3 207e db3f
00000010: a057 f625 2618 a93f 3081 6fe8 ca6f cabf
00000020: d47c 95d1 49f0 c33f f043 0500 2314 a3bf
00000030: 40be f59b 2bb3 8abf 3c17 a087 5c70 c33f
00000040: c2b9 ddb1 06aa d43f 506f f00e 6eef b5bf
00000050: 62e4 991f b5b6 d6bf 8608 48ea 2934 da3f
00000060: 6078 9f6d fcac bc3f 24b5 d052 6cd3 c7bf
00000070: c4a7 722f 87ff d7bf c8f8 362a 7e39 d33f
00000080: 94a2 c43f f05d d53f 9222 d480 35a4 d6bf
00000090: 48cf 7872 cecb b03f 10fe 0426 8731 c93f
000000a0: 0eef bdfd 9071 d2bf 302e d9cd 60a3 d9bf
000000b0: 4ca0 29ed 2b98 c3bf 9efe 844d 1e35 da3f
000000c0: 26d0 38d6 8091 d7bf 5000 00f0 dbb7 a23f
000000d0: 9aa9 68ad 3bce d2bf 009f 5557 e7cd 76bf
000000e0: 48c3 2a87 1b35 bfbf 90ec 39dc 664a cc3f
000000f0: a624 9293 72fc dcbf c089 1767 32ba df3f
00000100: 721f 34d5 76b6 ddbf 4a23 d342 a4a4 debf
00000110: 6ca6 b190 4767 da3f 24fd 2f22 c9eb c0bf
00000120: 4069 5736 abc9 ca3f 7e2f 6bd9 3831 d1bf
00000130: 0662 4080 7ed0 dc3f a07f 0139 bd0b 9dbf
00000140: 5048 ced2 6613 c5bf 06c3 c15a bbb0 d4bf
00000150: 1c80 b68e 93f4 d6bf 5eb0 a9ba 4773 d4bf
00000160: 0035 282f 269f c9bf e4b4 a706 f71f cbbf
00000170: d6bc cd6d 9e4d da3f 304e 0cbc 0090 dbbf
00000180: 08c9 e5a9 a89d db3f 00e8 77b7 38b7 ab3f
00000190: 308b e6a0 87d5 dd3f 4498 66f9 5e03 c63f
000001a0: 70b2 5bac 558f cb3f acd4 30f4 127f c0bf
000001b0: b4d0 d894 cc70 d8bf 1a2f e602 7a0d d7bf
000001c0: 9ccf c9fb dd72 c1bf 002a 549f 39ab acbf
000001d0: 50f6 93c7 a279 b2bf 8e0a f6eb e7eb d83f
000001e0: f2f6 e793 b44b dc3f c845 37e8 228b dfbf
000001f0: 30b6 8c25 5272 cbbf 2870 1f9b 5dd8 b33f
00000200: 0866 a252 7e27 bf3f 281b d04e 60b9 c73f
00000210: 3685 b666 5e08 d0bf a87b e6c1 2d11 ddbf
00000220: c042 44e3 1818 da3f 8c5f 091e 22e2 dc3f
00000230: 8080 6247 0cf2 df3f 88d6 c5a5 8cef d2bf
00000240: a052 5640 c419 c7bf 8021 f99f bccc 83bf
00000250: 7a4a 4934 c08c dabf 0035 1cc7 5364 ddbf
00000260: 1e6b 1fdb bf76 d8bf 1898 1190 d593 c23f
00000270: 8803 81ba c1b4 b43f 765b b372 cce5 df3f
00000280: 10dd 1d21 1acb bcbf c0d1 3413 4d42 a03f
00000290: 0082 afe6 f539 a4bf 708a afbe 5ace b33f
000002a0: 1036 b93c bcb6 a6bf f013 dc12 e024 be3f
000002b0: 42d4 8837 5015 da3f f664 dab6 5ef0 dcbf
000002c0: 3858 ca2c db84 bf3f 80e8 edba 6226 77bf
000002d0: e0d4 99b1 4abb debf e412 5acd 8e88 df3f
000002e0: a628 294a ee1b d1bf a4c0 d4de be32 ccbf
000002f0: 005b dbf3 280c 6f3f 5a97 2b69 93dd da3f
00000300: 80b8 da5f 7908 d33f 40f5 03d8 4a8e 97bf
00000310: 9cd5 555c 8d2f c4bf be37 25e3 bb30 d5bf
00000320: 8c60 2bd9 2d3e c4bf 282d e183 0218 d8bf
00000330: c6a8 f228 8dc9 db3f 7e99 8a0b 3bc1 d23f
00000340: 9a35 ee91 1500 df3f 5067 535c 3f78 d0bf
00000350: c021 59ff d914 afbf 085a 9552 a8b8 d23f
00000360: 2841 5896 18d8 c4bf 7a12 502b a699 d33f
00000370: 00ff 3c6a 8c8d 81bf b0a1 8bdc 4b27 c5bf
00000380: 5006 8db7 9bf4 d8bf c87f 6fda 851d c63f
00000390: 3296 57be f70c d5bf d806 13cd 127a bdbf
000003a0: 40e2 9cf2 089c b03f 005e 00e5 4dae 52bf
000003b0: d2ad 88ac a9b1 d8bf 6a8f 2227 d60d ddbf
000003c0: 34da e30a 8910 c43f c838 9d74 03a2 cfbf
000003d0: 92ea 7f3e e7c0 df3f b025 0817 b7ac ad3f
000003e0: 7089 6e6b 9660 a53f d8b2 b51e 3c1c c4bf
000003f0: 402c aff4 e33d 8bbf b06b 32c8 2600 bb3f
00000400: 2ca7 29d9 b2ae c23f a6d6 a389 90ad df3f
00000410: ec9f deaa ad23 dfbf 1699 ea23 8685 d5bf
00000420: 600e 0a7e 427c d03f e69d d418 ff5b da3f
00000430: aa9a e5a9 f602 d83f e4f2 7b41 36f5 c1bf
00000440: f031 66db 8325 abbf b474 941a f442 d9bf
00000450: cc30 d5e1 92a3 c4bf 3891 4f22 37d1 d33f
00000460: a8d3 8156 948f dd3f 7084 7bcd 7618 d5bf
00000470: 1836 1b03 2944 debf cea8 fbf6 c7e8 ddbf
00000480: c85a ac21 8975 cd3f cca9 5831 f63d c5bf
00000490: 90ee 54b8 b9c1 d43f 58a0 df78 a915 b93f
000004a0: 0ed7 a166 afaa df3f 683a 1a9b eb66 dfbf
000004b0: ca11 664c b968 dbbf 1efe ab91 34d3 d83f
000004c0: 0818 dc33 7331 bc3f 28d6 8ca8 9622 b6bf
000004d0: b415 11ee a489 cebf 6c4e be9c 125d cdbf
000004e0: 0044 c7d7 c86b 783f 8023 bd43 906f 793f
000004f0: d8ba c3d4 ca07 ba3f 60bb 25b9 50f7 dabf
00000500: 6654 2934 421d dc3f 4026 4372 22fd cbbf
00000510: 2034 28c6 a032 92bf 6c69 f91c d27b d23f
00000520: 9455 604c b665 debf 1681 e112 2a19 df3f
00000530: d4b1 8e64 be7e cf3f b082 1201 601e aabf
00000540: 9e54 45dd 043a d6bf 8c08 87d7 3a16 d4bf
00000550: 40b0 4b07 c0d8 92bf 60b4 7212 43cd acbf
00000560: ac38 07bc c234 ccbf ccec 31fa 8b47 c4bf
00000570: 20e8 7966 8eb9 d6bf 0016 5798 af3a b6bf
00000580: 7c62 eac7 25ac d53f 30e7 9bdc a517 d53f
00000590: b8ee f4e0 b629 c3bf b0f4 efaf 4cb6 c9bf
000005a0: a02d b473 66e9 db3f 0006 22f0 6175 78bf
000005b0: fc70 79be 91d2 ca3f 6676 eaf9 b641 d23f
000005c0: a8ad 78aa 916c d83f 0c8d d935 9211 cb3f
000005d0: 44cc a16c c32c d9bf dc17 856d c259 de3f
000005e0: 24f4 cfaa 31a5 d13f ea62 29e0 3efa d6bf
000005f0: 1ebf 2df3 1347 d6bf c627 99f8 4a28 d03f
00000600: f872 94fa 722c d83f 16fa aaf9 f394 d83f
00000610: fca5 d6dc c350 c3bf 741c 1012 29ae c7bf
00000620: dc7d 521b 28f9 d5bf 38d5 667e 2930 cdbf
00000630: 3874 74c2 2442 cf3f 08f5 cdda 5f09 b63f
00000640: 80bc 0509 289a bc3f f82c b3ef 19a9 cb3f
00000650: f20d 6c9b fbba d13f 0cdd f877 d4e7 debf
00000660: 9c05 a7a2 2edb c6bf 64b9 3500 79f0 ddbf
00000670: 0046 5146 0e9f 9d3f 9ee2 f5e7 d210 dcbf
00000680: 0040 b952 1406 4a3f 6078 da03 ffef a63f
00000690: 6e92 ba1b b160 d9bf c03b 9c7b 9205 c93f
000006a0: e079 803e 635e d7bf 2aef 5cd8 b5cc dcbf
000006b0: 609b 1c99 c4bb babf a05b 7169 e6ff a0bf
000006c0: 4842 a3b1 ebb6 babf 7cca 5cf4 819d ccbf
000006d0: dc8f 2726 5c2b ccbf 640f 6c9f f124 c83f
000006e0: a601 c62e 0ca6 d53f 020e 533d 8a0e d33f
000006f0: 2456 579b 9a6e c53f 00cc e03f 39bf 6b3f
00000700: 1442 a5b4 2b7d c53f 4ab8 8977 3f2e dabf
00000710: e217 871c 537e d2bf 6274 026b 69e1 d53f
00000720: ecc3 bc68 3df5 c4bf 6888 853c 78fc b4bf
00000730: cc39 f3c6 dd7a ca3f 8adf f995 728e de3f
00000740: d4cb e3d1 f7f6 d4bf c84a 9784 f3a3 bfbf
00000750: fcd2 9347 6ac1 c9bf 1c0f 2064 3b66 d93f
00000760: 941d 97b9 7a38 c7bf b675 2fb9 4155 d8bf
00000770: 48ab 6152 9d50 b5bf 6853 cdfe 3efd df3f
00000780: a4df 3a6b 8fe7 ddbf bace 0a4e 7ed1 d9bf
00000790: 6804 a5e7 fadf b3bf 1644 35c2 49e1 d63f
000007a0: 9438 8185 8cf1 c7bf 60de 9687 0443 b93f
000007b0: 4e69 f825 02d1 de3f 0e7a 9966 f0e6 d4bf
000007c0: cc62 fced b668 c93f 3ced 39bf 8899 c2bf
000007d0: 5a35 01a5 dd8d da3f 400b 1c77 4396 d93f
000007e0: 2849 d905 f404 b8bf f822 2472 d92d c93f
000007f0: f0fc 6026 1099 afbf e833 0614 82fb b43f
