model/500_200/Theta3.npy (npy, 16208 bytes, 1 tensors)

array f8 [10, 201]
-0.03459054873238119 0.08976497273584791 -0.15884007731359998 0.09887938956051237 -0.5546512878437309 -0.04265585891277071 0.017694224418425993 0.20050151352484563
0.08734713992382408 -0.16580908583706555 0.17917218595755807 0.1437611442263219 0.047411855826949574 -0.13253272344877934 -0.6962988419106537 -0.32107641203346576
0.36068667759735207 0.08545375477130011 0.29529015398916186 -0.5104121853313225 -0.42463611416880553 -0.3635619485009065 -0.3917744951074297 -0.544513288462929
-0.32656470730987874 0.03149539904837585 -0.207250869656488 -0.4972761617958362 -0.0307223165665334 0.02998684920522881 -0.26259907933679566 0.0637684272985834
0.41491009032684545 -0.12815256354567273 -0.44993290683077375 -0.17833313796966024 0.06368988805453765 -0.020829432641030158 -0.5838406754176909 -0.14136225113380957
-0.4774784925723717 0.3781985775621495 0.5397495769769219 -0.016253721300098205 0.3149666876545014 0.10602559736209083 -0.47734110685168896 -0.12219630606217746
-0.13213208777001154 0.13224334590238954 0.3539851086888312 -0.007330041273436427 0.37031508049732537 0.014702247703954802 0.6093466609028775 -0.13212869511895423
0.16486438931744035 -0.4067887116889862 0.05682808294935089 0.19557095186579984 -0.1580229276992387 0.5694631828186196 -0.6406579830514703 -0.6554654886272611
-0.24407375089193634 0.5377083463277715 -0.35775399649073863 0.24627918073523777 0.0682448868542124 0.013289648862262724 0.2405060942428926 -0.11351125053989525
0.146565400046229 -0.3934637655836397 -0.20448158598588823 0.40697910827965794 -0.49433979884955204 -0.09658241761987336 0.5988029314102443 -0.2955444080149171
0.13496417648362075 -0.31608785362851505 -0.334379473887658 0.37114332765549396 -0.10374831564697765 0.4905376422709185 -0.18544713186253328 -0.4484995274114631
-0.21606895323550798 0.04310723376189536 0.47460094809812 -0.21739228740945588 -0.1744426161019427 0.6402331484965231 0.14593676751438528 0.22515698060859538
-0.5014940977252272 0.28275524319887557 -0.5259411712486441 0.2175186824629539 -0.28848946262781505 -0.6327497413261626 0.017428272982474454 -0.27778098314910815
-0.8374979814421156 0.18986152140849902 -0.5942591259548006 -0.2577345111328419 0.5817799406205817 -0.38857817429850794 0.24403157318778226 0.3021242521360253
0.04234254278948174 -0.019068415682019113 -0.05729360420806939 0.4173409246119089 0.6549482328855125 0.31990231349327186 -0.4878022689772468 -0.3167966144661257
0.6183805951606243 0.08505156727119517 -0.10457170030440505 0.60496808134324 -0.3043385409697872 0.1794513123306989 0.0840485046843823 -0.40059395508151635
-0.11083221710495214 -0.4422160503799521 -0.09106915917276334 -0.5727782876751515 -0.48988919995583163 -0.10764337665538848 -0.3188183117431406 -0.35480284230696874
0.3716082866728704 -0.5188429589259945 0.4647921224768441 0.45899463228042126 0.3829597902384907 -0.2653285048863912 -0.14803752499345987 -0.2821450483263687
-0.4758003458667838 -0.08754637749972646 0.5533992096397374 0.24918087965506075 -0.29896476150534695 0.6717774268441098 -0.29897152859810233 -0.6987696788783774
-0.23227682138252298 -0.12271206983782752 -0.5711824482753718 -0.051848829623235254 -0.12724526194507915 -0.3835918764108148 -0.2321129642640076 -0.3211896143009132
-0.30382919094670124 0.06858925239926505 -0.020597218905842433 -0.23609834653839795 0.0792086232346454 0.04043037427371226 -0.49547185961950946 -0.21482365487772276
-0.026649939931163994 -0.037748445768252904 0.3886928230989018 0.5460913279553006 0.055494561978192324 -0.14424176542725636 -0.22989802844283236 0.3632458077820908
0.455628922293971 -0.3307516907898114 -0.07363865980959548 0.3661930578779805 0.20385685973585566 0.32634501770632174 -0.45799305062830775 -0.13736983722516916
0.4400935098659632 -0.2730727875744483 -0.3823905893074754 -0.42364688754708424 -0.4853840553168597 -0.006347917396731663 -0.22438301054651485 -0.3871722070311118
0.12691053738632477 -0.2642461359664004 -0.5392349187550731 0.5622163007226715 0.2628594752664026 -0.1954114651370874 -0.10958546474714875 0.02343125129946768
0.19967739498578466 0.2969027688768592 -0.4572888746933947 0.4173357881994734 0.28223431284084044 -0.3262517408966367 -0.42388284487092653 0.12021537180425032
-0.3401198575936966 -0.4896374871836559 -0.11698551926342023 0.08294269887604067 0.6205801830092474 -0.18104216945694984 -0.24385434602275297 0.27126035002364546
0.2512267054422819 0.31852383148634505 0.0757927224279385 0.3065222241593518 -0.26662629268268717 -0.15887423067809495 0.29520601570790944 0.22794111494889177
0.5383391962812204 0.3303443307720295 -0.007530871350471737 0.32388889091879375 -0.06156003711496744 0.08313271380352039 0.3926365089191078 0.06096660864381772
0.2580931074342408 0.2525889758112037 0.5064925305950801 0.5466908386306716 -0.473310815889652 0.24468873102156036 -0.19304361704331519 0.16031941156658588
0.2360462386322101 -0.3381098125448045 0.6142071630084134 -0.30371107586982804 -0.4436217531810926 -0.3745778415092327 0.43290091196850095 0.06246515986651744
-0.1880885421200488 -0.04246866659437858 -0.03929769547605779 -0.08918185945489253 0.2772712320270942 -0.06355390610696615 0.4378877710420945 -0.03833605305113547
00000000: 9dcf 1c37 dab5 a1bf 760f 3a56 d6fa b63f
00000010: 2d92 ad24 df54 c4bf 1a2d 69e0 2850 b93f
00000020: b023 bf0e b4bf e1bf 54ba 061e fdd6 a5bf
00000030: 4f26 d24c 6f1e 923f 9aa0 b199 08aa c93f
00000040: cb38 5fd5 615c b63f 9861 866c 3b39 c5bf
00000050: 7e30 853b 1def c63f 9c9c 71e2 c366 c23f
00000060: 3957 70e4 5d46 a83f 7d60 6e10 d5f6 c0bf
00000070: 40f7 4782 1448 e6bf 31d9 4c14 848c d4bf
00000080: a48b 1893 7d15 d73f cf29 101a 4ce0 b53f
00000090: 57b6 8dac 08e6 d23f 214b 6fef 4b55 e0bf
000000a0: 008e c3f3 3c2d dbbf 5869 b855 9944 d7bf
000000b0: 322c f954 d512 d9bf 35f1 c521 a76c e1bf
000000c0: 941e 7ba8 6fe6 d4bf d244 c639 2a20 a03f
000000d0: 95ff 9e4d 3287 cabf da95 ff64 5fd3 dfbf
000000e0: 8f79 a4c3 ab75 9fbf ee0e 9662 dfb4 9e3f
000000f0: 1185 6d5e 6cce d0bf ecc7 c3ad 2053 b03f
00000100: 40fd 2e0d e38d da3f 8ce2 a99e 4d67 c0bf
00000110: 73df 0e64 b3cb dcbf 29b6 afc9 9ed3 c6bf
00000120: 46b7 4702 fb4d b03f 9128 f38f 4f54 95bf
00000130: 07cb dfa3 d2ae e2bf 7a1b c182 2818 c2bf
00000140: dd11 89f3 018f debf 507b 81ce 6734 d83f
00000150: b1a9 a4e7 a045 e13f 8b5a b0c5 d0a4 90bf
00000160: d08d b309 6a28 d43f e883 3559 7e24 bb3f
00000170: 7ab9 bdb6 c18c debf 98a3 3ad2 4148 bfbf
00000180: 2db9 dc49 b4e9 c0bf 29d7 e196 59ed c03f
00000190: f3ba 4528 b1a7 d63f a68a c3f8 1a06 7ebf
000001a0: 57e7 fc05 3eb3 d73f ca87 8748 361c 8e3f
000001b0: 2e26 9091 c47f e33f 8114 33d4 97e9 c0bf
000001c0: 865b 32bc 461a c53f ca83 4585 d308 dabf
000001d0: 8a0f 860b 9218 ad3f 6bd5 270d 7808 c93f
000001e0: 7242 3e65 183a c4bf e06c 4fda 0a39 e23f
000001f0: 8e13 a42b 4580 e4bf a2f1 a9c2 92f9 e4bf
00000200: 1e4b f204 cf3d cfbf db72 4822 e834 e13f
00000210: b139 bc04 71e5 d6bf 3fc5 7881 1386 cf3f
00000220: ca76 2835 7f78 b13f 92f1 e879 9a37 8b3f
00000230: 8486 a158 e7c8 ce3f 7402 ccc4 120f bdbf
00000240: 253c f6af a7c2 c23f 80ef 55a5 822e d9bf
00000250: f2c7 38de 732c cabf 11d9 0d1a f20b da3f
00000260: 02e2 4a65 43a3 dfbf b5c4 0b15 a0b9 b8bf
00000270: 62fd e4c3 6429 e33f da24 bc17 33ea d2bf
00000280: 027a 1092 8146 c13f e1d3 7f8c c83a d4bf
00000290: 7c46 332a 7966 d5bf 622c 9af1 cfc0 d73f
000002a0: d206 b8e6 3f8f babf b9ac c0fe f764 df3f
000002b0: 4148 3e4b bbbc c7bf 733c a05c 37b4 dcbf
000002c0: 37ea e9bf 25a8 cbbf 9aec 74be 2612 a63f
000002d0: 65d9 aea7 dc5f de3f 6ac2 69ae 82d3 cbbf
000002e0: 1de0 97b9 2254 c6bf 1a72 533a ca7c e43f
000002f0: 020e e155 0eae c23f 010b 17a6 f1d1 cc3f
00000300: 79bd 9b59 3d0c e0bf d8f2 9372 a918 d23f
00000310: 6840 4494 82d4 e0bf 4344 b9f5 a6d7 cb3f
00000320: 7a88 ce81 9c76 d2bf e78b b162 7c3f e4bf
00000330: cf23 f199 b7d8 913f 96df 84e3 29c7 d1bf
00000340: 1d51 1891 c8cc eabf 7df1 9be0 614d c83f
00000350: c969 eab6 2b04 e3bf 3f6e 17e4 b87e d0bf
00000360: 22e5 4df7 f09d e23f 704b a3fd 76de d8bf
00000370: e137 0435 6d3c cf3f 052c 90f5 0056 d33f
00000380: a846 05f9 ebad a53f c095 f6b6 ab86 93bf
00000390: c0ef af58 9655 adbf 2d65 9fb5 b6b5 da3f
000003a0: de1e 1aff 55f5 e43f eb92 978d 4779 d43f
000003b0: edff 0a02 2738 dfbf da64 a74e 6546 d4bf
000003c0: ca44 161a c6c9 e33f 7440 e783 f0c5 b53f
000003d0: 1c00 e500 36c5 babf 57c7 8f05 e65b e33f
000003e0: 782a 185c 487a d3bf 10a2 d7b6 42f8 c63f
000003f0: f8a9 e5ea 3384 b53f d939 03d4 54a3 d9bf
00000400: c616 cf0b 805f bcbf d37b 898c 444d dcbf
00000410: 963c 52f4 4e50 b7bf 968e ad21 3354 e2bf
00000420: 6754 1e3b 585a dfbf d8ab 5d2e 848e bbbf
00000430: cb5f 93eb 8467 d4bf 251f 0ffb 16b5 d6bf
00000440: 3eaf 8b1f 6ec8 d73f c51a 8b8c 5c9a e0bf
00000450: 847e 5e75 27bf dd3f ecc5 ab05 2b60 dd3f
00000460: 3878 b0c7 6982 d83f 89c0 cb68 24fb d0bf
00000470: a3be 36c4 e4f2 c2bf e390 d21a aa0e d2bf
00000480: c317 3b4b 8373 debf ce9d 3e7c 7069 b6bf
00000490: 111e 6142 72b5 e13f 8018 74b8 28e5 cf3f
000004a0: 179a 5418 3d22 d3bf 4791 cf5f 337f e53f
000004b0: 05e5 707a 5922 d3bf 7b02 c73a 525c e6bf
000004c0: 6e77 ba33 3fbb cdbf e526 c7e6 0e6a bfbf
000004d0: b88a ec69 2047 e2bf d4a5 2207 ee8b aabf
000004e0: 3d02 509f 9249 c0bf bc86 0cf1 c48c d8bf
000004f0: 6fea 3eab e0b5 cdbf 882f 4fe2 5e8e d4bf
00000500: 0ceb abfd ef71 d3bf 7074 e9b3 108f b13f
00000510: 2149 5bf6 6f17 95bf fad3 827a 7838 cebf
00000520: f19e 5a2e 0447 b43f 8790 8a3e 4ab3 a43f
00000530: b6dc 499a cfb5 dfbf 82b2 0d6e 577f cbbf
00000540: 1163 c731 1f4a 9bbf e554 19a8 c353 a3bf
00000550: a194 d9dc 57e0 d83f ae4f 4685 9479 e13f
00000560: 7bb7 9a81 c869 ac3f 721a 9da0 8376 c2bf
00000570: fcd5 c970 4c6d cdbf dc52 3558 6b3f d73f
00000580: 3251 1736 0629 dd3f 117e c223 092b d5bf
00000590: cf7d 9ab3 fbd9 b2bf 1eec e601 b56f d73f
000005a0: b8bc d048 fb17 ca3f 62b7 9036 d6e2 d43f
000005b0: 4e9b 8f15 c24f ddbf 8c62 2bb7 5595 c1bf
000005c0: 3698 03f8 7d2a dc3f f0d3 0349 067a d1bf
000005d0: eaeb d760 1679 d8bf 5c48 c4d5 071d dbbf
000005e0: 367d e548 8810 dfbf 68e3 dd19 4600 7abf
000005f0: 93a3 091e 95b8 ccbf df99 c7ef 6dc7 d8bf
00000600: 4dc8 cbbf 9a3e c03f d97b 04a0 68e9 d0bf
00000610: 9641 9d96 6941 e1bf 2439 1c0a adfd e13f
00000620: 7ba0 6d8c b0d2 d03f 6c7c 032e 3e03 c9bf
00000630: 1cba 3403 cb0d bcbf c66c 24a8 5cfe 973f
00000640: 1972 9b64 078f c93f cebf 9a78 7400 d33f
00000650: 577f 688e 3844 ddbf 8318 712a a1b5 da3f
00000660: e477 dd81 2010 d23f f380 5afb 4ee1 d4bf
00000670: aa96 0383 e520 dbbf 3630 6042 6fc6 be3f
00000680: 5972 4514 86c4 d5bf eb5c 9678 3856 dfbf
00000690: 358b 5753 c3f2 bdbf 8054 1d93 bb3b b53f
000006a0: d240 d2f8 cadb e33f ccda 81ca 632c c7bf
000006b0: 52dd 9384 9e36 cfbf 8065 035f 545c d13f
000006c0: 4869 f02c 1914 d03f f9bf cec7 b162 d43f
000006d0: 3451 1ae0 2667 b33f 02be 1064 0f9e d33f
000006e0: fbda d4b9 6710 d1bf 1544 78a4 fd55 c4bf
000006f0: 5711 c3c5 a7e4 d23f 2344 0fa9 2c2d cd3f
00000700: 39d9 451f 133a e13f 906e 458c 5c24 d53f
00000710: a90f 92e2 b0d8 7ebf eb2b 8278 98ba d43f
00000720: 2975 4c14 cc84 afbf 888b 037f 2f48 b53f
00000730: c97b 41e1 f420 d93f 8be4 8bec 0337 af3f
00000740: 7132 f0f3 9884 d03f c11c 9cf3 6a2a d03f
00000750: 6d5f d2d2 2f35 e03f 2921 1ec9 7d7e e13f
00000760: 59b4 c572 b94a debf d6fa b7d8 f551 cf3f
00000770: f887 f33a a7b5 c8bf 6bd5 cbb2 5885 c43f
00000780: a573 a25d c336 ce3f 478b d556 97a3 d5bf
00000790: e8e1 c2c7 95a7 e33f 08cf 9294 0070 d3bf
000007a0: 1b3f 6d7e 4c64 dcbf c4a8 c556 15f9 d7bf
000007b0: e30c d406 a6b4 db3f cd3e 88f5 6efb af3f
000007c0: fd36 940c 4913 c8bf a752 41fc 73be a5bf
000007d0: a373 c1d9 d31e a4bf df56 c151 9fd4 b6bf
000007e0: 4f64 6bd6 cfbe d13f 8431 439c 1145 b0bf
000007f0: a76c fc6d 5a06 dc3f a985 397c c8a0 a3bf
