model/500_200/Theta2.npy (npy, 801728 bytes, 1 tensors)

array f8 [200, 501]
000000 06 0c 45 0f 8f 6a cd 3f 6d f8 ec d6 d7 23 db 3f
       0.22981441732017077 0.42406269062838114
000010 7d ca 89 9a 57 bb b1 3f dc 84 d7 42 12 bd c8 bf
       0.06926486514002224 -0.19326999915850862
000020 e9 2a 54 2f 95 a2 c1 3f c7 46 12 60 b2 46 ae bf
       0.13777413187957357 -0.05913312361475458
000030 44 d9 49 24 19 7d 9b bf 14 9f 15 3a 62 0f c3 3f
       -0.026844399299500013 0.14890697322993474
000040 11 11 53 7a af 84 d4 3f bb 87 2a b6 89 d0 b7 bf
       0.32059847779989165 -0.09302578637519236
000050 3c c0 8a d8 d2 25 d8 bf fd 99 c0 f9 87 bb dc 3f
       -0.37730857035331034 0.44894599332693
000060 36 3d 6c 73 d1 e9 ba 3f a5 08 e1 9e 78 f3 c7 bf
       0.10513028209628747 -0.18711765058293853
000070 0e 40 20 c1 2c e9 d8 bf 65 8b 37 95 f3 0a d2 3f
       -0.38923186168631296 0.28191842624635505
000080 e8 21 0e f4 e5 9c d5 3f 50 94 26 e3 11 c6 d5 bf
       0.337701309523736 -0.34021422560392
000090 72 34 48 65 63 68 b2 3f 42 37 8f 3f c4 78 c8 3f
       0.07190533850389771 0.19118550399292117
0000a0 3a 88 70 0d c9 95 d4 bf 71 fe 5c 2d 94 36 db bf
       -0.3216421729322324 -0.42520622663503277
0000b0 79 6a 7b 65 51 66 c6 bf 35 45 53 f2 5d d0 da 3f
       -0.17499749617748586 0.41896771111085523
0000c0 19 4e c0 28 c0 8c d8 bf f9 2f c9 57 7c 09 9e 3f
       -0.38359073619469225 0.02933306012918988
0000d0 56 2b 63 a3 28 0c d1 bf 63 b6 23 35 0d 00 97 bf
       -0.26636711078451947 -0.02246113430822162
0000e0 7d 88 4c 48 c7 03 bb bf 4e fb 05 70 de 12 c9 3f
       -0.10552640452491065 0.19588833303347503
0000f0 c6 4b 89 f6 c1 51 db bf 0c d7 ca 98 6f 05 e1 3f
       -0.42686509204684986 0.5319135650849787
000100 e5 9c 35 e4 4b f6 dc bf ea 30 e3 60 8f ca dd bf
       -0.4525327423675221 -0.465488285652795
000110 23 a3 a1 b8 db 2f db 3f 8c 56 c3 13 d0 5d be bf
       0.42479603796395987 -0.11861896975036695
000120 13 4f bf ca 2b a1 c7 3f 63 37 dc 45 8c f4 cf bf
       0.18460605048914455 -0.24965051089423715
000130 ba 67 cb 8b de e9 dc 3f f5 c5 c7 85 c4 1d 82 bf
       0.45177425052463216 -0.008845839817669602
000140 23 7f 54 d2 72 f3 c6 bf e0 71 88 3e b8 97 d4 bf
       -0.1793044592859526 -0.3217602358506877
000150 01 25 3a 2c 84 f9 d7 bf b3 64 5e 76 bb 08 d5 bf
       -0.3746042663484133 -0.3286579757637568
000160 7b 6c a9 ea c8 a1 c8 bf d6 1f 83 ef 63 2c c9 bf
       -0.1924372812089564 -0.196667186688727
000170 d1 cc 60 48 14 51 d9 3f 4a 33 3a 40 21 01 de bf
       0.395573683435214 -0.46881896278573676
000180 7a 25 34 96 99 96 dc 3f 52 dd 3f e2 6e f4 76 3f
       0.4466918913681962 0.005604203357499076
000190 7b a8 d7 99 05 24 de 3f 61 5f 50 6a ca 1f c9 3f
       0.4709486009948091 0.19628267470465757
0001a0 ba 25 52 2f da 1d c9 3f cb b4 9d b7 6e ba c1 bf
       0.19622351942625277 -0.1385019680559821
0001b0 2e fd 17 51 a1 7d d7 bf fd 5f 64 c5 f0 f1 d7 bf
       -0.3670428554468853 -0.37414187695094353
0001c0 6e 5f 66 c6 72 88 c1 bf a9 a6 9a 38 28 c9 ad bf
       -0.13697657287115866 -0.05817533198326192
0001d0 74 15 7b c7 5c 0f b5 bf 1c 28 3d eb 8c 2d d7 3f
       -0.08226566190849899 0.36215517971561595
0001e0 b5 2a f9 92 38 39 dc 3f 87 95 24 c1 f3 96 df bf
       0.4409924922262392 -0.49358838903057073
0001f0 b4 9e bf 3b f6 51 ce bf 85 3e fe 70 47 a9 b5 3f
       -0.23687627713592507 0.08461424358960741
000200 3d 18 1c 10 ff 0c bd 3f 0f 54 9a 7c 11 02 c1 3f
       0.11347955840400999 0.13287561973689363
000210 ee c5 4d 9f 6e c3 d0 bf 45 0b 82 0a 58 ea dc bf
       -0.26192822987567765 -0.4518032171837841
000220 fa 34 a0 64 17 b8 da 3f 0b 0c b3 a1 54 72 db 3f
       0.41748604609240625 0.4288531855674484
000230 80 1e 82 0d 22 2d e0 3f 68 1e 96 3e 0a a9 d4 bf
       0.5055094016870072 -0.32281738388016956
000240 55 2c f0 bf 48 95 c8 bf e9 ec 6d 95 af c2 94 bf
       -0.192055791587651 -0.0202739176706758
000250 bf a7 9e 92 7c 0a da bf f3 76 4d 50 5b 9c dc bf
       -0.40689005201658895 -0.44704325525331895
000260 be d5 0c 2e d8 c9 d6 bf c1 fc b5 5d 93 00 bc 3f
       -0.3560696077068676 0.10938378370154835
000270 16 68 ba c7 2f e2 b3 3f 59 de 1b d3 d0 38 df 3f
       0.07767008424926333 0.48784275642490155
000280 db c6 1b 95 84 7f c0 bf 8a 10 57 22 b5 24 68 bf
       -0.12889153748215318 -0.002947191026324407
000290 07 e9 43 28 f1 9f 92 bf 14 52 c1 0c 4a d2 b4 3f
       -0.018188255388829535 0.08133375941663018
0002a0 db 99 f1 8c eb 99 a0 bf c1 81 fa 59 9c d6 c2 3f
       -0.03242431731705483 0.1471744002674438
0002b0 bc 9c 43 6d e5 a0 d9 3f c4 b5 e2 11 bc c8 dd bf
       0.4004453246147468 -0.4653768706001211
0002c0 a6 c5 30 97 fd bb c4 3f 63 3b 16 ab 5f 44 a1 bf
       0.1619870174632016 -0.0337247749658818
0002d0 60 22 e2 3c eb 35 df bf 3e 7c 0b b6 06 5c df 3f
       -0.48766594834936505 0.48999183442896654
0002e0 66 ed cc 0a 00 70 d0 bf d6 1d db 17 38 c8 ce bf
       -0.25683594755874706 -0.24048520245399513
0002f0 a9 e4 76 67 c4 fe 8c bf 9e 27 37 a0 cc a4 db 3f
       -0.014157804877742501 0.4319335522274005
000300 0e 8e b8 48 5a 18 d2 3f 8d a0 64 6f 3a a9 87 bf
       0.28273636914875133 -0.011553246044585097
000310 26 e3 40 b9 51 1e c8 bf 47 68 7e 20 e6 14 d5 bf
       -0.18842526956157107 -0.32940056966038295
000320 44 af 3e 72 d5 72 c4 bf 3a 86 bd 54 73 f6 d6 bf
       -0.15975444868433375 -0.3587921454946784
000330 de 92 33 78 0e b3 db 3f 22 04 47 6f 12 bb d3 3f
       0.4328037427751904 0.30829296938833484
000340 b3 10 9a 95 3b 06 e0 3f 1b a7 a6 72 8a 24 d0 bf
       0.5007608339224333 -0.2522302741659687
000350 b8 f5 4f cc 72 e5 b8 bf 49 ac 15 6a 3e ba d2 3f
       -0.09725110519499125 0.2926174198134431
000360 65 cc 46 31 c8 90 c3 bf 23 53 5c e8 be 46 d3 3f
       -0.1528558960540948 0.3011929768702421
000370 e7 f1 a0 b5 c9 c5 9c 3f dd eb 5b 69 d1 7a c3 bf
       0.028098251066909354 -0.15218560833440523
000380 04 0b f4 d0 6f 27 da bf ac a4 08 91 e3 03 c7 3f
       -0.40865703015894916 0.17980618077971167
000390 78 34 ef cf 67 81 d5 bf 9c 56 52 72 66 d2 be bf
       -0.33602328592389297 -0.12039795199447173
0003a0 3f 7c c4 4d ff 65 af 3f e2 2d eb d3 2b 80 9d bf
       0.06132505249319608 -0.028809246835221354
0003b0 c7 53 32 39 0a ca d7 bf 36 d6 79 01 9b 5e dd bf
       -0.37170653901676726 -0.4588992609418229
0003c0 84 4e 3a 4a 0e d0 c5 3f f5 7d 14 d8 e9 61 d3 bf
       0.17041185974504824 -0.3028511629254063
0003d0 f3 d7 72 ad aa d5 dc 3f 64 01 4a 25 66 b1 ac 3f
       0.4505411809763011 0.05604094700993548
0003e0 a6 89 55 de d1 e7 b1 3f d8 16 41 a2 5f 8b c9 bf
       0.06994353941039452 -0.1995658437974075
0003f0 95 f9 5e c5 0c 1a 8c bf 44 19 ec ee 43 49 be 3f
       -0.013721561215672287 0.11830544074118615
000400 29 24 82 db 7f 04 bf 3f 42 d1 7f 16 9e 0b e0 3f
       0.12116240605441021 0.5014181556166835
000410 4c 4e 27 76 f8 8b dd bf 62 b5 16 41 81 4d d5 bf
       -0.46166812456542483 -0.3328555236465346
000420 06 d5 83 00 3b 1d ce 3f 14 83 e4 32 14 3f d9 3f
       0.23526704335350973 0.39447503061278266
000430 e4 b6 81 f6 7a c2 d7 3f 52 dd 09 5a 8e 9b c0 bf
       0.37124513695640204 -0.12974719425595055
000440 10 d5 45 00 ce cd b6 bf 7a 61 bf 7c 84 92 d9 bf
       -0.08907783037814831 -0.39956772024517984
000450 74 20 c6 4c 98 8d c7 bf f9 be 90 4c 60 00 d3 3f
       -0.18400863407828505 0.29689795949069225
000460 e0 f0 a3 40 b3 1e dc 3f fb d4 2d 0e 2a 82 d5 bf
       0.43937379181421754 -0.336069597098074
000470 c9 7a ff 04 95 0a dd bf 8b 5e d5 7a 05 fc de bf
       -0.4537708805855059 -0.48413216586548263
000480 a9 af 08 29 04 84 ce 3f d8 4f cf 56 ee 66 cb bf
       0.23840381625757104 -0.21407870520363192
000490 60 e3 3a df 77 32 d5 3f 57 3a 04 df df e5 b9 3f
       0.3312053375225812 0.10116385645617619
0004a0 80 a1 67 a8 1b 5f e0 3f 3d 4f bb fc f7 6a df bf
       0.5116098679691703 -0.49090385132625497
0004b0 7a 6e 9b e9 78 f7 db bf ee 28 4f 70 db ad d6 3f
       -0.43697951138685875 0.35436140029618357
0004c0 fa 8c 16 5b f6 19 bd 3f f4 59 f4 83 cb d7 b7 bf
       0.11367740367727555 -0.09313652011437751
0004d0 6a 37 a4 7c ca cc cc bf c8 64 2c 07 b6 f3 d0 bf
       -0.2249997242546969 -0.26487494183090776
0004e0 a5 ee aa 12 a3 8a 95 3f da c5 ba 28 b9 6f 70 3f
       0.021036670698534227 0.004012797620519726
0004f0 db 34 2c f4 e7 c8 bd 3f 03 7b 70 fa c8 70 d9 bf
       0.11634683333632571 -0.3975088544556657
000500 d8 37 1c 41 13 45 da 3f b6 bc e6 eb 96 a7 c8 bf
       0.4104660163728773 -0.19261442679041857
000510 dd f6 98 f8 90 81 a3 bf fb ff 87 ab 8c 0a d2 3f
       -0.038097887369515006 0.2818938899144993
000520 a0 b2 42 b7 7c 0d de bf 8f 66 83 15 44 3b de 3f
       -0.46957319160973476 0.47236730671793564
000530 ac 2e 85 66 7b 47 cf 3f 0b 36 c4 97 af d1 a8 bf
       0.24436895852919827 -0.04847477653138917
000540 c5 f1 8a c4 d3 a5 d7 bf 80 5d 38 77 de f5 d0 bf
       -0.3694962901461419 -0.26500665323825245
000550 4c 16 2d af f1 1d 4d bf 0d 9e 0b 28 1f c7 b2 bf
       -0.0008885793780357225 -0.07335085609121723
000560 fa dc 19 ef 96 69 ca bf ef a8 1d 72 e6 22 c5 bf
       -0.20634733843665015 -0.16512756893218447
000570 2b 64 c2 0a e6 ea d5 bf 18 d6 64 f9 2b ef b4 bf
       -0.34246207285611047 -0.0817744716522032
000580 67 f1 38 89 23 c5 d4 3f a7 ed 25 8b 1a 8f d4 3f
       0.3245323982298686 0.32123435581862697
000590 da 1f c5 51 eb 29 b7 bf 26 01 a3 ae 11 ef c7 bf
       -0.09048338648165047 -0.1869833090513648
0005a0 1c b9 5c e1 74 87 dc 3f 9b f3 d6 a5 63 91 68 3f
       0.4457676125338297 0.002999014496451525
0005b0 d2 4d 6d ab e0 cf c9 3f 7d 99 ca fe 86 ae d1 3f
       0.2016564213796373 0.2762773025700865
0005c0 b3 35 2e 98 33 12 d7 3f 82 a3 42 76 43 08 c8 3f
       0.36048593388917566 0.1877521827166469
0005d0 fc c5 cd 7b f3 f4 d8 bf 74 a2 92 6c bc fe dd 3f
       -0.38995062914099754 0.46867285349666266
0005e0 94 1e 1f e5 44 56 d1 3f ae 99 e9 2d 01 c6 d7 bf
       0.2708904492869604 -0.37146024211542794
0005f0 a8 3a 48 a4 62 fd d5 bf 83 e8 ac f3 86 8b d1 3f
       -0.3435904125516722 0.2741410617487718
000600 e0 0d a1 73 25 d5 d8 3f d0 20 6f bb e3 af d9 3f
       0.3880094174566846 0.40136044792280945
000610 47 63 64 3d 75 da c7 bf f7 5c cf fa 7c 0a c8 bf
       -0.18635430810607032 -0.18782007452566749
000620 3b 7c 5a 42 e7 01 d6 bf 01 75 9e 36 27 5a ce bf
       -0.3438661716444959 -0.23712625662748368
000630 30 d4 aa 15 73 14 d0 3f d8 ec a5 ea 81 c5 ba 3f
       0.2512481414408425 0.1045762250777672
000640 3a 27 ad cc 82 c4 b5 3f e7 10 13 e6 ef 6f d0 3f
       0.08502976891500405 0.25683209865770923
000650 44 d0 cd 5b 0f fc d1 3f 14 a3 ed 61 ef ab de bf
       0.2810095211527861 -0.47924408496196347
000660 62 6a e3 44 b3 e5 c6 bf 58 2b 68 7a 09 7e de bf
       -0.17888489593208862 -0.47644268945503176
000670 35 e3 8b 38 c5 fd 7e 3f 56 6f 6b 7b a1 56 dc bf
       0.007566233057098516 -0.44278752377225794
000680 eb 90 e7 a4 7c d2 95 bf 08 17 82 cd 71 cf b3 3f
       -0.02131075626847771 0.0773841025093952
000690 16 9a f8 63 b7 3e d8 bf d4 4e 40 df f3 48 c6 3f
       -0.3788279033928189 0.17410133744180334
0006a0 4c fe 52 a4 d0 5d d9 bf 62 29 e4 40 5c e5 db bf
       -0.3963510136345334 -0.4358740457252194
0006b0 2c e3 78 9f 4f 06 b6 bf 29 6e b5 d3 7b 54 ad bf
       -0.08603379863133104 -0.057285184472416546
0006c0 04 28 09 8e 54 24 b2 bf 31 61 b0 40 e6 b9 cc bf
       -0.07086685626669015 -0.2244232002128768
0006d0 3a c5 d6 a0 78 30 c9 bf 90 a3 76 30 aa 3a cc 3f
       -0.19679172376121717 0.22054030767801835
0006e0 0f 7d 10 70 70 1a d7 3f 2f e7 29 5a f4 77 d2 3f
       0.3609887213114726 0.28857144169852494
0006f0 a8 19 a9 fb be fd c3 3f 9a c4 0d 33 6e 59 98 3f
       0.15618121421921427 0.02377865015609313
000700 2a 51 87 4c b3 dd c4 3f d1 98 cf 50 84 48 db bf
       0.1630157588648527 -0.42630107776348064
000710 5f f5 b2 fd e4 f1 d1 bf 9b 58 0b d6 2d e4 d4 3f
       -0.2803890683679437 0.32642694380536746
000720 c9 b3 19 52 e0 42 c7 bf b5 5d 18 9b e5 71 a9 bf
       -0.18172840126808712 -0.04969708936931331
000730 3c dd 73 11 07 f9 cb 3f c9 8c e9 60 5b 79 dd 3f
       0.21853721954514949 0.46053204025356514
000740 91 61 2e 5c f7 5d d3 bf e5 71 57 35 2d bf bd bf
       -0.3026102447706985 -0.11619837333950718
000750 8d 7b 6a 29 3c 1a cb bf 0c 98 af 62 d3 68 d9 3f
       -0.21173812887442658 0.39702305447860975
000760 b7 27 ae 72 33 47 c8 bf 16 6a be d6 a1 b1 d9 bf
       -0.1896728811228152 -0.40146680804323986
000770 41 ec c1 4d 21 db b7 bf 56 38 2a 1b 91 9c de 3f
       -0.09318740986229647 0.47830608036827493
000780 c2 31 49 6f 1b 2b de bf ef aa 36 9d 19 27 db bf
       -0.4713810526634711 -0.4242614779747517
000790 b6 b8 b9 5f 5c 79 b7 bf 27 e7 b3 d7 0d e4 d6 3f
       -0.09169556939170573 0.35766931595536494
0007a0 e5 86 69 38 e7 cd c8 bf bc 77 80 fa 70 51 b5 3f
       -0.1937836671304957 0.08327394595877896
0007b0 0d e2 a0 bb 3c e2 dd 3f 20 4e 0d c0 39 b9 d6 bf
       0.46693342516985653 -0.35505527262759706
0007c0 e8 ca d8 76 a2 4d c6 3f f3 cd 0b 0e c3 0c c5 bf
       0.17424422076290758 -0.16445196328969267
0007d0 33 ab 12 c3 5f eb d7 3f 1a c7 db 67 5a 55 da 3f
       0.3737410931595832 0.4114595426791411
0007e0 d4 cf 76 70 72 b1 b9 bf f9 4d 5d 9a 09 00 c6 3f
       -0.10036387677865771 0.17187614476516425
0007f0 06 d5 f1 11 2e 8c ab bf 83 93 a7 4c 73 12 bb 3f
       -0.05380386323023782 0.10575028058481277
