model/500_200/Theta2.npy (npy, 801728 bytes, 1 tensors)

array f8 [200, 501]
0	0x3faa51d1c3ed8169	0.051405482451403035
1	0xbfd501a515f0892d	-0.3282253946546401
2	0xbfc0db92ec7614a7	-0.1317008642765007
3	0xbfda411768cadf6a	-0.4102228663791637
4	0xbfdfd6b225b57886	-0.49747899706370224
5	0x3fbc608cfc71f7a9	0.11084824717724352
6	0xbfbb3d8418e2fb8f	-0.10640740974029782
7	0xbfd0a1f15decdd03	-0.2598842065085167
8	0xbfd27d068560df8d	-0.28888094926104985
9	0x3fc91d1b09456732	0.19620073273363797
10	0x3fd203e935fd57e5	0.2814887072794348
11	0x3fdafd4b2618f86d	0.4217098114057823
12	0xbfd09a5fe83ce1ed	-0.2594222801158413
13	0xbfc7bde078c5e721	-0.18548208138582203
14	0xbfcb87a3c1b8f2d7	-0.21507689437011976
15	0xbfc6fe5f1d11781b	-0.17963780326221088
16	0xbfdfe48dbb91c973	-0.49832480733234447
17	0x3fac37336fdc08d2	0.05510864963982133
18	0x3fd51bab01cf7425	0.32981372048181107
19	0xbfc3dc3349555eb3	-0.15515748100982804
20	0xbfd87dc7a58310ba	-0.38267699397352894
21	0x3fd1e4c6b5c42adb	0.279588391786701
22	0x3fc8e1ddbe2cf860	0.19439288888856066
23	0x3fd924bd91d9fc44	0.3928674625712498
24	0x3fbfa2bc3178ea8c	0.12357689102001695
25	0x3fa64663ddb90849	0.04350578385903298
26	0x3fdfd31329a83665	0.4972579867179319
27	0x3fb5ddff49daaa29	0.08541865876274159
28	0xbfdfecb88c6ddd33	-0.49882329667839825
29	0x3fb093f5ac7e4a7b	0.06475768529188912
30	0x3fdff9d6bf14940c	0.49962395343965293
31	0xbfddece53085ced0	-0.467583939919888
32	0x3fb821fdff0585dc	0.09426867939102784
33	0xbfc89bec8fc98846	-0.19225842495785822
34	0xbfccdca2be8d0ac1	-0.22548326782460573
35	0x3fd61750e2ed12fd	0.3451730934214508
36	0xbfb314efdbd8dcbb	-0.07453822247849733
37	0xbfa997e6ec2201d3	-0.04998704559784852
38	0x3fd0c3253d386111	0.26191073397196
39	0xbfa2c05851785108	-0.03662372583872481
40	0x3fd905ef8c67de2b	0.39098728858468473
41	0x3fdac948738f77bf	0.41853534016797406
42	0xbf9d3d80ffa98eea	-0.028554931263342555
43	0x3fc3e55d8605f168	0.15543717426397596
44	0x3fbd52455dd8f1cb	0.11453660527417424
45	0xbfb693f60f613b63	-0.08819520831569387
46	0x3fa54c3c46d0ed0b	0.04159725536779931
47	0x3fdb8492eb67aa8d	0.42996666897548935
48	0x3fd0a14a9416842b	0.2598444410487583
49	0x3fc6a6e7ee8ecb4e	0.17696856640176367
50	0xbfd34fa5a1f28359	-0.3017362672344937
51	0x3fcabc83c423d4de	0.2088780124392206
52	0x3fd40fcd84fb46c0	0.31346452700118377
53	0x3fda5967da519eb4	0.4117068893451503
54	0x3fcccc3da0892e72	0.22498293245950013
55	0xbfdcded1c7152ff8	-0.4510998195808038
56	0x3fdcf086bf3095a3	0.4521805636489608
57	0xbfd6bc2bf73897de	-0.3552350916164623
58	0xbfd9f2651ce2bd02	-0.4054196149908905
59	0xbfdd5e6990627ca7	-0.45888747310704975
60	0xbfded58961d45cc3	-0.4817832427374464
61	0x3fc4382bb2e0d725	0.15796419367114214
62	0xbf668d8e5b278f41	-0.0027530460731543254
63	0x3fd57f3b0fe19d16	0.33589054633053317
64	0x3fdf276d1b3ed5e3	0.4867813840931758
65	0xbfd6537db8809169	-0.3488458921222191
66	0x3fd9757ec4472a29	0.39779633682033705
67	0x3fd0dbadc5922ca1	0.2634081296352609
68	0xbfd7e1184efdf116	-0.37311370576914393
69	0x3fd5626323c498fc	0.33413008206333905
70	0xbfde0f8fc5e775ab	-0.469699805513154
71	0xbfd01931484b088a	-0.2515376287448211
72	0x3fae4bf2b0cf6487	0.05917318733526949
73	0xbfb8644726143a96	-0.09528011970199154
74	0xbfc6ba6fecffe8cc	-0.17756461212395036
75	0x3f8ce9c3053b30e0	0.014117740246910093
76	0xbfc7820f37d5e72d	-0.1836565992960514
77	0x3fd9ce30c936e49e	0.4032098736748341
78	0x3fdcae41cfc669d5	0.4481358079007383
79	0xbfdc437468735555	-0.44161710930105375
80	0xbfd59eeaa95c41b5	-0.3378245023641527
81	0xbfda7763e7593af4	-0.4135370024932137
82	0xbfda2943b2b5cb66	-0.4087685818878327
83	0x3fdc83d581afb8a6	0.44554650940598106
84	0x3fdd4e32c9724db2	0.4578978507281263
85	0x3fdf9ef6e4b1dcb5	0.4940774186465647
86	0xbfcadc9b3749aa13	-0.20985737037274585
87	0x3fdfb546ac8ffc5a	0.49543921329308704
88	0xbf6662b5e400184e	-0.0027326157141969514
89	0xbfd3b87f6f43de59	-0.308135851533256
90	0xbfcefd2d0d0342e9	-0.2421013177431839
91	0xbfce4d3b6d6ef28b	-0.23673193782260102
92	0x3fbe5fc43d656b8b	0.11864878176622377
93	0x3fc38d61833c977b	0.15275210292855576
94	0x3f6d18ae1e28847d	0.003551807473983147
95	0xbfc76e6aa39f515b	-0.1830571459710296
96	0x3fc6a7a4312d4f90	0.17699100877018425
97	0x3fdeafd0b8c1bbe7	0.479480915476357
98	0xbfa2c4708e77d851	-0.03665496577370731
99	0x3fdada831ec1922e	0.4195869255402468
100	0xbfd23aa5f20fc288	-0.28482960356544895
101	0x3fc1d107e0cef8fd	0.1391916129777612
102	0x3fc30ee63bdb192a	0.1488921921029001
103	0x3fd7f1fbbe5c99c0	0.37414449300777264
104	0x3fcac827be22b292	0.20923325332605153
105	0x3f9780e2934bb818	0.022952594986172498
106	0xbfd3cc3768e84604	-0.3093393825994044
107	0x3fcffd37daf9f7da	0.24991510574540038
108	0x3fd0089bc396ed4a	0.2505254182867317
109	0x3fd4c8015f31c02a	0.32470735832521547
110	0x3fc7e741142d6515	0.1867448185464943
111	0xbfdf7d00b19089e6	-0.4920045599011743
112	0xbfd75b4ace51678e	-0.36494703434220177
113	0xbfdefd6a2dcc26e0	-0.48421720955285075
114	0x3fde97d150157979	0.478016212660712
115	0x3fc1a82d7917d2f3	0.1379448739313812
116	0x3fdb2d8d6d432599	0.42465530080934283
117	0x3fdc68e03cee8eb5	0.44390111875894017
118	0xbfdbccb5b2c94768	-0.43436949214548415
119	0xbfc77e4eda48c96a	-0.18354211481489396
120	0xbfde3c37d2b99fb3	-0.4724254186498868
121	0xbfb23b3ecd39b3f9	-0.07121651182542611
122	0x3fdb8b8f5dad4a5f	0.4303930678189882
123	0x3fda7c18ac1562e7	0.4138242416861843
124	0xbf964ca5e5760381	-0.02177676404017204
125	0x3fce58864fe16dcd	0.2370765581170943
126	0xbfd04c2dbf3b65a4	-0.25464957880975647
127	0x3fdee425ae2a1e44	0.48267499931577995
128	0xbfdcbb54f7842404	-0.4489338318967955
129	0xbfd85d1d0403955d	-0.38068318740837076
130	0x3fd0c824ec582628	0.26221583443165963
131	0xbfc60f9ece8b1edb	-0.17235169491890798
132	0xbf9139edbdce6090	-0.01682254286751622
133	0x3fccde1755f442ec	0.225527684182928
134	0x3fca330d69aa2f6b	0.20468299540913945
135	0xbfc615ad43b886f2	-0.17253652388267643
136	0xbfd7aede06eadda5	-0.3700480525544328
137	0x3fd208a195192b67	0.2817768054998652
138	0x3fd7ed94482a3bec	0.37387568518982905
139	0xbfd7ca8780b12591	-0.37173640792442436
140	0x3fdf22ab27ef96c7	0.4864910020827264
141	0x3fb7f45a87dd5626	0.09357229058272107
142	0xbfd342ace730b531	-0.3009445436208181
143	0x3f9314a12ab326de	0.018633383017720877
144	0xbfd6995d992b292f	-0.3531106944834787
145	0x3fdf9c7acc8308b6	0.4939257619081546
146	0x3fcc14a3501e59f7	0.21937981998480868
147	0x3fb7e99919a8b88d	0.09340817333642999
148	0xbf720c8bede7c063	-0.0044064966191258185
149	0xbfb52739f5206df5	-0.08262979731119187
150	0xbfc95c78f6f51579	-0.19813453730072775
151	0xbfdb1c61f14f0750	-0.4236073357134176
152	0x3fde24d5bc09ef57	0.4709982239071357
153	0x3fc80d3e7417dcb3	0.1879041735516914
154	0x3f637b187a59e454	0.0023780325016642765
155	0x3fcb25d3baa2734a	0.21209189045921512
156	0xbfdb1d81aa468452	-0.4236759341093307
157	0xbfa7fe4c936a0a93	-0.046862023348713276
158	0xbfb7358862133c6e	-0.09066059488690012
159	0xbfd8b57df76c717f	-0.3860773960348282
160	0x3fdab71fe4166dc9	0.41742703699284484
161	0x3fdbee42f893b943	0.4364173343191348
162	0x3fb233d2c50fabfc	0.07110326109948056
163	0xbfa2e67430cb736e	-0.03691447349203868
164	0x3fcce88bbee9fc67	0.2258467371175101
165	0x3fc0580e83256be4	0.12768727687475157
166	0xbfdc3babcd1567e0	-0.44114203479477787
167	0x3fc7a6d488e4f507	0.18477875408454045
168	0x3fdc93f2b0e985c6	0.4465300300272158
169	0x3fdf4717f62e078a	0.48871420899387685
170	0xbfad9a132996ec27	-0.057816122843597655
171	0x3fc96b92abcc0f91	0.198595365414914
172	0xbfdc647f23558628	-0.4436338276919707
173	0x3fd8bee48a49ed95	0.38665116791499915
174	0x3fa45e4402d2467d	0.03978168997231266
175	0xbfdd94908865a3c3	-0.4621926624300238
176	0x3fd9932f304c2d6f	0.3996084186225834
177	0x3fdab2c350fb8917	0.4171608248563116
178	0x3fdf81957d0e2fb5	0.4922841759914676
179	0x3fc17f240e44e488	0.13669253060087194
180	0x3fab2b2d9ee83c2f	0.05306379856858034
181	0xbfd7c663ea9beb87	-0.3714837828735473
182	0xbfd30d36f497ba5a	-0.2976815594292127
183	0xbfdbd9e64939bfd5	-0.4351745333760822
184	0xbfca07a2d8522963	-0.2033580356840715
185	0x3fd785c0734f0386	0.367538559537984
186	0x3fdb19fa201ae19d	0.4234605134511414
187	0x3fc35a47b55e7fc4	0.15119263034739394
188	0x3fdcec8bb86c6777	0.4519376088152209
189	0xbfcc79552bd54d3d	-0.22245278015416572
190	0x3fb768f727d7ad7d	0.09144539568631234
191	0xbfc92be53d6f3ffb	-0.1966520833943831
192	0x3fd108411d655526	0.26612880583464216
193	0xbfd5a58fcbc8c28b	-0.33823008442690455
194	0xbfd6f89fb075fb64	-0.3589247916460663
195	0xbf9c5a0aa2930415	-0.027687231228586812
196	0x3fd278933855e2e3	0.28860931874764456
197	0x3fcb156a0dfbf7fd	0.21159101183724252
198	0xbfd2a86a256e3a33	-0.29152921347932476
199	0x3fd4d1787d680866	0.32528507467953316
200	0xbfa9dc4a4b014428	-0.050508805900456644
201	0xbfd85f405688476b	-0.38081367922233395
202	0x3fd7022252a03751	0.3595052534955033
203	0xbfb437651a3b57c9	-0.07897025957512861
204	0xbfd3ae507d2fe1b5	-0.30751430726334245
205	0x3fd8023c8ad10eaa	0.37513650471030735
206	0x3f86517469bc9d4c	0.010897550083952233
207	0xbfd5474b24cfa2c7	-0.3324764117701701
208	0x3fd720f516ddb7f6	0.3613865588475841
209	0x3fc8c9aae381536f	0.19365440472270332
210	0x3fc774975945a0c5	0.18324558123572934
211	0xbfd24d05930b0819	-0.2859510360686968
212	0x3fd5321665991ab1	0.33118209764181034
213	0xbfd35b0103a150af	-0.302429441018158
214	0x3fce39db48e468e0	0.23614064273062407
215	0x3fcfefd8793763ec	0.24950700682418814
216	0x3fb58116ae0f8cbe	0.08400098561792199
217	0x3fd17350e4b4ab06	0.2726633294538917
218	0xbfc5c4d13b3fcf37	-0.17006888764410075
219	0xbfd27281a6a1b42c	-0.28823891899702647
220	0xbfd8de38fbe4ef2f	-0.3885633907227541
221	0xbfcf37cb39e4edc1	-0.2438901932417661
222	0xbfb1e381cee8f3d0	-0.06987773229134508
223	0x3fd204ee829328f7	0.2815510058541259
224	0x3fd91b421a28ce3f	0.39228870920780773
225	0x3fb6367d06c65d66	0.08676892676736755
226	0x3fc75451c8715d02	0.18226072585341774
227	0x3fb663b72d808c3c	0.0874590383614739
228	0xbf9cbfb9da245fc2	-0.02807512659009582
229	0xbfd1cc667f7f2aec	-0.2781006093106686
230	0x3fc2a3c4e2585e9b	0.14562283565532116
231	0x3fd92a9766dcc956	0.39322457356606344
232	0x3fc1a21b5de0722a	0.1377596100218324
233	0xbfda068904dc6a15	-0.40664887880999007
234	0xbfd06ed056a2c266	-0.2567635389378097
235	0x3fdd56e0c944c71e	0.45842761664526843
236	0x3fdf216ca309773c	0.48641506120280886
237	0xbfcf232beb80740f	-0.2432608508978835
238	0x3fd024f452af5b4f	0.25225551676469576
239	0xbfd136b5567a1a2a	-0.26896413273826403
240	0xbfd5f377139948d3	-0.34298493303243766
241	0x3fdb720617e0a78d	0.4288344605616821
242	0x3fd972a92f7a0f93	0.3976233447685839
243	0x3fad338ac1ea1427	0.05703385941618704
244	0xbfde2678a4550b9d	-0.47109809921328766
245	0xbfd938134db0e8cd	-0.39404757105843374
246	0xbfc39d2a5a08b01d	-0.15323380848110527
247	0xbfc196e5cd3f9677	-0.13741753122228648
248	0x3fc05b0748a223dc	0.12777796789694562
249	0xbfd7fbd8d6924e8b	-0.374746522467128
250	0x3fdd47ccab39102a	0.4575072929476415
251	0xbfaf8a5fa8766558	-0.06160258227755361
252	0x3fc11ff6d9674b4a	0.1337879716434947
253	0xbfdddbd6d52f1853	-0.4665429193377168
254	0xbfcee5c487fc7d30	-0.24138695373492558
255	0xbfd7524bdc451075	-0.36439796934815344
