model/500_200/Theta3.npy (npy, 16208 bytes, 1 tensors)

array f8 [10, 201]
0.0328786604485526 0.3449908438747561 0.04048988201439493 -0.335688566793141 0.039370565388642115 0.39424126678784077 -0.07171330268707599 0.1662623422367528
0.11905000750680107 0.36876716691019945 0.10913106945162797 0.444020712775435 0.1890438301128649 -0.3016534310047828 -0.19425242914132065 0.30657710948108213
0.24041333264670947 0.09159475867312081 0.16195853847943856 0.21695773096890417 -0.27350736465511205 0.42915928850942386 0.05910761853100422 0.06982556220113782
-0.22209247904915225 0.39916812563141224 -0.2396474600973552 0.44863771089809545 0.10384153860595459 -0.27433092330745407 -0.363247832616845 -0.4070662033972118
-0.28820247265435855 -0.3747201371891835 -0.1992323649781994 0.002162405732236289 -0.2042428053817905 -0.3237865661176187 -0.36089327271490174 0.19957126936859595
-0.48050149443319623 -0.44574387754961975 -0.3591312055987874 0.13340645210273766 0.17780008613848242 -0.1410162168905159 0.42362230059881517 -0.4695316513196701
-0.4158315221330349 0.2219930624948462 0.35146940176607183 0.2698544055415779 0.3146909590580655 -0.44716015046810914 -0.13459136183116996 -0.43632832822251666
0.4323652606634613 0.1593648916471346 -0.1453727494079524 0.17501579181143437 -0.2900797661809044 -0.40894374890898977 0.21360681596655007 -0.05529516512595133
0.05186791687881287 0.2940295508641061 0.20063887352942272 -0.48847736074598286 0.46642093742907365 -0.04917097617093455 -0.39530013990635926 -0.017330617022948424
0.39437589258057554 -0.27665342356751665 -0.10847067258662509 -0.2636888682539586 0.3157145959621729 -0.04041684362029655 0.04651490725814784 -0.2416270225955033
0.3615957315295488 -0.3492642385331794 -0.26117517955404673 -0.05870702108041653 0.3047874833806801 -0.09331070847357417 0.4640022876791714 -0.1325704348046059
0.4889684038570961 -0.3638429155493656 -0.18527347055080293 0.034593922177258 0.3144391872550847 -0.0008449933186850681 -0.09403150027181714 -0.3301908024247622
-0.18539620878537968 0.20671891403287068 -0.25066329379766544 0.07808853390461201 -0.15465155426914362 0.36011899501678546 -0.023347474080399847 0.40125472150350044
0.324548109710478 0.28663237517006857 0.23420705924900273 0.38152914343158895 -0.1404594175987332 -0.478291763520378 -0.4335169316803842 0.2819901480495011
0.07193597809009111 -0.06980711059556864 -0.011802916608448573 -0.25296471393321335 -0.16580313672653568 -0.05161401520523229 0.010023022850246468 -0.0922772427476384
0.30871578941308 -0.2763206272077729 0.31930832851272223 0.07795346842967073 -0.393519482816856 -0.1421982868709179 0.14829103705630714 -0.12279727137795564
-0.18607002142400766 -0.3540396386303011 0.4712092812436399 -0.418600207322327 0.3852587890577937 -0.16096839010350467 -0.013875257444069701 0.1479666431401416
0.1962294009092304 0.23158932125728765 -0.27133787108654084 -0.037226875301823226 0.3400614624268342 0.035694157994886205 -0.442325137903054 0.30954370974284806
-0.13690433432012192 -0.13311412594822034 -0.23140589781927381 -0.3745133637965309 -0.21229384510855007 -0.32665909029742046 0.4616518327773586 0.12098126164982027
-0.09731148534578404 -0.007182887502593299 -0.4759993123241895 0.40767211236359335 -0.024561935500582072 0.06276166825702173 -0.0037738794340003603 -0.19252322246559195
0.2248722687388386 0.4073746116241212 -0.2570038721789253 0.3151216734192388 0.2502667465841005 -0.3784945984328528 -0.38919480142033164 -0.39982344272199183
-0.4680902422298643 0.03046678772102035 0.24062972461272467 0.201591707453723 0.46168978837176017 0.42336080347896293 -0.08090346267964899 -0.03383692710207039
-0.3315732328176657 0.12987782025333575 0.24207563920223107 -0.4113969571430186 -0.08088237830334565 -0.005440082792716389 0.07704063064983811 0.44126303874650263
0.07576316643689548 0.09063892816379258 0.3880643244637055 0.3513018823489775 -0.3065529296216275 0.39245594423023333 0.4887977295214492 0.2778680224452246
0.36666289682727937 -0.2828751535976765 -0.3383953759490075 0.32297964561300435 -0.20914782899267964 0.4430790663008589 -0.20279901814058635 0.3134563321892969
-0.05520839491569269 0.21588521753981046 0.21103966027868432 0.0649081023970096 0.32983929521888844 -0.40257631797884275 -0.3532919660472935 -0.3080236464013354
0.4656509420415349 -0.00014038432158753141 -0.42787596639761843 -0.11272366113740936 -0.1145737450180048 0.27629435071160585 0.21392096819225356 0.241809994622489
-0.05461705826766838 0.29511134732259875 0.3026239406130051 -0.10879913579659312 0.3157943024672605 -0.11134068497245157 -0.009419588949828833 0.00530985581794718
0.3997230825685512 -0.4660355205156558 0.36435056409605493 0.3732378079149058 0.07914523238708131 0.24793259499840797 -0.02103837453372642 0.42876698436114924
0.12874642919463916 -0.4419316414607933 0.08136464676576427 0.483685832857457 -0.4328536497347064 0.4042075970937005 0.4464993014139922 -0.07355084781905508
-0.1650272559667259 0.3113527586907693 0.4103780759222871 -0.27753559979712317 -0.47566153723735544 -0.11202992492753347 0.3058609507220058 0.35991061719527956
-0.3640242427846594 -0.32672092837364985 0.34060063013119024 -0.10437466829046382 -0.2945712757702711 0.28056643044077406 0.16992608768179296 0.3503849361407605
00000000: d2c3 b9c6 78d5 a03f 2223 f779 5414 d63f
00000010: 0b36 24fe 16bb a43f 3721 01e6 eb7b d5bf
00000020: ccda 89f5 6028 a43f c097 e5b8 3f3b d93f
00000030: f0a8 ba91 cd5b b2bf 8e4a 3b9d 1548 c53f
00000040: 418c d4b0 0f7a be3f bff1 6d9a e199 d73f
00000050: f7b1 4586 03f0 bb3f 9c7e 07da d56a dc3f
00000060: ee33 ec95 9632 c83f 2e12 3931 4a4e d3bf
00000070: cb4e 2a7b 43dd c8bf f519 bb98 f59e d33f
00000080: dfb7 9e34 ddc5 ce3f d66e fc0c c172 b73f
00000090: eddf 09b1 0ebb c43f 891a 905b 45c5 cb3f
000000a0: a42a 9a08 2581 d1bf f20b 3b85 5877 db3f
000000b0: 81f9 1191 5a43 ae3f bb25 148a 16e0 b13f
000000c0: fe11 1abf 866d ccbf 7e52 4c77 f88b d93f
000000d0: 7603 d899 c4ac cebf dcd0 03f2 7ab6 dc3f
000000e0: c165 47ec 5b95 ba3f 99c4 f849 a38e d1bf
000000f0: aea9 5bd6 733f d7bf 5677 b967 5f0d dabf
00000100: c350 abc8 e871 d2bf d054 982b 6afb d7bf
00000110: cc6b f135 7280 c9bf 5a06 d2bc e4b6 613f
00000120: 436f c7d4 a024 cabf 00ff 164a ebb8 d4bf
00000130: d90a ea18 e018 d7bf cd64 9425 8d8b c93f
00000140: d442 1157 89c0 debf 2ef1 1d54 1187 dcbf
00000150: 2045 c173 01fc d6bf aaa6 6d6e 7613 c13f
00000160: fc6a 9839 27c2 c63f 640d e0c3 d10c c2bf
00000170: 8167 bbb5 a01c db3f 00b6 b67b ce0c debf
00000180: 2944 0dd1 fb9c dabf 0558 adc7 446a cc3f
00000190: 5151 8884 797e d63f e4e2 9e69 4b45 d13f
000001a0: bf14 608c e523 d43f 1d70 959b 459e dcbf
000001b0: 05ca b12c 4a3a c1bf 162e 02a7 cdec dbbf
000001c0: 1f78 9e57 dfab db3f b7a4 e09a 1166 c43f
000001d0: b7e7 3702 939b c2bf 418c 0edf ea66 c63f
000001e0: a79c 3eb9 aa90 d2bf 90ef dd66 222c dabf
000001f0: 08b7 63d8 7757 cb3f 0f8e afdb a54f acbf
00000200: 308c 697d 6e8e aa3f ba35 4152 61d1 d23f
00000210: 42bd 0edc 88ae c93f 8f62 4f8c 3643 dfbf
00000220: b65c 1b34 d7d9 dd3f 0c14 222d f02c a9bf
00000230: 6221 40f5 984c d9bf d30e 5505 1ebf 91bf
00000240: 6bb8 3d62 743d d93f 8021 a38f b0b4 d1bf
00000250: 7dad 55e7 bbc4 bbbf 8f14 5e46 47e0 d0bf
00000260: b2c0 21fe aa34 d43f 650a 1d3b 84b1 a4bf
00000270: f982 e64a cdd0 a73f 3953 f05f a2ed cebf
00000280: 18ba 526c 6224 d73f eb63 8a64 585a d6bf
00000290: 2d8a ad19 18b7 d0bf 7804 2cbf d80e aebf
000002a0: 1969 565c a381 d33f 1ab6 42e9 35e3 b7bf
000002b0: 787a b6a6 36b2 dd3f fe7d f368 11f8 c0bf
000002c0: b1fc d521 424b df3f b79c cacb 3349 d7bf
000002d0: d582 6a84 0ab7 c7bf e28b c868 4bb6 a13f
000002e0: a4d9 758a c51f d43f 0dc5 a455 51b0 4bbf
000002f0: c615 76ca 7212 b8bf b0ad 769a d821 d5bf
00000300: 558e c41e 10bb c7bf 302f 9eef c375 ca3f
00000310: 8dca 4a0e de0a d0bf f019 5033 9cfd b33f
00000320: fa46 ee43 9fcb c3bf a2fd 908a 300c d73f
00000330: c464 7a76 66e8 97bf a347 8e48 28ae d93f
00000340: 0ed9 4b6f 65c5 d43f c422 5551 2f58 d23f
00000350: 23c0 fb35 7ffa cd3f c29c 6036 f96a d83f
00000360: de39 80fe 92fa c1bf 3f09 910e 559c debf
00000370: cc16 f5cc bdbe dbbf f1ac ea67 200c d23f
00000380: a87e 4d71 656a b23f df45 09f9 e0de b1bf
00000390: 0447 a5a6 202c 88bf 3fa6 58e9 9230 d0bf
000003a0: ac47 e884 0939 c5bf 68b8 a4f6 266d aabf
000003b0: fb7b ca5a f386 843f 1223 c43b 7b9f b7bf
000003c0: 9e6e d2de ffc1 d33f 6f53 44b6 3caf d1bf
000003d0: 3f5d 1333 8c6f d43f 6de4 832d c2f4 b33f
000003e0: fc61 4257 6c2f d9bf 6633 d4af 8d33 c2bf
000003f0: 8a2f 3961 33fb c23f 2b3a 9b58 a46f bfbf
00000400: e91c 6478 24d1 c7bf 44e8 59df 95a8 d6bf
00000410: a0d6 20f9 4a28 de3f f115 2386 58ca dabf
00000420: 81fc df7a 14a8 d83f e297 97b9 9c9a c4bf
00000430: 011f 9187 a16a 8cbf a7c8 972a 92f0 c23f
00000440: ce9b b585 0b1e c93f d691 7308 b8a4 cd3f
00000450: c4e8 9e84 995d d1bf 603e e8a7 660f a3bf
00000460: 3234 f026 91c3 d53f 241a 7e32 8146 a23f
00000470: f581 5f18 0e4f dcbf 8ecb 816b 90cf d33f
00000480: 17f4 4acb 1486 c1bf 53a7 ca38 e209 c1bf
00000490: 451e 9e5d b59e cdbf 7ef2 5ae6 06f8 d7bf
000004a0: 5f10 f1d8 712c cbbf a02f 7187 fbe7 d4bf
000004b0: abb3 fa20 b48b dd3f f1fc 36c2 a0f8 be3f
000004c0: e8d7 15cf 67e9 b8bf 60bb a1ae cd6b 7dbf
000004d0: e174 d6d1 c576 debf 98f1 85c5 4c17 da3f
000004e0: e54b ce96 c326 99bf 1c37 9b10 2611 b03f
000004f0: 6742 f017 66ea 6ebf 78e9 1ad8 99a4 c8bf
00000500: 7c5c 0150 9dc8 cc3f 035d 89f6 6c12 da3f
00000510: da0b 7d5e c072 d0bf cc2b 6618 f42a d43f
00000520: d5b8 f6d0 5e04 d03f 16d5 7e68 4139 d8bf
00000530: 0fe8 f74f 91e8 d8bf bd90 aa10 b596 d9bf
00000540: 180e 7dc6 30f5 ddbf d0fa 8083 af32 9f3f
00000550: 1f1d d46e f4cc ce3f 084b 54cf c1cd c93f
00000560: 390c 7d53 538c dd3f 6d6d 56e9 5718 db3f
00000570: a09d 57de 16b6 b4bf dbde 99de 1253 a1bf
00000580: 5893 cbef 7e38 d5bf 395f 3b1f d69f c03f
00000590: 9414 c4a4 55fc ce3f 7a9a 26e7 5354 dabf
000005a0: afb4 a221 b5b4 b4bf 2d7e ea1a 5748 76bf
000005b0: 6fb1 1a4d efb8 b33f 4863 1654 a73d dc3f
000005c0: b67e 1602 3765 b33f 573e 35e0 1c34 b73f
000005d0: 7d38 94bf 0bd6 d83f 0493 ede3 ba7b d63f
000005e0: bef1 cd2d 909e d3bf dcbc 6589 ff1d d93f
000005f0: dcd5 a945 7648 df3f 6969 40f5 96c8 d13f
00000600: 08e8 a1a7 6777 d73f 4f64 6363 a01a d2bf
00000610: 2464 3414 45a8 d5bf 159e cbd1 b2ab d43f
00000620: 62c7 c626 5bc5 cabf 5e7b d34c 685b dc3f
00000630: b990 4977 51f5 c9bf 8089 de25 ab0f d43f
00000640: 994e 4155 4644 acbf 87fc 8276 20a2 cb3f
00000650: b627 87fb 5803 cb3f 2763 0a41 d19d b03f
00000660: f4a6 7946 161c d53f 1a3f f775 cfc3 d9bf
00000670: f435 07e8 559c d6bf ce0e eccf a8b6 d3bf
00000680: 04e1 da9b 39cd dd3f 86c8 e223 8466 22bf
00000690: c504 9be0 5162 dbbf 2e10 1236 75db bcbf
000006a0: 8a23 d577 b454 bdbf c50e 1880 ceae d13f
000006b0: c73d 2825 c361 cb3f 79f0 5f41 a1f3 ce3f
000006c0: ff70 205e c4f6 abbf b375 5bb4 1ae3 d23f
000006d0: 24d9 facd 305e d33f 8c55 149a 42da bbbf
000006e0: 800a 574e f935 d43f 4bc1 abb8 d280 bcbf
000006f0: 30a8 d9d3 934a 83bf fb59 5a91 c9bf 753f
00000700: a5a5 c51f 1095 d93f aae6 d8a5 86d3 ddbf
00000710: dc96 4407 8551 d73f 1a04 a8d4 20e3 d73f
00000720: 2ba1 bca8 dc42 b43f b2b6 9059 41bc cf3f
00000730: cf5a 556a 158b 95bf 2ce2 db13 eb70 db3f
00000740: 9712 6f53 c37a c03f b111 c9a6 9b48 dcbf
00000750: 40d8 e840 50d4 b43f bd52 6a6c b5f4 de3f
00000760: bc25 64cb dfb3 dbbf e5fa 938a 89de d93f
00000770: e8a2 50ce 7193 dc3f 88d5 f975 3ad4 b2bf
00000780: d2b0 a9f5 9c1f c5bf b228 061f 34ed d33f
00000790: 6539 c567 a243 da3f 4cae 26ad 24c3 d1bf
000007a0: dd91 9916 3d71 debf 06b2 bc3f fead bcbf
000007b0: ec5d 1ecf 3993 d33f c98f 958a c608 d73f
000007c0: 8c85 6d56 2c4c d7bf 4026 92e5 fee8 d4bf
000007d0: e244 da95 66cc d53f c0a0 d65a 4cb8 babf
000007e0: 528e f17a 41da d2bf 314f c6e6 ccf4 d13f
000007f0: c84e aa56 23c0 c53f 5014 6ff0 b46c d63f
