model/800_100/ini_Theta2.npy (npy, 640928 bytes, 1 tensors)

array f8 [100, 801]
-0.20617748644397882 -0.348316955178379 -0.4823301898332969 -0.3074507143051619 -0.06726766057178624 0.16405481773546327 -0.15599618109474034 -0.12957207908011625
-0.3308292440365712 0.30458049024577716 0.21878173407650925 -0.17899075904623585 0.3863265305377116 -0.31987937133189925 0.09646908342118898 0.4436107527566274
-0.43646857979489184 -0.24709912706345794 0.4867112624548561 -0.3483565052199108 -0.4589880535499452 -0.22440323311900012 0.47801362067828923 -0.11171784699183007
-0.04819472500581867 -0.3375261070150376 -0.1256353815332243 -0.08419585050298994 0.4204879381462605 -0.1323067909189133 0.08436645280092114 -0.3597905328706348
0.23062187057260908 -0.41986408487628835 -0.3650950904656368 -0.12972901734258369 0.0945856377358053 -0.23342781509586685 0.27292879000133285 -0.04275901620384759
-0.01347279401227608 0.22656831885776485 -0.43051187093516474 0.16692700883453704 0.09002286183753483 0.045532700628775236 0.2876502080826635 -0.19024513813951383
-0.01839849025865825 0.29273657624767147 -0.2293892871776687 -0.0835639755087999 -0.13182418609061808 -0.39238952681286743 0.1713076617428042 0.4280821058720937
0.2718112141045943 -0.35706652569428643 0.359954749198626 -0.463809918815816 0.30671293625687135 -0.18090268108003904 -0.09363096506079427 0.02177263205244606
0.40278148845255846 0.07418052602962466 0.3306466466086615 0.12840140327039407 0.21072470432581103 -0.355513681130891 0.27871476282943786 0.381696233515733
-0.16215794006709827 -0.2519226717961459 -0.4891731629822077 0.03778087078095749 0.4274802840835389 -0.36618064934682026 0.39274743230247566 0.14266882619595744
-0.014691477245017959 -0.03330144743926822 -0.05909045790988243 -0.1987155157252024 0.462052159974248 0.1573105037540582 0.05714464082221227 0.456034714088129
0.49365390362340167 -0.1630392037076015 -0.4010406560284887 0.4747895240040574 0.4555693572129621 0.2974135771879962 -0.26436475980344354 0.1476623977734346
0.37319665400725976 -0.39946338675143955 -0.07786158767752638 0.4990006245471944 -0.26908671660734973 0.3910737599077331 0.26546239054006415 -0.09881020772445448
0.2722046995082952 0.4399814837650675 -0.32537764494176824 0.38034982857322586 0.45352682816094747 0.03936156260437851 0.3897815374325092 0.3454972583132271
0.3915793202888538 0.33670297623352974 -0.1080998752146416 0.03249887798938833 -0.3473186054203893 0.14296141970973197 -0.4609322467490673 -0.09535352667485142
-0.14503975019156023 -0.11055604785099415 0.2689590195541739 0.4670675885274008 -0.07759746788744504 0.24282078020750053 -0.10083146563931333 0.07664969242999631
0.1335675754259924 -0.4888560001680815 -0.19649389109595317 0.209656161265522 0.051177601414482465 -0.3392644159989623 0.13803403862179975 -0.04006665357664663
0.2798398906353996 0.3611447490574089 -0.33249223067817846 0.29762252208135 -0.2117207772617542 0.3319608989368794 0.05484858448214991 -0.1523210921963838
0.2067275768449509 -0.12787331539015767 -0.45114850548334173 0.38657676415887043 -0.3222674850442777 -0.0929237537678278 0.3702918624858498 -0.4653598884004484
0.10572715941367383 0.46278460373004116 0.4724328602768687 -0.4860822617800197 0.286794502200874 -0.43837559861316744 -0.34205652407569687 -0.10977009512246994
0.2846795474708639 0.06620244833753275 -0.27945901143455054 -0.061536966016155215 -0.4311493386088321 0.14325554949564223 -0.42830849293787254 0.043280263366473726
-0.4678340117091564 0.17158405580837077 -0.246005531497397 0.2961094191761354 -0.19578668407939792 0.356439052456049 0.3658860378869977 0.3919545672868614
0.27024546022790774 -0.15089348832191207 -0.056638727034068914 -0.4262232222284801 0.3145744427365156 -0.1790543788118132 -0.13248384597128215 -0.04234670137771701
-0.46342389949595386 0.05347438789220693 0.29520272567768324 -0.1713824606842227 0.05015158908517803 0.30694488004925524 -0.4175675547298857 -0.32711909771993974
0.2870138128394252 0.15555724333683574 -0.22373127939914816 -0.3121319048795398 0.02612980309501467 -0.0013342863682888062 0.3044178892654934 0.1184944649925298
0.1958958469451758 -0.08895979031087098 -0.21676836818094047 0.11537602191982854 0.1551245741820455 -0.34850945257024024 0.4946789928920946 0.27842317364105107
-0.22553152947811128 -0.42310621524445347 0.37912090742415394 -0.32352800951919214 0.1883370397091214 0.4501386745763638 -0.265915629217116 -0.12228150722776288
0.24426719297300814 0.380916172216498 0.49686991815125914 -0.4042666765693881 0.06611743244219237 0.4809009504603413 0.3976287429047044 0.45554980248155574
-0.29848990081202675 -0.4011533468293623 -0.29634634942696714 0.48375494958973075 -0.283484258096783 0.14961914240861796 -0.06137564083276259 0.30141330947160483
-0.28104298157749796 0.2724976492332212 0.10656755331059553 -0.40546805784480555 0.4450265899148136 0.09752148013909845 -0.2629204782707165 0.45734153506481356
0.4390506553832326 -0.19109239173917536 -0.4038455805201898 -0.35933242849579505 0.2613259026939343 -0.45499024789142073 -0.05091876385647143 -0.12864271544750605
0.04081924696798778 -0.1747870602180278 0.2466330300518328 0.17879996939553444 0.38414210451986086 0.27892754627944605 -0.0289408520694745 0.3832788119197743
00000000: 4464 b91c 0664 cabf 368a c832 d34a d6bf
00000010: 6247 cd71 7fde debf 00a4 c4c2 45ad d3bf
00000020: d8f7 3b12 7438 b1bf 3868 768e bfff c43f
00000030: a828 0dd0 aef7 c3bf 80d9 0f61 d195 c0bf
00000040: 74a3 ec6b 4e2c d5bf 94bc 262b 3f7e d33f
00000050: 300f 6934 0a01 cc3f f0e4 3150 2be9 c6bf
00000060: ba24 8fe9 92b9 d83f 6846 a253 e778 d4bf
00000070: 807d 5ea6 32b2 b83f 1298 cf5a 1e64 dc3f
00000080: 12d7 fce8 19ef dbbf 20c9 cdb6 f1a0 cfbf
00000090: a6a9 b5fe 4626 df3f fa2c 5115 794b d6bf
000000a0: 0a1c d06d 0f60 ddbf 3c6f aec1 3eb9 ccbf
000000b0: 74c5 f670 c697 de3f 009e 3573 8a99 bcbf
000000c0: 90ba 7a9f faac a8bf 0640 cb19 079a d5bf
000000d0: 58ed 73f7 d114 c0bf f886 5ef8 db8d b5bf
000000e0: 9cd7 ac3d 46e9 da3f 6089 04ce 6def c0bf
000000f0: f0d3 a833 0a99 b53f 1cbf 05df ce06 d7bf
00000100: 8804 ed77 0485 cd3f 8ac0 539c 0ddf dabf
00000110: 7eb9 5ecc b75d d7bf 0410 6adf f59a c0bf
00000120: 5820 bfac c336 b83f 3820 e86f f6e0 cdbf
00000130: 2c53 cc50 aa77 d13f 20c9 6880 82e4 a5bf
00000140: 0007 59cd 9f97 8bbf ece2 e6cf 3000 cd3f
00000150: 1c34 8da9 818d dbbf 64b8 e13d dd5d c53f
00000160: b80a 7cff bc0b b73f 90c3 32e8 0f50 a73f
00000170: c4c4 196b dc68 d23f 981f 44e3 f359 c8bf
00000180: 40ac d3c7 0dd7 92bf a0e9 5431 32bc d23f
00000190: 248c 3dcf a05c cdbf 481d efdd 7264 b5bf
000001a0: f45e 0a6c 9ddf c0bf 4c11 3df6 e81c d9bf
000001b0: 60aa 5ed2 68ed c53f 0a4d 2e7d b265 db3f
000001c0: 74fa d0dc 5a65 d13f 889c 968e 2dda d6bf
000001d0: 5245 f6a4 7f09 d73f 44f5 37cc 0faf ddbf
000001e0: f2ef 9e4b 2fa1 d33f 9cad 7fad d127 c7bf
000001f0: 503b d4ec 32f8 b7bf c0cf 739a 904b 963f
00000200: d0a0 1502 2cc7 d93f d01c 4cb5 7efd b23f
00000210: 60d7 6d8d 5029 d53f dc46 e709 756f c03f
00000220: c4f1 c4f0 06f9 ca3f 4837 6f74 bcc0 d6bf
00000230: 02f3 d071 76d6 d13f 8436 fd09 b66d d83f
00000240: 38fd af64 97c1 c4bf 9a10 1f45 801f d0bf
00000250: b6b9 45f4 9c4e dfbf a054 d6a8 0358 a33f
00000260: aeb5 f443 d65b db3f 48d9 57f6 806f d7bf
00000270: 52ef 5420 c622 d93f e0cd 55db f842 c23f
00000280: 80d4 60b2 9016 8ebf 507e 5227 e30c a1bf
00000290: 500c 75c0 1a41 aebf acae 9f90 826f c9bf
000002a0: f0ac 0839 4392 dd3f 8c71 7826 c022 c43f
000002b0: 0036 f2f6 0f42 ad3f b259 b639 ac2f dd3f
000002c0: 5abc e68a 0698 df3f 84ec f1f7 77de c4bf
000002d0: 448f 806d a6aa d9bf 602c 8599 f362 de3f
000002e0: c285 9260 0c28 dd3f 082a daf4 d208 d33f
000002f0: 1c86 642b 5aeb d0bf 9096 a4f8 99e6 c23f
00000300: 0c05 fc37 74e2 d73f 4eff 82e1 ce90 d9bf
00000310: 708a b0ac bcee b3bf 1648 c750 a0ef df3f
00000320: 2a76 e77d b738 d1bf 7628 483c 5a07 d93f
00000330: e800 6cf7 55fd d03f e8ff af32 a04b b9bf
00000340: 2029 8d42 cd6b d13f 1075 e718 a828 dc3f
00000350: 14f6 f7c1 fcd2 d4bf b0b7 b0ce a657 d83f
00000360: 18d5 b363 9506 dd3f f0e4 35e0 3227 a43f
00000370: cedc f642 2ef2 d83f c607 5488 a01c d63f
00000380: e88d 9bb5 a20f d93f 56e3 d8a3 8a8c d53f
00000390: 10a2 bff4 6eac bbbf 1003 3e64 b1a3 a03f
000003a0: 66aa e4d0 773a d6bf 901b 1f4f 8f4c c23f
000003b0: 0461 5df7 e97f ddbf b872 a0b6 1669 b8bf
000003c0: 64ac d89b a990 c2bf c020 e5b1 664d bcbf
000003d0: fec2 3ce4 9f36 d13f 1acb 6f74 6fe4 dd3f
000003e0: 7838 d47a 6ddd b3bf c4e4 e356 c014 cf3f
000003f0: 081f 5447 17d0 b9bf 283c 3c72 509f b33f
00000400: 005d 2108 be18 c13f cc37 4bad 6a49 dfbf
00000410: cc79 0f3a b626 c9bf 2c29 055a 03d6 ca3f
00000420: 60d1 b958 f333 aa3f 8e5f da18 82b6 d5bf
00000430: 70c6 ce70 19ab c13f 1031 8bcd 9d83 a4bf
00000440: e84b 9992 e5e8 d13f 78b7 94dd fe1c d73f
00000450: 96f5 3b7e 8d47 d5bf ac1d b955 3f0c d33f
00000460: 2089 1c9b aa19 cbbf a404 1fed d83e d53f
00000470: 305b 2a19 1d15 ac3f 68bb bcee 417f c3bf
00000480: 747d dd9a 0c76 ca3f 80df d01d 275e c0bf
00000490: b82c 2cfb 9ddf dcbf b42c dd77 acbd d83f
000004a0: f013 35cd 07a0 d4bf 1052 74e3 d9c9 b7bf
000004b0: 8081 d6a3 dcb2 d73f 6c35 63d7 74c8 ddbf
000004c0: a80f fb63 ef10 bb3f e038 8750 439e dd3f
000004d0: 0e79 1c09 573c de3f 82b2 60c6 f81b dfbf
000004e0: cc05 e853 d75a d23f 4c1c da86 580e dcbf
000004f0: ae77 120c 41e4 d5bf b83b a198 e419 bcbf
00000500: 608e 8e90 3038 d23f 705b 86c6 a4f2 b03f
00000510: c4c4 ab0c a8e2 d1bf 70a3 11f1 c581 afbf
00000520: f015 4165 f397 dbbf 10f3 06a6 3256 c23f
00000530: f619 7106 6869 dbbf 804a 71a7 d428 a63f
00000540: e4d3 0f11 fef0 ddbf 8822 1b62 77f6 c53f
00000550: 304d 35f8 1b7d cfbf 268a d9eb 74f3 d23f
00000560: 8c80 8ebe 890f c9bf ac38 54be e5cf d63f
00000570: 3869 b245 ad6a d73f 24f4 009c c815 d93f
00000580: b690 649d b34b d13f eccf c252 7a50 c3bf
00000590: 80c7 9850 c0ff acbf 8c17 11c4 3d47 dbbf
000005a0: 147d edd7 fc21 d43f 0ce6 99fe 40eb c6bf
000005b0: 64f4 d80c 3bf5 c0bf 0084 0583 77ae a5bf
000005c0: 4046 21b7 bca8 ddbf 105f 57b6 fe60 ab3f
000005d0: 0472 1ef9 99e4 d23f 4095 df47 dcef c5bf
000005e0: c031 ed15 78ad a93f ce1d 5f23 fca4 d33f
000005f0: 0ae0 db43 6db9 dabf b6aa a6f0 84ef d4bf
00000600: 7251 e92e 6f5e d23f d8d0 64bc 4ce9 c33f
00000610: 4048 0e00 3aa3 ccbf 4abb df18 f8f9 d3bf
00000620: 20dd f966 c5c1 9a3f 00dc 2d14 67dc 55bf
00000630: f49b ad2b 957b d33f f861 e63b a755 be3f
00000640: cc9f 0678 1d13 c93f 4051 0b9e 11c6 b6bf
00000650: 907c 12de 10bf cbbf e063 e370 4889 bd3f
00000660: d87a 753e 1fdb c33f f6b4 4897 fa4d d6bf
00000670: 4658 1f14 d2a8 df3f 7228 4f6e afd1 d13f
00000680: 00a5 a997 37de ccbf 9664 4d17 2c14 dbbf
00000690: 2076 a756 8443 d83f e064 0ed3 aeb4 d4bf
000006a0: 6c8b 1699 6d1b c83f e418 7e71 12cf dc3f
000006b0: cae5 befc c204 d1bf 78e6 7242 d74d bfbf
000006c0: 6403 a7ba 2544 cf3f c0fd 8b39 ee60 d83f
000006d0: ceda 347c b7cc df3f b499 ae56 81df d9bf
000006e0: 78e2 0872 12ed b03f 3aeb b5c7 14c7 de3f
000006f0: 466b aed3 bf72 d93f f6e1 d65b ba27 dd3f
00000700: d021 8b62 751a d3bf 1e09 5416 7fac d9bf
00000710: e0fa c4ad 56f7 d2bf 8206 f151 d7f5 de3f
00000720: 6637 5d28 9b24 d2bf 0813 c055 b826 c33f
00000730: e0a6 4bc4 a06c afbf 6e9e b00c 5b4a d33f
00000740: e452 a9b3 9bfc d1bf 5c63 ecfa 9970 d13f
00000750: 78a3 48dc 0248 bb3f 6407 014c 30f3 d9bf
00000760: b435 62ce 507b dc3f 70dd daef 2af7 b83f
00000770: 1ec5 e769 b0d3 d0bf 042c 0d6e 1545 dd3f
00000780: 6a22 8aeb 6719 dc3f f85f 842a b775 c8bf
00000790: 72f9 3d22 9bd8 d9bf 5807 3271 4dff d6bf
000007a0: 94c2 6a47 90b9 d03f 5053 ac6a 8f1e ddbf
000007b0: 6057 0833 0612 aabf 289b db4f 5d77 c0bf
000007c0: c0b9 8ca5 42e6 a43f b440 b321 6c5f c6bf
000007d0: 14cf 17cf ab91 cf3f 0831 8ada eae2 c63f
000007e0: 8e7b fbc3 c895 d83f e051 4eec f2d9 d13f
000007f0: 8087 a0b4 aba2 9dbf 987d 9cda a387 d83f
