model/800_100/ini_Theta3.npy (npy, 8208 bytes, 1 tensors)

array f8 [10, 101]
-0.26645575184295744 -0.3604579682737967 0.4200061888533084 -0.30429897967881825 0.24067540909163376 -0.3409828887798616 -0.13837525182162136 -0.25805040841976956
-0.11961783051054964 0.11632342161854314 0.15485770783519937 0.0003842212296141234 -0.1491205063610629 0.49024185465694403 -0.35444552446964417 0.05793022303713813
0.01455804405830785 0.042006812796020476 -0.3633101034725944 0.20317048870040277 0.31706081313109824 -0.4116478504539405 0.14972984396138178 0.42470290375044817
0.378674963956223 -0.30733308030217643 -0.48326204427511243 0.2661591058459769 0.0635691400234133 0.19321795407634268 -0.16360199885049864 -0.47577352601507006
-0.2591372961847651 -0.3224545190983097 -0.31917307188720945 0.3159402002409524 0.0712167942645141 0.11102682340195125 0.3139370320949293 0.002913394865840968
-0.21625251986068972 -0.11002793306193315 0.027995792839882516 -0.12646729551067282 0.455217304502727 -0.43627717570712765 -0.04952210761644671 -0.35644045395612445
-0.08258098176973971 -0.07862998379208597 -0.03314690842319867 0.12163632257384083 0.47654462077878657 0.19116930126980836 -0.09499883311570567 0.17017875491414636
0.11523825264578791 -0.38696631996100206 0.12333395861589125 -0.33376794276840693 0.4979009750468132 -0.06580419725547682 0.41660632749029325 -0.26542720825353516
0.264767368269219 0.3711545232014052 -0.07519322147407337 -0.16855825521344403 0.21687124868955365 0.44053795904672144 0.20393497910484304 0.4545270297629319
-0.35066220964154593 -0.07238898098856805 0.37434010672762685 -0.10573560697041362 0.14861743861552046 0.15710217070131816 0.1288551535886564 -0.25466311755153836
-0.2237908582604593 0.42354886634733613 -0.09899119616247876 0.3644327078875852 -0.34118142189765344 0.2718651200337142 -0.2710046410952751 0.39640658351897085
-0.03445378678819799 -0.2798776872418536 -0.10556551696475358 0.07117943425923001 -0.1207093813599267 -0.34346281201296014 -0.18829941130567607 0.4209976202512521
0.32541473139074084 -0.07144542589408065 -0.41806138835861695 -0.44555728756015445 0.2140918569391761 0.22584118303719536 0.4356197031588417 0.01928416531130983
0.06010402514158886 0.26284452900566047 0.14319549148509825 -0.31324997980441793 -0.3374129770348856 -0.03957031990754367 -0.39868572924568946 -0.3745862365894229
0.46437763219889105 -0.039878218547564015 -0.007174431214232779 0.15220527608356982 -0.4829994052777543 -0.42290828528573554 -0.31985774911811327 -0.10268699643304213
0.009608290631391236 -0.16679771281436495 0.31180380060441726 0.036514707790335055 0.3038145432696241 0.027621185816021798 0.1449698055585883 0.47130754180223977
-0.3766209808109898 0.4837746926228046 -0.29604980483873344 -0.405603150865112 0.24755563086286203 -0.36468927301373755 -0.36427697317182184 0.01738518952448531
-0.4667781877603786 -0.3912116688134968 -0.48118190328723387 -0.49244255541574244 0.20014894441979714 0.14878622276338482 -0.0864638410808024 -0.03484748837537999
-0.09158294507022291 0.1933077596978261 -0.4458714886893833 -0.058733912988268244 0.34130585202502195 -0.43437942316630707 0.23243653031957034 0.03252807263625024
-0.4520810215476202 -0.023663855630306596 -0.21974219536035944 0.18058383404678202 -0.3341118595062704 -0.24263808074740345 -0.3952650197689863 -0.09007952566185995
0.02123253203937636 0.3531575173935655 -0.49017411543742284 -0.3988506575024815 0.08518695686578359 -0.07891724463523664 0.012614943373795318 -0.41498244742034884
-0.45696065857245527 -0.0068911817652674845 -0.04545407253352596 -0.22360308156386133 0.3267418058331878 -0.3790983922404385 -0.45674691035121884 -0.037457951286355984
0.053786403951368134 -0.13231938849921399 0.34274477229640443 0.11724398420081883 0.149517931571172 0.15361069953465456 -0.2892384067195224 0.07771029561338072
0.3880286443813178 0.48439550223598604 -0.46585743673348545 -0.004817506020533102 0.4314989300975003 -0.3273930437053362 -0.3897500398240219 0.4336306896431834
-0.10539277640974165 0.013220414070056363 -0.2428689221471726 0.17162336060308248 -0.006458429095356433 0.41275704392964174 0.33323140908059146 0.3243694881423639
-0.3261437480874112 -0.1856396654563509 -0.22347932543618743 -0.16431726152723558 -0.4956469457425817 -0.4203896692107709 0.15172668654473143 -0.41196463003033856
0.4041683521043602 0.363398671299758 0.35627491647469 0.00952757396165893 0.31112753549903926 -0.33501072723743186 0.42063030620576725 0.3353477686904903
0.22846017365912286 0.28129416565565823 0.1147986535628045 -0.4163490109478929 -0.422402916300204 0.17847742384298482 0.170539761650215 0.4661869913427432
0.26861039402247433 0.21556186089444707 -0.20996488857722084 -0.4702799810210506 0.3356421812014163 -0.06164510309851312 0.018422172224919153 0.049687984515966566
0.05080591011238489 0.2429756918766357 -0.24882365958206065 -0.43263024991558263 -0.019209274359786255 0.23979429864936064 0.2741912067012767 -0.48882946414088324
0.1862216443836363 -0.26327628275379666 0.28895470434531845 -0.2003945541472546 -0.04735909999167953 0.3775273328052803 -0.4249543415649403 0.11290390253299032
-0.06580759163775585 -0.3844717672648307 -0.4989777711902611 -0.00866981713784376 0.23273825284880023 -0.37151938519051975 -0.25617364708874335 -0.33234022127135576
00000000: 32c8 ff6c 9c0d d1bf 5463 544c be11 d7bf
00000010: 1886 4fa3 61e1 da3f f04e 7b6d a279 d3bf
00000020: 9cff 7fa9 73ce ce3f f086 f3e4 a9d2 d5bf
00000030: 0427 93be 47b6 c1bf 7a78 38dc e583 d0bf
00000040: 28b0 0f2e 469f bebf 4047 9c2b 5fc7 bd3f
00000050: 28c5 579b 60d2 c33f 0060 999d 292e 393f
00000060: b4ea fd78 6116 c3bf 0872 385f 1f60 df3f
00000070: 56e2 f347 3caf d6bf 20fb c9ba 07a9 ad3f
00000080: 4047 fe98 9bd0 8d3f 8011 56be ea81 a53f
00000090: a227 2e05 7940 d7bf 3c83 3d96 7d01 ca3f
000000a0: 6270 cf6f b94a d43f a0c6 ca39 7058 dabf
000000b0: 0c50 86f7 582a c33f 58f6 8716 552e db3f
000000c0: 9861 80ea 353c d83f 521d 385e 58ab d3bf
000000d0: 52d2 e3ec c3ed debf 5807 c933 c008 d13f
000000e0: b076 6f31 1146 b03f 9403 e1ac 5dbb c83f
000000f0: 70c2 4f09 e9f0 c4bf a263 a2cd 1273 debf
00000100: 4865 1299 b495 d0bf a060 7e47 18a3 d4bf
00000110: 343e 61e4 546d d4bf 84b3 e13e 5d38 d43f
00000120: b0c3 4a8a 433b b23f 587a 7dff 406c bc3f
00000130: 2c77 7659 8b17 d43f 0071 69f5 d4dd 673f
00000140: 2858 3d9e 29ae cbbf 40c1 2566 ca2a bcbf
00000150: 2009 b1da edaa 9c3f 24af 1d91 1430 c0bf
00000160: 2c66 dac2 4722 dd3f a2d0 691a f7eb dbbf
00000170: e083 4831 f65a a9bf f2a0 2d9f ebcf d6bf
00000180: 98fc f8f7 0624 b5bf a83c df38 1821 b4bf
00000190: 3044 48af a1f8 a0bf b0d9 75db 8e23 bf3f
000001a0: 5618 5502 b57f de3f d8fb 7954 3c78 c83f
000001b0: c0de 63f1 d751 b8bf e445 6add 6ac8 c53f
000001c0: d8a1 5c0e 4180 bd3f d4b3 3862 0ec4 d8bf
000001d0: 00d1 bd76 d092 bf3f 3a2f a937 745c d5bf
000001e0: aa3e 1e0d 9cdd df3f c0dc 263b 8bd8 b0bf
000001f0: 8e28 f895 ada9 da3f 90b8 ba66 c2fc d0bf
00000200: 06ea f0d4 f2f1 d03f 8a66 bae6 fec0 d73f
00000210: 00ae 1ceb dc3f b3bf 7c68 ce20 5193 c5bf
00000220: 803b 48e4 6fc2 cb3f f624 b01f c631 dc3f
00000230: e803 e298 8a1a ca3f 3ab5 fe89 f816 dd3f
00000240: 54a0 96e8 3f71 d6bf 50c9 ef91 1588 b2bf
00000250: d07b fe34 30f5 d73f 40ec f51d 7d11 bbbf
00000260: 7c06 3c6f e505 c33f 8479 a586 ec1b c43f
00000270: 88cb 4a5f 537e c03f 9466 5888 664c d0bf
00000280: 40ac afc8 2da5 ccbf 4c0f 4eb4 6c1b db3f
00000290: b019 1cae 7c57 b9bf d612 7e90 dd52 d73f
000002a0: a067 439a ead5 d5bf 5af2 ddf5 3c66 d13f
000002b0: 1061 a4d9 2358 d1bf 4284 08b8 b95e d93f
000002c0: e013 f53e eda3 a1bf 405e 651a 84e9 d1bf
000002d0: 60ee f27a 5706 bbbf 708a 4abe d038 b23f
000002e0: 10e3 425d cfe6 bebf 1839 3f72 4bfb d5bf
000002f0: b4fb b4f2 311a c8bf b211 ab00 a0f1 da3f
00000300: 4a6e 3d4f 98d3 d43f 40f3 a957 3f4a b2bf
00000310: 8e1e ae8d 84c1 dabf 622e a4b6 0284 dcbf
00000320: d863 f2a9 5c67 cb3f c80a 9e27 5de8 cc3f
00000330: 76de a376 31e1 db3f 80f5 5e6d 3abf 933f
00000340: d0a2 ae6c f4c5 ae3f e8c1 00dc 71d2 d03f
00000350: 7c7b 6ed8 3a54 c23f 80e3 aea4 490c d4bf
00000360: e217 6799 2c98 d5bf 2052 ca9b 8f42 a4bf
00000370: 567f 1f26 1184 d9bf 06bb eb8c 38f9 d7bf
00000380: 1c71 d2f5 5cb8 dd3f 1014 f8f8 ea6a a4bf
00000390: 00a6 ebb6 ef62 7dbf e45e 8765 767b c33f
000003a0: 26f2 6956 76e9 debf 789e a0e9 ed10 dbbf
000003b0: f267 f5a2 8c78 d4bf c085 67eb b149 babf
000003c0: 8020 42f0 82ad 833f 08eb caa0 a059 c5bf
000003d0: 9853 97ed 97f4 d33f f0a1 9047 0eb2 a23f
000003e0: 021a d98d b271 d33f c0b5 0667 ba48 9c3f
000003f0: fc0b e4de 5e8e c23f 7e85 991b e729 de3f
00000400: 7285 e4e2 8e1a d8bf 2ca2 dc20 2af6 de3f
00000410: 3040 71e1 7af2 d2bf 86b1 07eb 66f5 d9bf
00000420: ec91 3f25 e7af cf3f f6f1 32ad 1157 d7bf
00000430: b45d 9d5d 5050 d7bf 600b c551 6ccd 913f
00000440: b2af ba9e b1df ddbf f885 d7aa 9c09 d9bf
00000450: d2ec 822e afcb debf 82d5 aac7 2d84 dfbf
00000460: 6454 4e09 7b9e c93f 1c9b 6e4c 6d0b c33f
00000470: b884 ba89 7e22 b6bf e009 d7ad 87d7 a1bf
00000480: 48ae f2d9 fa71 b7bf 588b fb04 4fbe c83f
00000490: 6cf1 8891 2889 dcbf 00c5 e616 5f12 aebf
000004a0: 6a60 1880 f4d7 d53f 1e7f 235a dfcc dbbf
000004b0: 6023 0ff0 7ac0 cd3f 2066 5900 85a7 a03f
000004c0: 7e1d ac3c e5ee dcbf 8023 1e78 563b 98bf
000004d0: ccde 4f23 8320 ccbf 7867 b5fe 5e1d c73f
000004e0: 5c40 72b5 1662 d5bf d482 c9be c30e cfbf
000004f0: 1a47 4aa7 054c d9bf f8c2 c1a8 730f b7bf
00000500: e0ae e11a fbbd 953f bcae e2fc 219a d63f
00000510: c090 c940 035f dfbf 3485 7de8 c486 d9bf
00000520: 18c8 c8f9 cfce b53f 607c cca8 eb33 b4bf
00000530: 40ca d909 ddd5 893f 6e67 058a 128f dabf
00000540: f825 08eb d73e ddbf 0079 0085 ed39 7cbf
00000550: 60c5 0096 c145 a7bf 6401 4d99 069f ccbf
00000560: 8e87 9276 56e9 d43f 24e3 28e7 2543 d8bf
00000570: 5a7b a064 573b ddbf e007 8047 b02d a3bf
00000580: 9092 e13b e489 ab3f 408c 1d7b d7ef c0bf
00000590: 62d5 f8c4 87ef d53f 0096 cba5 b303 be3f
000005a0: 8cc2 2151 6723 c33f 3c94 68f1 83a9 c33f
000005b0: 34e1 66ce e182 d2bf 88d2 386a d2e4 b33f
000005c0: b6da 6118 76d5 d83f 2cb7 1bfe 5500 df3f
000005d0: ee98 d7b5 9bd0 ddbf 0050 e76c 85bb 73bf
000005e0: b8c6 41b0 ad9d db3f 92bf e9f3 01f4 d4bf
000005f0: f42a aa26 aaf1 d8bf 30cd a3ef 9ac0 db3f
00000600: 681b ea5f 05fb babf c052 90f0 4d13 8b3f
00000610: c41e eb2e 5416 cfbf 948a 8218 c1f7 c53f
00000620: 002e f85b 2774 7abf c8c5 3785 9c6a da3f
00000630: a412 00d5 a953 d53f d211 d93d 78c2 d43f
00000640: 8823 f506 8adf d4bf 2cda fc61 0ac3 c7bf
00000650: fc4f 0a75 f89a ccbf b4c0 3618 5908 c5bf
00000660: 3ee8 94f7 adb8 dfbf 8889 3512 aae7 dabf
00000670: a4ed 51b2 c76b c33f e4b2 45e5 a05d dabf
00000680: c073 97ef e4dd d93f ae1b 2980 ec41 d73f
00000690: 1236 a94e 35cd d63f 00b8 9a54 3183 833f
000006a0: f89e 7677 83e9 d33f 04d0 52d5 d070 d5bf
000006b0: 1c0e 3760 9beb da3f 8efb d37c 5676 d53f
000006c0: 04f7 26d7 2e3e cd3f 74fc 823e b900 d23f
000006d0: 1055 adce 7163 bd3f b48f 6f52 76a5 dabf
000006e0: 46a4 cf3d a608 dbbf 046f 3d25 59d8 c63f
000006f0: 8c47 7a35 3fd4 c53f 5cd0 68f6 01d6 dd3f
00000700: 064d 6ca6 e930 d13f 143d 67f3 8797 cb3f
00000710: 5cac df24 21e0 cabf feba 9c34 1119 debf
00000720: 9cc3 da57 297b d53f f087 886b f28f afbf
00000730: 40c3 e80c 43dd 923f 401e 0019 b470 a93f
00000740: 709e c074 3b03 aa3f c8a3 2ad5 d319 cf3f
00000750: 5c20 3024 74d9 cfbf 7a74 a9c9 36b0 dbbf
00000760: c0e5 9e94 98ab 93bf 70ae 3b5f 94b1 ce3f
00000770: 227f 6846 598c d13f 649a 7360 fb48 dfbf
00000780: 0cb0 3760 1cd6 c73f 405c 0fc4 84d9 d0bf
00000790: 4010 4cdf 3b7e d23f 64f2 2d5c 87a6 c9bf
000007a0: 40b7 43b3 733f a8bf 96aa ef66 6829 d83f
000007b0: ee22 d4b1 7332 dbbf a04f f828 45e7 bc3f
000007c0: b0a5 e92d c4d8 b0bf 3ed1 a878 2f9b d8bf
000007d0: 725c 2c76 40ef dfbf c001 8e28 7bc1 81bf
000007e0: 68c3 41f8 5dca cd3f b24a 4e3e f9c6 d7bf
000007f0: f6f6 1527 2665 d0bf 4860 60eb 0f45 d5bf
