model/800_100/Theta2.npy (npy, 640928 bytes, 1 tensors)

array f8 [100, 801]
000000 87 73 7b 94 0a 50 c9 bf e1 2e 83 f0 aa 9c d8 bf
       -0.1977551674853226 -0.3845622395281066
000010 33 bd 1b b7 9b 65 e0 bf a9 30 c7 b0 d5 1f d6 bf
       -0.512403352387912 -0.34569303763852105
000020 10 29 f2 e2 b3 8e b6 bf 39 a3 ec 56 d4 95 ca 3f
       -0.08811497011825886 0.20769743198732174
000030 40 9f 59 bd 54 da c6 bf c1 53 16 c7 5d f3 b5 bf
       -0.17853793378457716 -0.08574472532775614
000040 91 ae 28 18 62 00 d5 bf f3 fb 75 09 3c 57 d3 3f
       -0.32814838752049363 0.3021993725196232
000050 0e 07 80 b8 6a c6 d0 3f 61 20 79 4c 45 c1 c6 bf
       0.26211040513600004 -0.17777315362968962
000060 da 34 de 23 30 50 d3 3f 9b 21 3e de 6f 22 d2 bf
       0.30176928999646935 -0.2833518667544241
000070 49 a9 7f ff 01 d1 be 3f ff 71 90 58 1f 8b db 3f
       0.12037670600662866 0.43036636017657764
000080 9c e4 e7 dd 44 3a dd bf 2d 4a db 56 1e e1 d1 bf
       -0.45668145819178974 -0.2793651436051359
000090 40 6b 4c 40 f2 04 df 3f 15 84 56 b2 8e d4 d3 bf
       0.48467689780379786 -0.3098484746533939
0000a0 38 1b 33 b5 c7 b8 dc bf 25 18 80 f1 39 6c ce bf
       -0.44877808280255094 -0.23767780582437684
0000b0 61 0d f3 b2 8c 53 e0 3f 00 80 02 9f 1f e8 c0 bf
       0.510198926458923 -0.13208384765766823
0000c0 43 d1 96 46 12 2f b1 bf 7c 02 86 a8 b8 29 d1 bf
       -0.06712450240485617 -0.2681714673745217
0000d0 33 57 70 7c 56 2d c3 bf a5 1c c8 db 40 22 b5 bf
       -0.1498211009608724 -0.08255391469730229
0000e0 03 84 a0 4c c4 03 df 3f 5c de 2a dd fc 34 bf bf
       0.4846049068747222 -0.1219022788962944
0000f0 10 f3 9c 27 a9 25 c1 3f 71 9d 61 cd f4 1e da bf
       0.1339618152068387 -0.4081394200970499
000100 c2 73 76 98 df c8 cf 3f 99 b7 52 4a 3d 3b da bf
       0.24831767029254875 -0.40986568697086906
000110 ae f8 ba 67 4a 40 d5 bf 2e 54 b8 10 d5 cf c0 bf
       -0.3320489895812767 -0.1313425380364221
000120 99 b8 36 7d 56 31 c0 3f c1 bd e9 25 15 90 d1 bf
       0.12650567163422435 -0.274419104599442
000130 86 ad 24 87 84 56 d0 3f 98 5a 01 25 b3 f7 92 bf
       0.25528062055192213 -0.018523024686454365
000140 b1 65 0f 51 bb 95 90 bf cf 8d 57 aa 3f 98 d1 3f
       -0.016196181128042834 0.27491752276384046
000150 2b 4c 77 66 c0 64 da bf 57 f7 65 77 7f 3e c4 3f
       -0.412399387421092 0.15815728502269152
000160 83 57 92 54 c2 6e bb 3f e9 0f ed 00 2f b9 94 3f
       0.10715879978883262 0.020237669402618428
000170 fb 0e b0 28 34 0b d6 3f 96 e8 cb ba 68 f8 c8 bf
       0.3444338223782634 -0.1950808441250202
000180 a8 ab 16 49 3d fb 82 bf c2 cf 72 29 03 3f d1 3f
       -0.009268263619409314 0.26947096870139486
000190 f9 3d 03 5b a8 cd c8 bf c7 b4 6e b0 3a 22 b3 bf
       -0.193776173057344 -0.07474104697640192
0001a0 71 10 35 31 08 69 b5 bf 3b 30 e6 3b d6 3d db bf
       -0.08363391114568387 -0.42564922189263016
0001b0 01 17 86 53 99 5a c8 3f 9e 5d 8c 37 bc f6 d8 3f
       0.19026485994634615 0.3900595228637601
0001c0 8e aa d0 c7 2f a6 d3 3f cb 87 3d 1c 79 a1 d4 bf
       0.30701822770303344 -0.3223555351051998
0001d0 f9 0c d3 f2 01 10 da 3f 38 bb 37 23 9f cc dd bf
       0.40722702706644004 -0.46561411322811663
0001e0 76 90 0f 9d 23 41 d6 3f 57 bc 4e 43 b1 9e c6 bf
       0.34772577608078536 -0.17671790873052615
0001f0 b3 e7 44 7c e8 0f b8 bf 44 b8 15 62 c3 54 62 3f
       -0.093992739047194 0.0022376838757543222
000200 a2 b3 d1 20 da d0 da 3f 20 05 2f 6a 5a 1e b4 3f
       0.41899731831545683 0.07858815281271747
000210 75 10 46 00 ff ee d3 3f 21 67 47 2d 7f 39 c5 3f
       0.3114621641800633 0.1658171626175369
000220 2e e4 20 3c db 08 cb 3f 3d 83 14 d6 2a 7f d9 bf
       0.21120777545891783 -0.3983866778017278
000230 d5 f6 6f f1 6f 07 d2 3f 0d b1 f7 c6 f8 69 d8 3f
       0.2817039354120941 0.38146800451683377
000240 c0 32 60 54 e1 fe c6 bf a5 f7 72 73 e6 09 cf bf
       -0.17965332622443064 -0.24248963009989413
000250 35 29 f2 63 ef 6e de bf 4f f4 09 5d 81 9c b2 3f
       -0.4755209423098166 0.0727005817552293
000260 cd 06 43 e8 fd 34 db 3f ec af 7a 9b be c5 d6 bf
       0.42510936433619123 -0.3558193701126118
000270 c5 6c 0f 87 21 3b d9 3f 3f 9a a2 c4 ea 96 c6 3f
       0.3942340678165233 0.17648062325788946
000280 25 a5 73 cc 80 da 97 bf ca cd 3c 1f 8f 08 6a bf
       -0.02329446075319654 -0.003177909407804801
000290 11 70 c1 28 e0 96 a2 bf b7 b4 a0 aa 1a aa c3 bf
       -0.036307339644480525 -0.15362866717751952
0002a0 f8 b1 13 e9 b5 4e de 3f b6 74 81 fe 11 30 c2 3f
       0.47355411302012795 0.14209198882136825
0002b0 fb 0f 24 37 e5 25 9f 3f 9f aa 20 02 b7 64 dc 3f
       0.030417996874362512 0.44364714820646073
0002c0 4d 1e e3 3f f3 28 e1 3f 19 a2 05 d1 79 86 c4 bf
       0.5362488029285913 -0.1603538771262414
0002d0 9f de d3 25 ec 71 d9 bf e2 53 f1 28 c1 a8 de 3f
       -0.3975782746706304 0.4790499591666145
0002e0 58 8f 23 22 18 19 e0 3f 90 36 b0 78 61 12 d3 3f
       0.5030632654929645 0.29799687181444146
0002f0 68 6a b4 9f b4 0f d1 bf 57 42 c0 8a 39 e7 c7 3f
       -0.26658359142462595 0.18674392008735438
000300 f0 e8 3d 0e b1 6a d6 3f 7c ab c2 e6 3d 2d d9 bf
       0.35026193991474397 -0.3933863404769722
000310 56 d5 1b c2 3e 5b b9 bf cb 63 92 e6 f6 19 e0 3f
       -0.09904854048712272 0.5031694892269284
000320 fe 24 96 99 c7 a3 d0 bf 18 9b 60 32 52 9e d9 3f
       -0.25999631880456764 0.40028815192856504
000330 9d 20 c3 2f 77 e2 d1 3f 87 2e 15 52 be c1 b0 bf
       0.2794473616054434 -0.06545629028294729
000340 e0 56 c9 93 13 d1 d1 3f 4a d8 45 fa 5d dc de 3f
       0.2783860152461397 0.4822001403875943
000350 40 71 b9 b1 3e ec d3 bf dc 80 0c 8b 15 e1 d8 3f
       -0.31129424434563546 0.38873804644573595
000360 7d c4 ee 37 d2 26 db 3f 56 07 4d 77 22 87 a6 3f
       0.42424445593048415 0.043999745429131806
000370 b6 52 fc 2b a7 07 d9 3f f1 f7 14 fc 30 b7 d6 3f
       0.3910921029612767 0.3549311124551187
000380 e7 09 df d5 f8 21 d9 3f 0f 73 51 53 39 68 d6 3f
       0.3926984871469856 0.35011132370509385
000390 fb 21 ac 61 36 fa b8 bf af 39 4b 43 6f 07 a1 3f
       -0.09756793865756912 0.033259846653538865
0003a0 6b 92 a2 b1 cd d3 d4 bf 6a 66 d8 c7 ab 43 c0 3f
       -0.3254274592129948 0.12706515558311376
0003b0 1b 8e 90 41 2b d8 dc bf b7 b2 75 4f c4 42 bb bf
       -0.4506939068107571 -0.10648753108916763
0003c0 1d df 4c e7 cc 71 be bf c4 f1 6a e7 a2 4e b8 bf
       -0.11892395636538962 -0.09494989538047266
0003d0 f4 aa e6 0f 1a 64 ce 3f c2 8a f4 cd da 59 dc 3f
       0.2374298646585299 0.44298429596726063
0003e0 63 c9 ea 0e bc 36 af bf c5 dd 69 a2 c1 83 ce 3f
       -0.06096446687787951 0.2383958857569565
0003f0 0c 94 a0 9e 5b dc c1 bf eb 86 83 41 90 0e b7 3f
       -0.13953728909942276 0.09006597136933762
000400 ac 4d d6 91 a5 ad c1 3f 63 36 c3 8a 5c 1f e1 bf
       0.13811177845910316 -0.5350783071714428
000410 74 87 23 ab 4b 5c c6 bf 14 4e a8 e3 02 ff d0 3f
       -0.17469163757692352 0.26556465370342264
000420 fa 9f 60 fd 06 73 b0 3f ba 9f e0 10 0b 72 d3 bf
       0.06425517736408884 -0.3038356461352084
000430 69 23 28 de 4b f6 bf 3f af c6 78 ea c3 ea a4 bf
       0.12485193418264164 -0.04085361706928602
000440 aa eb 3b 40 7e 2e d1 3f 24 93 11 49 cd 67 d8 3f
       0.2684627177511013 0.3813355649529504
000450 a0 f5 03 eb c6 74 d4 bf 64 2d d7 bd 11 2a d5 3f
       -0.3196275038788716 0.3306927064811218
000460 e9 df 61 68 29 5c ce bf e9 b8 a8 a6 ed 77 d5 3f
       -0.2371875533751784 0.3354448440103526
000470 cd 2e dd ed 8e 06 b0 3f c6 7f 6b 86 ae a5 c1 bf
       0.06260007197596025 -0.1378687054011591
000480 81 d1 e4 e5 17 e4 c7 3f c8 f7 7b ed 6b 53 c1 bf
       0.18664835667881266 -0.1353583249655783
000490 c7 18 f7 86 48 77 de bf 7f 45 18 b8 1c 23 db 3f
       -0.4760304754276032 0.42401807764061766
0004a0 77 10 ea 7e 85 c5 d3 bf cf 48 4a f1 56 08 ba bf
       -0.30893075365043593 -0.10168975249169708
0004b0 0f e2 d2 96 ac a0 d6 3f af 59 d5 3d 7f 2c e0 bf
       0.3535567734611797 -0.5054317672427738
0004c0 eb 4e 8f 4e 8b f3 bc 3f 2f 7d d1 18 49 83 de 3f
       0.1130911890789396 0.47676303313888274
0004d0 ff 43 42 91 ed 61 dc 3f b4 a3 00 58 9c 2a dd bf
       0.4434770506423433 -0.45572575181955277
0004e0 e5 82 7e 85 13 0f d6 3f 57 0a 23 d8 70 99 da bf
       0.3446701816229008 -0.4156152830802617
0004f0 d0 28 6e d1 cb 2d d7 bf 40 ad bc 26 84 c8 b1 bf
       -0.36217017604998336 -0.06946588464477532
000500 9d 44 09 13 9b 2a d0 3f 58 60 a1 96 c3 11 bf 3f
       0.2526004491711065 0.12136480739116118
000510 ed 22 e6 98 76 20 d3 bf 58 ef 87 65 3e 07 aa bf
       -0.2988564007905968 -0.050836515325470344
000520 ea 38 e1 4b 2d 83 da bf 9f 6b 0d 26 eb 6b c4 3f
       -0.4142564049733567 0.1595434127619599
000530 a9 99 02 ab 95 02 de bf 90 3e 03 0a 25 a5 a6 3f
       -0.468907753946406 0.04422870394921319
000540 a8 f5 22 74 08 59 de bf e0 63 e4 c0 25 d5 c4 3f
       -0.47418414441548373 0.16275474470674478
000550 81 23 29 f2 da 33 cb bf 5e 9f bf a8 c2 3e d2 3f
       -0.21251999687435943 0.28508059005115693
000560 56 bc 32 55 27 51 c8 bf 30 5d fe 39 5b b4 d6 3f
       -0.18997661266391458 0.3547580782264559
000570 5d c3 7c 02 b5 f1 d6 3f 2b 1d 03 fb 31 35 d6 3f
       0.3585026287355982 0.34699677956492064
000580 ef 02 2a ee 53 d9 d0 3f 23 39 d2 71 c9 e4 c1 bf
       0.263264639455925 -0.13979452188181893
000590 0d dc 44 df 08 c5 a3 bf 2f bc 18 ae e3 88 db bf
       -0.03861263013316583 -0.4302300644075698
0005a0 a2 b8 8c 78 ec 6c d2 3f 88 d8 6f f0 ac da c4 bf
       0.28789817593031775 -0.16292344799120806
0005b0 e7 d6 4a e0 05 8f c0 bf 02 ac 44 61 0e cb ad bf
       -0.1293647141625833 -0.05818982064587176
0005c0 78 b9 78 4b 5d 4e dc bf db e0 20 10 6b c4 a4 3f
       -0.44228298540374267 0.04056105205421697
0005d0 f8 83 51 d8 da 94 d1 3f 75 60 6e 57 03 8a c8 bf
       0.27471037983747193 -0.19171182412242485
0005e0 47 1b fb cb f3 56 b0 3f d0 ef 6a 88 13 3f d4 3f
       0.06382678728105616 0.31634987184565677
0005f0 b8 cc 9d f5 e5 4e db bf 4b 6d 97 a6 1e bc d5 bf
       -0.42669056879021694 -0.3396069170828084
000600 95 d1 55 1b 2c 8b d3 3f 6d 1f dd cb 37 da c9 3f
       0.3053694025941465 0.20197198347363657
000610 06 c4 26 3a 62 47 cc bf d9 13 f0 10 b2 88 d2 bf
       -0.22092845763612007 -0.28959323553163824
000620 ae d2 cb 7f 74 f7 9b 3f 38 2d b0 da 99 ae 9d bf
       0.027311153698024775 -0.028986362431209417
000630 45 19 d9 3a 1d 66 d2 3f 84 e0 35 9f be 1d ba 3f
       0.2874825548828038 0.10201636683439302
000640 71 d5 16 e5 0f 18 c8 3f f3 9d 02 97 10 1d c2 bf
       0.18823431669231241 -0.14151198743387247
000650 58 11 a8 0d 39 10 c8 bf 5e aa 65 b6 1f 20 be 3f
       -0.18799508253881458 0.11767767146162941
000660 6f 14 9b ea d2 71 c1 3f 50 b7 d6 65 26 e5 d5 bf
       0.13628612952576044 -0.3421112055319684
000670 05 41 c7 f3 6c 43 de 3f 41 fb 3a f0 d9 c5 d2 3f
       0.47286533171156037 0.29332588634490625
000680 b1 da aa 8d 07 41 ce bf 90 70 8b 35 82 0e da bf
       -0.23635954301217546 -0.4071355364701583
000690 d6 e1 3a 77 07 f8 d7 3f cc 52 7e 3e fb fc d3 bf
       0.3745134987216522 -0.31231576063991606
0006a0 64 5d e7 a7 c6 05 c9 3f 19 c0 3e 3d 64 cc dd 3f
       0.19548876951624117 0.46560007077187177
0006b0 7f 0f e9 46 1e 18 d2 bf 3b c5 91 00 81 35 c2 bf
       -0.28272206234782254 -0.14225780990413192
0006c0 98 d6 19 11 57 65 d0 3f 39 72 31 ca 5d bb d8 3f
       0.25618530912411464 0.3864359354536507
0006d0 37 29 66 ad 2b 0e e0 3f f5 f1 1b 1a ec fc d9 bf
       0.5017298113537326 -0.40606215047571875
0006e0 ba 8f c3 7d ee 2d b1 3f 6f 27 b8 83 f7 4f de 3f
       0.06710711069496159 0.47363078940599385
0006f0 57 be 25 21 30 41 da 3f e3 fa 3d 12 45 2d de 3f
       0.41022876011900195 0.4715130499024964
000700 e0 ee 7f 60 7c 29 d4 bf eb 40 b1 25 85 73 da bf
       -0.3150320951824437 -0.41330078774355056
000710 81 cb d6 d5 4f fe d3 bf 91 88 9e eb 51 88 e0 3f
       -0.31239696390837685 0.5166406251849073
000720 51 b6 a9 cb 83 39 d3 bf dc de 52 04 40 f1 c5 3f
       -0.30038542641600424 0.17142486773604204
000730 e1 f6 b3 28 c6 bd a7 bf 82 93 68 bb 4e d4 d3 3f
       -0.04636973616469021 0.3098332243119374
000740 e1 63 c1 de 93 1c d4 bf f1 8d 66 73 1d 83 cf 3f
       -0.31424423936328877 0.2461888135413655
000750 63 b5 2b c5 c7 5c b8 3f af 55 ce 44 2f b2 db bf
       0.09516571582544979 -0.4327505275662941
000760 3c 47 62 03 76 7e dd 3f 6c 6f 7d 3c cc 4b ae 3f
       0.46084356623133593 0.05917204130557149
000770 ff e2 1b 98 1e 2b d0 bf ca 50 8d 9b 29 a9 dc 3f
       -0.2526318059386056 0.4478248614370953
000780 10 62 2b 44 1f d6 da 3f 52 b0 b1 d4 0c 3b cb bf
       0.41931897790121386 -0.21273956666425647
000790 77 a0 87 b3 75 bc d8 bf ab 92 45 3f 68 01 d8 bf
       -0.3865026715489032 -0.3750858896149036
0007a0 37 66 93 f8 2d 80 ce 3f a1 13 6f 88 4b 97 dc bf
       0.23828673017014676 -0.44673431705114736
0007b0 08 a0 08 79 7d f7 a1 bf ad b2 de f2 1a 43 be bf
       -0.035091324829693404 -0.11821144513551003
0007c0 73 58 e1 21 77 2e b0 3f 67 6f 26 71 34 cc c2 bf
       0.06320900513796505 -0.14685683751019526
0007d0 d5 01 1a e3 64 7d cf 3f 5f f4 65 e6 ff 7d c3 3f
       0.24601422394699904 0.15228270292201082
0007e0 e7 92 e4 ed fc 86 d9 3f 6c d8 a6 77 9f 31 d2 3f
       0.39886401397443055 0.28427874264469355
0007f0 aa 0c b4 14 74 3b a1 bf 4e ee 41 e8 d4 af d6 3f
       -0.03365671875692418 0.354481913389212
