model/800_100/Theta3.npy (npy, 8208 bytes, 1 tensors)

array f8 [10, 101]
00000000: e08b 8aab c516 dfbf 8359 83f0 e61a e1bf
00000010: 2ef6 2e37 d5fa cc3f 6ec6 1cf4 6789 e7bf
00000020: b83b d6b9 21d6 b33f d869 073e 1cf4 b7bf
00000030: c84e 052f d581 d0bf 7e06 951b e9fa dcbf
00000040: 44a9 6b4b 3258 e1bf 73f1 ff9b 75a2 d93f
00000050: 4d2b c28c d359 bf3f b2cd de28 1f54 afbf
00000060: 38b4 e57f e315 cfbf 8040 8c8e 5e23 db3f
00000070: fb15 328b 4bdf e8bf e568 7be0 9126 c23f
00000080: 7c1a 5643 410f b9bf b7f4 9dc9 0622 d63f
00000090: f3ca ecec d6e4 d2bf 6e5b 7704 c039 dcbf
000000a0: 6ebc e446 2614 bf3f 0115 2f59 d361 e6bf
000000b0: ade8 4437 4796 e33f 2598 db9a cecd df3f
000000c0: c953 c829 e14d e43f 4cb9 79b0 08bf d0bf
000000d0: d029 13e0 56c1 f1bf c36e caa9 3558 d63f
000000e0: de24 50b5 c61d a63f 1dad e334 5049 bd3f
000000f0: d926 cb9b 0948 e0bf fbc8 ad82 eb3d eebf
00000100: ff80 eb1a ab17 cdbf f670 36d2 ad5c dbbf
00000110: 30b3 3127 6b3f efbf 468e a120 b56e e53f
00000120: a83e 61a3 9757 a43f bd2f 15f0 9fd8 d73f
00000130: e8d8 4391 7d40 e03f 552f 9dbf bac4 cabf
00000140: 76e6 be01 7cf3 923f 7a37 5a6a daf7 d2bf
00000150: 3eb4 121d f3cf dd3f cea0 7357 5c6e cebf
00000160: 3e3b fb1b 038e d93f 871c b253 2949 e0bf
00000170: 4449 39f2 8b1c dabf 7876 b63a 7129 e1bf
00000180: 38a8 67e7 08e0 d2bf 4b3b 9b1c 17bd c3bf
00000190: 5dda b64d e040 ddbf 12a1 d525 52c1 b63f
000001a0: 9f01 9c3b 0c23 ef3f b2b2 9fb7 435b b33f
000001b0: 0199 8cc1 f4a7 e33f d9f5 b422 8f6f cc3f
000001c0: c880 f8b2 0ea7 cc3f aa0e 2c74 621b dfbf
000001d0: 66f8 1cb8 69c2 d73f 7a21 07b3 efd6 d9bf
000001e0: 687f 8836 c1aa d43f 8b34 39c0 248a cdbf
000001f0: 17e3 64bc 7f3a e33f 5954 50e8 d398 d4bf
00000200: 6186 dfeb cbb6 c23f a9a0 1ab0 dc21 d33f
00000210: 3ef7 b69a 43bf e0bf 3d1f fcd7 0cfa e6bf
00000220: 43a7 cfc5 5909 d73f 5227 a7fb cddb c6bf
00000230: 1c20 cb33 4aad c8bf f58e 7645 4137 d63f
00000240: 109f 48ef 2ea8 d9bf f92b 7351 9585 c9bf
00000250: 79bc 24b5 f3d6 d83f e27b aa3d 9da2 babf
00000260: 89ff ddd9 340e d7bf 4fa5 6615 b98c c43f
00000270: 1c60 fa48 0508 c3bf d06b 96e0 6dec e7bf
00000280: 21b4 9032 a555 ebbf 391c 1edf 6279 d13f
00000290: 9f54 fb6d 9868 cabf e1c6 f7f4 cf97 c23f
000002a0: e6ec 1639 1b60 e4bf b920 d59d 1bdb dd3f
000002b0: 0f0a 4f22 d349 e1bf 6c2d 1069 b067 e73f
000002c0: 686b e3ca 71a4 c8bf 436e 283b 56a9 e7bf
000002d0: 495c 330b 1f23 cebf 0d42 4b80 1d97 df3f
000002e0: 3dc3 ab07 46bb c5bf 7d19 cb71 6f92 eabf
000002f0: d972 3467 a255 d9bf 717d 67ba 1100 cc3f
00000300: 1ec6 9120 5a6d cd3f 112b 8c3e 3feb d0bf
00000310: a5f5 a89c 59af debf 2486 780c 4855 963f
00000320: 3056 8877 bfc6 bb3f 77d3 390e 91bd 993f
00000330: 67e0 5aa7 4f9b e63f d5cb 33bb ccb6 cebf
00000340: dd4e a0d8 e4bd d2bf 5a06 2593 c64b d23f
00000350: 686c 7f15 c827 c7bf 7a5e e94d 723d e1bf
00000360: 09b9 6b49 194f d5bf e6cb c2c1 3090 bcbf
00000370: b419 7743 f2d0 e4bf d251 cfc3 6a3d d6bf
00000380: 7344 ed90 4e28 f13f 6ff3 91f2 2c9f c63f
00000390: 1975 ff5c d140 86bf 1260 8e5b 86b6 c93f
000003a0: 957c f89e ff42 e4bf 8fc2 da17 3f3a e5bf
000003b0: 745f 738d 28d9 eabf e351 2684 908c b4bf
000003c0: 9012 3dde 1a12 bfbf 001c 3ee9 297a c6bf
000003d0: e31e 73a8 fa73 d03f 7ff6 e6db 1af9 d6bf
000003e0: d9c0 438b d122 da3f f382 65bc 390f 8bbf
000003f0: 6074 f81c 1a76 c23f 940f 944a a538 e83f
00000400: 68a6 b0c2 3d68 dcbf 7c21 cf93 719c dc3f
00000410: 5257 416a a2da d3bf 12c2 7f9d 2483 d4bf
00000420: 64eb 80fb 7047 e03f 5285 d5d9 ef57 dbbf
00000430: 2e83 d2ef 20e0 d9bf cac1 e01a 649c c8bf
00000440: 02db 7de8 b756 dabf e4a5 0deb 3cdb e0bf
00000450: ea26 3ab5 2dc7 d8bf 5217 11bc 19ec dbbf
00000460: 32a7 9972 71e5 ef3f b52f faf2 e472 c23f
00000470: 209c d533 f025 d43f 0529 01f0 f9e1 c1bf
00000480: 0b59 7ac6 5948 c9bf 97d0 eb93 24cd b03f
00000490: e855 31f5 7b85 e0bf efc2 cfa3 57e9 b6bf
000004a0: c8ba 69de 26f1 e03f 8aca 38b4 6f02 e4bf
000004b0: f972 d042 8948 d23f aa83 9361 f2cd c53f
000004c0: 3b77 7911 d838 debf 3d31 8d41 c6ab c8bf
000004d0: 6233 ec8d 32c4 dabf 99df 1fec c95f 9fbf
000004e0: 206f a4e0 7a8b d7bf 9b69 89a6 130e e7bf
000004f0: f2d3 ff6c 6a62 e5bf 9064 eb86 b18a d43f
00000500: 1bfa d745 0e83 c7bf 5142 ac43 f75a c73f
00000510: 9ccc 3156 8b12 ccbf c7a5 c930 6b4a dabf
00000520: d3e8 bc1b 6a88 e63f e27e f9e9 192e c53f
00000530: c139 13f5 5ad2 863f 30e3 bef8 c51f e2bf
00000540: 0ae7 f3ec 770d f0bf 7a37 5bee 0824 ddbf
00000550: 4f3a adf9 e4e4 c23f ea92 091b 2ffa d7bf
00000560: cbd7 9b32 1881 db3f b179 c17f 9577 d9bf
00000570: 87e3 79d2 55e4 883f 25c4 23ff 7962 ce3f
00000580: 8670 2c51 c245 a53f eca2 3d61 70af d2bf
00000590: 2343 7e78 3bb1 a4bf 23e6 9bb9 d8e6 c5bf
000005a0: 69ea a13c d5f3 cb3f 9b09 7a25 6930 af3f
000005b0: 9f27 2f71 7221 d1bf 65f3 562a 77f8 b03f
000005c0: 21b5 fd7d 574e c63f b50a 4c1c 900e e83f
000005d0: 9bd9 664e 9d68 edbf 5e99 76d2 dc0d ce3f
000005e0: 5f9d 4cfc 917e 983f f780 19dd bbc3 e3bf
000005f0: 8866 b974 5d03 e8bf 77bd 8bb4 046c f13f
00000600: 9091 62a0 9707 95bf 6225 2fbf e084 bc3f
00000610: 0ad6 18cf 9c90 c0bf d26e 889e c480 a3bf
00000620: ac02 bd18 9056 c03f 5d9b c276 1ff4 da3f
00000630: 5da0 01ce d642 eb3f 1fc2 bab5 3527 d93f
00000640: 59d8 bf31 267b eabf ea5d b21f 7445 c4bf
00000650: 1019 66d1 ad33 d6bf b241 e115 5a9c d9bf
00000660: 36f1 b769 edee f1bf c531 f0db faf5 d0bf
00000670: 3e01 bc20 1865 6f3f 7d96 3a88 99de e9bf
00000680: 07a9 0ebe c997 d63f 1ec8 791f f6e9 d43f
00000690: 130e ade9 6e03 ea3f dff2 5a2f e18b b3bf
000006a0: 8e17 3e73 a2d8 d23f d90f 6093 1165 e4bf
000006b0: 7476 c7f8 3a3b d43f 443b 278e 8164 cf3f
000006c0: a891 d461 a14a e33f 3980 b144 5cde db3f
000006d0: e3ac 1f9a 44ae bfbf 36d1 e2ed 9d51 c9bf
000006e0: 2bb7 6bdc 4a0a dbbf 5d55 8973 8681 4f3f
000006f0: b6e9 b2b0 ea01 b1bf e95d 96f0 7886 d53f
00000700: 16ef 7a25 9268 c0bf e324 4e16 b034 96bf
00000710: d887 18b1 d757 cabf 5f80 2fc6 ec40 dfbf
00000720: 0fe2 fc99 4972 e73f 9e35 0292 4abc c9bf
00000730: e6c5 b2c9 5ab6 933f ce3e 1b12 6495 9e3f
00000740: c1a7 ba81 2d7c b53f d339 20cd 0025 d3bf
00000750: a362 c85b c37f d2bf 4381 546e a63d d2bf
00000760: ff3c a8ff 7e9c e6bf 749a a3eb a057 e33f
00000770: f9ff df3b 44bd e73f 5aca 845b c908 e9bf
00000780: 4b80 f0fe 00cb d83f ec4e c0ac 0222 dcbf
00000790: fc5a 957e 5d9c e73f 6c63 a848 a813 e0bf
000007a0: 33dc 6d64 faf2 dcbf 6708 b409 b683 d13f
000007b0: 2bde 9483 f875 debf f2bb 06a0 c20f b2bf
000007c0: 769c a098 20b3 a1bf c86f 87e3 e346 d9bf
000007d0: 74d5 44ce a1bf e4bf 4e27 f72f 987e afbf
000007e0: e5f5 f769 51dc ba3f d69c 2027 0de2 dabf
000007f0: 6d80 0077 2939 ddbf f852 6fc5 cdc2 d6bf
-0.4857649016577721 -0.5345339486619171 0.22640481180671784 -0.7355232017345779 0.0774861410811657 -0.09356857790354611 -0.2579243621050691 -0.4528143662792913
-0.5420161698396346 0.40054073557236974 0.12246439157949603 -0.06118867277055119 -0.24285548920616562 0.4240337745732248 -0.7772577017464636 0.14180205784834424
-0.09788902181581166 0.3458268135944524 -0.2952172578545024 -0.44102478443294657 0.12140120726393075 -0.6994415990708661 0.6120945052600938 0.4969364654811009
0.6345067802491197 -0.2616597865479846 -1.109701991360101 0.34913388806465323 0.04319592440885754 0.11439992228740832 -0.5087936442225455 -0.945058589203
-0.22728480162096074 -0.42753167656498137 -0.9764915242682033 0.6697641026807524 0.03973077649481854 0.372596725898571 0.507872375221976 -0.20912870746757997
0.018506944281148262 -0.2963777578923935 0.46581724013487136 -0.23774294157124704 0.3992927335029214 -0.508930839031465 -0.40799235014596413 -0.536308874772387
-0.2949239978612499 -0.15420807740016537 -0.45708472813877227 0.0888873426789625 0.9730282940145577 0.07561133606913975 0.6142524509675981 0.22215451426192948
0.22384818781666227 -0.48604642243320006 0.37124102573205275 -0.4037436722105877 0.3229220421362613 -0.23077830682669673 0.6008909873554299 -0.3218278664292647
0.14620350854152078 0.29894177625329604 -0.5233476659557039 -0.7180237024740347 0.3599457198857758 -0.17858290469876664 -0.1927883866212604 0.3471224954939623
-0.4008900963549289 -0.19938913800282856 0.3881196278552533 -0.10404379611507822 -0.36024209285823666 0.16054452462166544 -0.1486822706544907 -0.7476109873272154
-0.8542047488787184 0.2730338267214765 -0.20631699915125964 0.14525794469186962 -0.6367317309408491 0.46649828351338446 -0.5402618093579025 0.7314073612227907
-0.19251844793947304 -0.7394210009983414 -0.23544681593804942 0.49359834221562054 -0.169777635331707 -0.8303754065062062 -0.3958517082080966 0.21875211335916903
0.22989966001800693 -0.26435834034116207 -0.47945251749828294 0.021809697877079995 0.10850140255237117 0.025137201779631604 0.706458880295952 -0.23995360508669586
-0.2928402057161586 0.28587498063652605 -0.18090153741545412 -0.538750793620195 -0.3329528061866687 -0.11157517176142981 -0.6505061452560796 -0.34749859926276117
1.0723405514911775 0.17673265308612993 -0.010865817690439305 0.20088271589770607 -0.6331785302062537 -0.6633601632984937 -0.8390085947712422 -0.08026984430609434
-0.12137000966783718 -0.17560314072417782 0.2570788044945244 -0.3589541575891885 0.4083751544958552 -0.013212634145646862 0.14422918715073063 0.756914754544129
-0.4438623811025537 0.4470485633323944 -0.3102193868302169 -0.3205043352200231 0.508720866411164 -0.42724224350793805 -0.4043047277464663 -0.19227267563247913
-0.41154287056217254 -0.5267624464879046 -0.38715689371075135 -0.4362854324902986 0.9967581976208975 0.14413129676938544 0.31481556951479384 -0.13970874995204255
-0.1975204676752543 0.06563023196560135 -0.5162944592399841 -0.08949802159601082 0.529437479401019 -0.6252974052388975 0.2856772568209603 0.17034749760116813
-0.4722194834374595 -0.1927421398235171 -0.4182249437297313 -0.030638842617889493 -0.3678881829998648 -0.7204683544799083 -0.6682636383908387 0.3209651773045801
-0.18368700418791736 0.18246355823841268 -0.21931592663495258 -0.410792157787537 0.7041521589046859 0.16546939777889863 0.011143408397768508 -0.566378579932552
-1.0032881980864112 -0.45532439496025 0.1476103037952776 -0.37464501991625687 0.4297543043352305 -0.39792382694386236 0.012154264913293534 0.23738026578897223
0.041547844323049296 -0.2919579457871311 -0.04041467519630817 -0.1711073786062097 0.21837869129724943 0.060916219544213855 -0.26766644528526656 0.06629128249819656
0.17426580097109315 0.7517777016331225 -0.9190203219684919 0.234798052563927 0.02392032720959258 -0.6176432913162263 -0.7504107742090165 1.0888716747830054
-0.020536774791837298 0.11140255611021169 -0.12941322433623298 -0.03809179721085133 0.1276416893761242 0.4211500797049917 0.85190906749359 0.3930181765272511
-0.8275328609149809 -0.1583695559281602 -0.34690423440078266 -0.400167962424372 -1.1208318833951814 -0.2650134227594914 0.00383238518213616 -0.808422819206228
0.3530144077327723 0.32677987169074807 0.8129190982803628 -0.07635314375051959 0.29447232488779995 -0.6373374823019687 0.3161151341899775 0.24525470200611654
0.602860156130693 0.4354468031724568 -0.1237528682974474 -0.1978032504608877 -0.42250319982018664 0.0009614855289991443 -0.06643549741685359 0.33633254523144146
-0.12819125013435756 -0.021685363160519066 -0.20580574176079725 -0.488337701359347 0.732701111562223 -0.20105869416549366 0.019250315247239323 0.029866756062630277
0.08392605225767992 -0.29913349181961485 -0.28904804194602657 -0.2850128247682912 -0.7066035264305411 0.6044468500447935 0.7418538255151353 -0.782322577235685
0.387390374149622 -0.4395758330367545 0.7378375503857053 -0.5023995799157155 -0.45233020598920176 0.27366400668700525 -0.4759503636337025 -0.0705529823960516
-0.03456975806357658 -0.39495179385789614 -0.6483925846757033 -0.06151271424785297 0.10492428624271317 -0.4200470811942528 -0.4566138898972046 -0.3556398799967577
