model/600_100/ini_Theta2.npy (npy, 480928 bytes, 1 tensors)

array f8 [100, 601]
000000 10 e6 a1 99 f9 7d c9 bf 58 76 b6 4f 97 18 cc 3f
       -0.1991569519193921 0.21950045959686082
000010 b8 85 30 91 f9 12 b3 bf 80 0b de e9 6f c4 b5 bf
       -0.07450828356424821 -0.08502864322330872
000020 24 43 fc 1c fe 1b db 3f 1e b8 f4 f9 6d 07 d9 3f
       0.42358353453259867 0.39107846650847644
000030 ca 1e 80 db fa 14 da bf 84 66 7e 88 ba c0 c7 bf
       -0.40753051219551806 -0.1855691114877126
000040 98 23 85 83 24 2f c5 3f 00 b1 17 67 77 96 75 bf
       0.16550117895010596 -0.0052704490822004235
000050 7c dc 78 3c 06 d5 ce 3f 94 c4 24 3f b5 24 da 3f
       0.2408759875558849 0.40849047819490036
000060 4a 60 70 d9 ef 4a d8 3f 14 76 f8 2c 6c 02 cf 3f
       0.37957378610872594 0.2422614307005665
000070 00 2e ab dd 72 3f 85 3f bc e7 5b 56 bb e9 c8 3f
       0.010374925031462645 0.1946329280543163
000080 10 2d 9d 37 cd 8d cb bf d0 c9 7f 7d ba df ad bf
       -0.21526494231725524 -0.058347537822459494
000090 10 24 bf 39 88 d2 a3 bf 70 60 f1 ee 61 a2 ce bf
       -0.038715607690001375 -0.23933052222378448
0000a0 38 b5 c4 ab b8 0d c4 bf 22 93 74 05 ef 87 d0 bf
       -0.15666874301079203 -0.25829673321486457
0000b0 30 7e a5 d7 d1 94 dc bf b0 9f 73 93 d0 b2 df 3f
       -0.4465832334444455 0.49528898620200845
0000c0 4a df 28 aa 24 98 d5 3f ec 00 67 5c e6 a0 c4 3f
       0.3374110852923776 0.16116027366479757
0000d0 40 8f 32 f7 59 8e a2 3f cc 46 bc 21 91 e8 c0 3f
       0.03624230520770633 0.1320973791812804
0000e0 40 70 d2 a4 a7 d1 b4 3f d8 b6 69 58 ba 30 bb 3f
       0.08132407926535823 0.1062122789241714
0000f0 a4 82 0f 50 b8 e7 d3 bf ca 99 23 83 61 e1 d0 3f
       -0.31101806467453685 0.26375615889119486
000100 10 db 0b 0d 2c db b4 3f b4 b1 6f 00 a2 0e d1 3f
       0.08146930044663869 0.2665181164036554
000110 4a f2 93 3d a1 0a de bf e2 00 7a ff 43 e4 d0 3f
       -0.4693987943026384 0.2639322276009023
000120 f6 3a 29 0d ad 16 dd 3f c0 7d 0d f9 22 2c 87 bf
       0.45450903210887306 -0.011314652657971602
000130 7c e7 17 91 b4 0c d0 3f bc a7 80 5f 57 89 de bf
       0.2507754723479747 -0.47713264776632136
000140 26 e8 86 b3 42 65 d4 bf aa 9c d7 33 3c 1d d9 bf
       -0.31868045360499975 -0.3924093729278392
000150 86 58 2e 36 e4 a7 d7 3f b0 31 df 01 71 0c b9 3f
       0.3696222809898092 0.0978460912294341
000160 5a 13 0f 18 30 59 d7 3f 80 2f d1 2d 51 0a b6 bf
       0.36481859540463335 -0.08609492653448392
000170 34 42 66 3c 13 2b d0 bf ca b1 74 4f c2 2e da 3f
       -0.25262909792312205 0.4091039443908612
000180 60 b1 06 af e9 a1 af bf 3e 67 9f 4e 73 1c d5 bf
       -0.06178217183637247 -0.3298614757346633
000190 84 3e 23 74 9d 09 ce bf 46 e2 2d 00 78 7e d0 3f
       -0.23466842814240263 0.2577190400839168
0001a0 30 4e 92 5b 28 7d a0 3f 96 c0 e4 08 00 b8 d8 3f
       0.032204877069628046 0.3862304770327766
0001b0 d8 c0 31 62 72 c0 d6 3f 94 58 ba e6 bf cd dd 3f
       0.3554960211686313 0.4656829598619734
0001c0 9a a9 8d 3f f5 32 d0 3f 3e c1 41 cf 8e 3e d0 bf
       0.2531102295530673 -0.2538182281487201
0001d0 64 e2 0c a0 f6 66 c0 3f f4 12 18 87 7e d8 dd bf
       0.12814219298322194 -0.4663387603070952
0001e0 5c 0d 43 29 ca b6 d7 bf d4 90 80 37 9d 34 c3 3f
       -0.3705315974186385 0.15004315576618998
0001f0 8a 1c ad a8 ac 92 df bf c0 6b 4b 4f 90 a5 9d 3f
       -0.4933272979000739 0.028951887931593978
000200 90 47 86 e9 1c a1 d3 bf 22 75 6c 88 62 8c d3 bf
       -0.30670855336313085 -0.30544341395018837
000210 3a 28 01 7d b8 e8 d6 bf 9a 8b 8e c4 43 92 d3 3f
       -0.35795414168808615 0.3058022899151013
000220 78 5c dd 30 51 2c db bf ea 43 ed 8e 7d de db 3f
       -0.4245799042886982 0.4354547401208594
000230 80 9b ce d6 ad fe 72 bf c8 4f 22 6a 61 b4 dc 3f
       -0.0046374121274429525 0.4485095535721908
000240 72 a3 92 52 ec 15 d0 bf 82 e0 d9 dc 4f b8 dc 3f
       -0.2513380819678367 0.4487495095013473
000250 06 f9 97 e5 40 2a d4 bf 36 6f 3b e0 44 6d d6 bf
       -0.3150789491773057 -0.35041925332710677
000260 c8 c0 41 7e 83 61 c3 3f 34 7d 35 4d d5 39 cc bf
       0.15141338028798246 -0.2205149294850145
000270 d8 b5 c2 5d 16 78 c0 bf 14 7f 41 6f 99 72 c0 bf
       -0.12866477564004586 -0.12849729473509142
000280 68 ad 8a 40 08 bb c4 bf 08 f7 49 0a b6 84 dd bf
       -0.16195777083826646 -0.4612250423887052
000290 ac d9 fb 0d d2 db cc bf ca 8e a0 5e 87 80 d5 3f
       -0.2254583900718904 0.3359697746366065
0002a0 70 84 92 04 1c f8 dc bf 00 33 9f 45 80 aa 96 3f
       -0.4526433987285321 0.022134784936315377
0002b0 40 b9 08 de 69 fb a9 bf 80 9b 21 95 fe ac 9b 3f
       -0.05074625811936295 0.027027109005213656
0002c0 9c 41 8c c8 35 88 c3 3f b0 5a b7 8d 83 d0 a2 bf
       0.15259430210472835 -0.036747084664673024
0002d0 ea 72 0b d5 fa e3 dc bf 16 58 cd ca bd 6d d9 bf
       -0.4514147835268846 -0.3973230820168977
0002e0 5e 5f 26 85 c9 2f dc 3f 90 d6 2a 37 f5 d3 bf 3f
       0.4404166984836503 0.12432797047480393
0002f0 f4 82 cd 2b a3 33 d2 bf 80 32 1a 78 cb 07 79 3f
       -0.2844016959916609 0.006110949326864401
000300 10 25 33 83 24 69 c4 bf a0 c0 30 39 50 3c b7 3f
       -0.15945869833220927 0.0907640590310188
000310 82 e0 7a 7e 3d f6 da 3f b8 12 1e 86 c9 6a d5 3f
       0.42127930976449346 0.3346427736035298
000320 54 73 e2 d4 5d ee c2 3f e6 50 73 f7 53 b2 d5 bf
       0.1478993691897822 -0.33900927701075856
000330 98 28 79 13 38 c0 c6 bf 10 08 b8 a7 d3 38 ac 3f
       -0.17774105978816546 0.05512105390882038
000340 18 57 b0 97 f0 46 d9 bf e0 ee b2 b8 a5 6b 94 bf
       -0.3949548226677151 -0.019941892049913146
000350 ce bf ea 48 70 d9 dc bf 30 da bb 5a d1 77 d9 3f
       -0.4507713996963475 0.3979380975792166
000360 18 01 8b 69 11 98 ba bf 0c 27 cd a9 08 10 dc bf
       -0.10388287379010241 -0.43847862798848847
000370 a0 f9 e3 22 74 a8 ca bf 00 80 50 73 73 35 6b 3f
       -0.20826579764975595 0.0033213858501000004
000380 30 01 1e 46 a9 b0 d5 3f 0c 98 88 b4 80 3b dc 3f
       0.3389075455416046 0.44113175993186426
000390 d4 b3 5d f3 3a 8e c5 3f 38 d7 c5 f5 fc 1b b0 3f
       0.16840302355868053 0.06292706489861366
0003a0 00 e4 66 7c 17 b7 d0 3f ea dd a9 18 2c b6 d4 3f
       0.2611750330793825 0.32361891182469427
0003b0 40 89 de 8c 05 1b c9 3f a8 98 5e bf bc 29 d8 bf
       0.19613713625319384 -0.37754744232587223
0003c0 be 22 7e c4 de da d1 bf ee 1f 9c a7 ce 44 d4 bf
       -0.2789837759851642 -0.3166996609511433
0003d0 48 00 33 29 4a d0 b8 3f 92 c6 48 5a 24 68 d4 3f
       0.096928248461155 0.3188563234026357
0003e0 5c ff ad 5f 03 13 d9 bf ec 05 4a 49 4d 15 c0 bf
       -0.3917854723331311 -0.12565008238384168
0003f0 b0 3d 60 e5 b6 6e c6 bf 58 b2 79 4f da 11 bb 3f
       -0.17525373649594433 0.10574116173092685
000400 34 77 22 8e f7 e2 de bf c8 14 8f 18 7c 0d d6 3f
       -0.48260296707472894 0.3445730438073267
000410 10 e7 06 f9 0b 32 c6 bf 6c 28 ad 5e 4e aa da bf
       -0.17340230617065133 -0.4166446613859367
000420 58 b6 f2 ac 9b d7 c0 bf 30 25 5f 29 df 48 d0 bf
       -0.13157983727198785 -0.25444773712350166
000430 26 59 5b 91 e3 ce d9 3f 58 33 4e 9f 85 6b df 3f
       0.4032524985790523 0.49093761975455186
000440 9a 2e 17 e2 c6 59 d1 3f 52 23 c9 6e 47 f0 d7 bf
       0.27110454634814973 -0.3740404683963351
000450 d0 b8 5a 65 3e 7c ad bf 50 16 ff 01 b0 92 a1 3f
       -0.057588529465066096 0.034322262042718266
000460 10 89 08 73 21 9d ad bf 8e 35 3b 05 ee 6d d1 3f
       -0.057839436809688505 0.27233458052509085
000470 82 6e 9a 51 fc 55 d8 3f 56 ff e9 28 24 1a de 3f
       0.3802481457621313 0.47034553523552824
000480 b8 7c bf 9c 32 68 da bf 30 13 dc c2 c5 3b a6 3f
       -0.41260972316190303 0.04342477801950506
000490 c4 f8 a3 21 29 bf dd bf 00 3a ba e8 57 f6 8c 3f
       -0.46479252133566384 0.014141737737443982
0004a0 7c ec db 21 67 14 d0 bf 1a 8e d9 72 0c 0c d9 bf
       -0.2512452917723704 -0.3913603898601835
0004b0 fe d1 22 3f de ab d4 bf f0 73 49 be 53 4a dc bf
       -0.3229899994433082 -0.44203656752307463
0004c0 ac 19 8a bd d2 4e d1 3f aa be e3 1c 2c ee d2 bf
       0.2704359866114838 -0.29578688451054325
0004d0 48 d2 de 46 b1 fb c5 3f 08 6a 10 b1 a0 b7 c3 bf
       0.17174354515522539 -0.1540413727351082
0004e0 6e 0e c3 3a c0 77 d0 bf 14 5f 5c 3d 2c 3a da bf
       -0.25730901468725775 -0.4098005866267027
0004f0 d8 8a 5d df df 97 c7 3f 40 2c 50 d3 e5 24 97 3f
       0.18432234198106445 0.02260169126752154
000500 58 04 cd c9 58 ec ce 3f 98 a4 a2 05 28 31 d2 3f
       0.2415877328258229 0.2842502646477185
000510 00 92 d7 63 cd fb c9 3f ce 64 fa 51 45 f1 d9 bf
       0.20299689650632047 -0.4053509998862638
000520 b2 8e f2 c5 86 fb d4 bf d0 54 76 28 eb c6 b1 3f
       -0.3278519566613155 0.06944150674674465
000530 e0 6f a0 02 73 c4 ac bf 3c 7b 42 38 bf c1 d5 bf
       -0.056186288900988535 -0.33995037550078044
000540 98 05 2e 82 ff f6 d5 3f ea 1b 57 12 bd d0 d6 bf
       0.3432005664145321 -0.3564903906921574
000550 50 77 e2 4c 49 5b aa bf aa 3a 74 64 a4 39 d9 3f
       -0.051477709422427353 0.3941431981083193
000560 f0 db 34 59 20 0a bc 3f 00 8c b4 6a 1e 5c 94 bf
       0.1095295160092602 -0.01988265539433698
000570 58 53 a9 98 be 58 cf bf d2 b8 4e b2 fa 6d d7 3f
       -0.24489576772853172 0.3660876027378325
000580 40 c7 7e 2f 6a d4 95 3f c4 b3 a6 79 2b d9 dc bf
       0.021318110607985163 -0.450754994201642
000590 58 45 4c f7 a3 27 b1 3f f0 9f a8 0a d6 98 df bf
       0.06701111590907283 -0.49370337525260677
0005a0 24 73 e1 8f dd 65 d4 3f d4 f9 9d 5f 02 1c c6 3f
       0.3187173752865411 0.17272977513125787
0005b0 00 f9 48 c7 7d b4 b7 3f b6 2c 8f 51 a6 75 df 3f
       0.09259782901151326 0.49155576672337575
0005c0 40 a8 d6 6e e6 b1 d5 bf 3e dc ad c5 a7 ac dc bf
       -0.338983162155845 -0.4480380468807573
0005d0 b8 d4 55 ac ad 97 c7 3f 5e fa 18 c6 f1 67 d6 bf
       0.18431635775383426 -0.3500942644640527
0005e0 48 9d 95 bc 35 1e d5 bf c4 27 b0 b5 9f 9a c4 bf
       -0.32996886650513035 -0.16096874591340626
0005f0 3e 66 2b e4 79 20 d3 bf d0 80 5a 5b 8b 9e df bf
       -0.29885718614750434 -0.49405177994959804
000600 60 86 19 84 df f4 a9 3f d4 20 c5 fb d7 4c df 3f
       0.05069635856194732 0.4890651663486214
000610 9a c7 d9 09 37 5b de 3f 0a e6 9a 72 03 64 d2 3f
       0.47431732141478167 0.2873543376150286
000620 8c 8c b8 66 d8 d1 db bf d6 18 93 7a 7a ba da 3f
       -0.43468294173562394 0.4176317402856403
000630 9c ca 13 98 b8 1a df bf 48 4e 05 87 48 91 b8 3f
       -0.4860059247140869 0.0959668473854488
000640 a8 7c 70 8f 89 53 d0 bf 54 de 23 97 13 c0 c7 3f
       -0.2550987149024402 0.1855492103566002
000650 da 4d a4 95 48 5f d4 bf 00 9a ef d4 d4 f5 d4 3f
       -0.3183156453462438 0.32750435633207076
000660 e8 08 bc e1 fe 18 d3 bf d8 8f df c9 ea 09 d1 3f
       -0.29840061230073767 0.2662302943629107
000670 08 fe 83 86 c2 3d c8 3f a8 b4 a7 62 60 d9 b9 bf
       0.18938476150650296 -0.10097315224239145
000680 0e d8 eb a3 5d 80 d4 bf 88 f0 21 ee 8a 46 c2 3f
       -0.32033482559143145 0.14277779223983011
000690 68 b6 07 1e 76 86 df 3f 30 cc 9e b8 3f e6 b9 3f
       0.4925818722975692 0.10116956956225986
0006a0 2e 0a 0c 1d cd c2 d7 bf b8 0b 56 79 9c 1b c0 3f
       -0.3712647231733709 0.12584262776007704
0006b0 58 f7 f8 05 90 9e bc bf 64 7a c3 cb 71 53 d9 3f
       -0.1117944731313093 0.39571804903781627
0006c0 70 21 2e 4b bd 8a b2 bf 60 41 90 bd 2f fe d1 3f
       -0.07242949567274137 0.28113931190548236
0006d0 e8 26 f1 57 5b 8e c2 3f 70 49 c5 cd bb 9a df bf
       0.144969385090284 -0.4938191899756452
0006e0 70 d0 5e 77 f7 96 d9 bf 58 3d 9b 10 df 7a ce bf
       -0.39983927399885655 -0.23812473593577965
0006f0 68 f7 dc 93 db 8e bc bf ce 7d e9 aa 8d f2 de 3f
       -0.11155483589115323 0.48355428400642786
000700 34 9a fd f9 eb 91 c2 3f 18 0e db 09 72 18 dd 3f
       0.14507817942212997 0.4546170326468384
000710 8e 24 40 67 c2 7d d2 bf 90 03 ae a6 69 e5 d1 bf
       -0.288925743895171 -0.279627239964662
000720 4a 96 48 17 af c2 dd bf 2a 2f d6 78 b6 64 de 3f
       -0.4650075652483322 0.47489702034430314
000730 a4 52 04 6b 6a 31 d5 3f 34 f9 b1 3c 1f 42 d7 bf
       0.33114109469287656 -0.36341076781527026
000740 40 cb f5 09 ba f5 d1 3f 00 80 e7 4e b5 5b 85 bf
       0.2806229684130592 -0.01042882582709126
000750 1c ab 67 92 f5 3c cd bf 30 28 03 79 07 03 c1 3f
       -0.2284228291385596 0.13290494355016014
000760 3a 51 98 23 dd 84 d1 bf 30 4d 12 1d 52 83 b3 bf
       -0.27373436428139863 -0.07622254571679288
000770 5c 5a ba 5b 3f 12 cf bf 58 9c 45 16 74 8a c8 3f
       -0.24274436930564292 0.19172526443000737
000780 d0 a7 40 1c 11 59 b7 3f 00 a0 e6 94 ad c0 b6 bf
       0.09120280208358555 -0.08887753377223362
000790 82 89 4d 47 15 ca db bf 28 8f 3e 1d ae bb b1 3f
       -0.4342091747586424 0.06927002157186435
0007a0 6a 2f b0 f3 8b 5b d7 3f 20 1c 0a 58 22 2e 9a bf
       0.3649625663535888 -0.025566612838272218
0007b0 b0 56 48 ad b0 17 ca 3f 48 15 85 18 0d 54 dd 3f
       0.20384796582282183 0.4582550754024237
0007c0 7a cf 57 4f eb fc dc 3f 24 63 fa 6f 1c 46 df bf
       0.45293696163502484 -0.4886542409454242
0007d0 1a 20 3c a8 eb 7f dd bf 34 07 88 28 7b 73 d2 3f
       -0.4609326498907663 0.28829840620174996
0007e0 0c 12 51 bf 5d 4c dd 3f 7e 0f ec bb 3f 93 d9 bf
       0.45778602298040094 -0.399612363355338
0007f0 48 c2 6a 25 ce 81 d7 3f 22 b0 ec c7 4b 8a da bf
       0.36729768423086684 -0.41469091915019096
