model/600_100/ini_Theta3.npy (npy, 8208 bytes, 1 tensors)

array f8 [10, 101]
0	0xbfc029c957ffb7cc	-0.12627522274800496
1	0x3fd8da9628f3af0a	0.3883414649887845
2	0xbfc85a31417b9f34	-0.19025245377928857
3	0x3fc68e7366d7abac	0.17622225305180217
4	0x3fd3d506f92b7bb6	0.3098771508502368
5	0x3fb013e3833abf90	0.06280347780079709
6	0xbfc4c4845dacceb4	-0.16224722455955531
7	0x3fba13388fef25d8	0.10185578836458065
8	0xbfc0a866dd8afc30	-0.1301392156364911
9	0xbfdcb8e12cab6884	-0.44878415453207077
10	0xbfcfd37bf1f1e878	-0.24864148439138822
11	0x3fd7a75e5e13f596	0.36959037005711914
12	0xbfd02a6476bf2d2e	-0.25258742901196996
13	0xbfc7227632f159d8	-0.18073918807449618
14	0xbfcb41ff72b473a0	-0.21295159436058686
15	0xbfddbdcea7e94098	-0.4647099151379819
16	0x3fc4fd38485de374	0.1639776566842347
17	0x3fc0a657a29fe77c	0.13007636490493357
18	0xbfcc3d2149226e80	-0.22061554022808494
19	0xbfd24993c514eef2	-0.2857407974840803
20	0xbfd2344b9cb9f4d2	-0.28444185548125944
21	0x3fdd24f13bf85a2e	0.45537978035409565
22	0xbfc5ace461880c2c	-0.1693387485721315
23	0xbfcab1a93691bc80	-0.20854678310886143
24	0xbfcb32dbcc251e88	-0.21248958080308378
25	0xbfdead14a93cfe80	-0.47931400801824253
26	0x3fdf07f1dbbc7f98	0.48485990961671055
27	0xbfd714a45707a33c	-0.3606348848248222
28	0xbfdc16cd99cc5900	-0.4388917924819822
29	0xbfcc04cd40d3d37c	-0.21889653840448975
30	0xbfb5ef74a985f8e0	-0.0856850541949572
31	0xbfd5466addc6a820	-0.33242293985188276
32	0xbfd67bac49e1042a	-0.3512984010195078
33	0x3fdca98b58805c24	0.44784816401210237
34	0xbfc5805454210158	-0.1679788027559066
35	0xbfa198b118d02640	-0.03436807086843574
36	0xbfcbed4c101d6d30	-0.21817923342573797
37	0x3f9cf89033eff500	0.028291943712237533
38	0xbfce02f5359a9438	-0.2344652663934157
39	0xbfd610d3f09c8ff0	-0.3447770929071785
40	0x3fd36521e20e6f74	0.30304762912577776
41	0xbfd68a0a4f51518a	-0.35217530961860943
42	0xbfcf071e356c0ddc	-0.24240472420215908
43	0xbfd24dab451cb47e	-0.28599054097396237
44	0xbfd9eb0b656006fc	-0.4049709787360454
45	0xbfd52613f80d7c98	-0.33044909690756574
46	0x3fc25d3a6a77ff18	0.1434700984827877
47	0xbfcd6ccd2e8aba18	-0.22988285801461994
48	0x3fb86208cc2318b8	0.09524588569465464
49	0xbfd42acf270913ac	-0.3151128655629758
50	0xbfceb20b0b53dd84	-0.2398084454832593
51	0xbfc95c0652ccc8e4	-0.19812087099996412
52	0x3f89d26c3a450d00	0.012608380821467424
53	0x3fc406119a1f51c8	0.15643520379548037
54	0xbfd0e8a79af650c6	-0.2642001164724771
55	0x3fd57ddcfd0b8316	0.33580708228514433
56	0x3fd9d1576070141a	0.4034021798873383
57	0x3fd6784af289d382	0.3510920876063254
58	0xbfd35951828e0f74	-0.3023265623999045
59	0x3fc435453f219324	0.15787568647933725
60	0x3fc6d7daa22547d4	0.1784623424269386
61	0xbfbb2abd7cc0a928	-0.10612091346471131
62	0x3fc40bc36d328840	0.1566089900198353
63	0xbfc93a894d5b6fcc	-0.19709888722615998
64	0x3fda31107b418d5c	0.40924465214466976
65	0xbfd4ffcb9f0be116	-0.3281125119388134
66	0xbfb3c0e0cd0f92e8	-0.07716183668487597
67	0xbfcc1f7b49ac8530	-0.21971074197157625
68	0xbfc2c51d3539b56c	-0.14664044474504168
69	0xbfc3d9b0a69f4960	-0.1550808728776003
70	0x3fdc18dcd3489ed6	0.43901749261065726
71	0x3fd4934ebd93fba2	0.3214909411762453
72	0x3fd4c9f59cd14a3c	0.324826625005844
73	0x3fd67afda324ad0a	0.3512567609020186
74	0xbfd0daa657781432	-0.2633453230085393
75	0xbfd17d6e1f33e4ca	-0.2732806496347392
76	0xbfc233d76cd33684	-0.14220707715724157
77	0x3fde5d6533ad8cf0	0.47445039793656374
78	0x3fdcfbbf00d002d0	0.45286536292409796
79	0x3fa4216a046695f0	0.039317429578016205
80	0x3fc7b41fd7d4a6e4	0.18518446005446443
81	0xbfd81310fef395ce	-0.3761637201081073
82	0x3fd734bce9b5cb28	0.36259386847739217
83	0x3fdac30416fcb888	0.41815283055155605
84	0xbfb9462dacb18640	-0.09872708765171812
85	0xbfc612015cf3669c	-0.1724244788991215
86	0xbfb650bb193e2288	-0.08716935507085044
87	0x3fd9cc2ec6d05fce	0.4030873242895695
88	0xbfd6d610b6f24f66	-0.3568155085169934
89	0xbfd758ca0e210f72	-0.36479426746176735
90	0xbfb6a4e6ca70e8d0	-0.08845369760902888
91	0x3fc0462891c0a980	0.12714106671166903
92	0x3fd53b49916bbdde	0.33174361420875964
93	0x3fcdd7842c728e20	0.233139535620567
94	0x3fb3c24de2c7b010	0.07718359743711312
95	0xbfd54616866c8a1e	-0.3324028313383297
96	0x3fdbc9872e67bfbc	0.43417529613270367
97	0xbfad1e50707c6e70	-0.05687190411682941
98	0x3fbe8652ebca4790	0.11923712021442001
99	0xbfc9dd223c939238	-0.20206096608957735
100	0x3fd79d78cef10bac	0.3689863224901113
101	0x3f8a3b252ed26200	0.012808123103511981
102	0xbfde774badf0e5d0	-0.47603122698236877
103	0x3fc6ed2a29bda950	0.17911269224289095
104	0xbfd230f60ce49166	-0.2842383504778553
105	0xbf90abbaf825bb00	-0.016280099292482753
106	0x3f8c8e6fabb34180	0.013943550517439673
107	0x3fd42bd839cd5446	0.31517606396420594
108	0x3f76e1a407da8c00	0.005586281533086712
109	0xbfd0d0c6e9c1316e	-0.26274273707965434
110	0xbfce7394d435d09c	-0.23790226327731012
111	0x3fb22d43bbc456b0	0.07100318273691175
112	0xbfb07530df3bccf8	-0.06428819131888364
113	0x3fdc6ab7c30d3bba	0.4440135388185201
114	0xbfd6493af4e7a4e0	-0.3482196227692622
115	0xbfa9fbe894231ab0	-0.05075003441156889
116	0xbfdd4dc72c05bed8	-0.45787219332758644
117	0xbf920944df66d040	-0.01761348355803727
118	0x3fb157ccc218b278	0.06774596918757847
119	0xbfd38eee9b6f499a	-0.3055988805691868
120	0x3fd21da424606b24	0.28305915405660387
121	0xbfcc5ff9c46fa230	-0.2216789445076457
122	0x3fda906c393eec5c	0.4150648650208433
123	0x3fc907cd84a1e4d0	0.19555062271300594
124	0xbfd424b4899478b6	-0.3147403091005673
125	0x3fd728c33608211a	0.36186294819391807
126	0xbfd5b8d0623dfcec	-0.3394051513095764
127	0x3fd2f132eeddc35a	0.29597161604674727
128	0x3fdc688fa19f1bcc	0.4438819006285797
129	0x3fdc9c8f5811ad0c	0.4470556602525029
130	0xbfa001f61a013390	-0.03126496379318333
131	0x3fddd33aeb6aacec	0.46601746549522605
132	0x3fdb3aa942899d3c	0.4254553937702956
133	0xbfdfe59259a43446	-0.49838694337887934
134	0x3fd8de9a7a335982	0.38858663495684465
135	0x3fd13a8e97ee406c	0.26919903599719563
136	0x3fc882db910260e0	0.1914934595158746
137	0x3fd9029867817cf2	0.39078340633382347
138	0xbfdc24909b5c754e	-0.43973174259175074
139	0xbfc1b7ee3d7bc4e4	-0.1384256172382613
140	0xbfcdd119f2586d8c	-0.23294376691124474
141	0xbfb195f779cfedd0	-0.06869456027919019
142	0x3fdcb538ba3d70f2	0.4485608881712003
143	0xbfa0fce334c63730	-0.03317937869279175
144	0x3fdd880257c61c08	0.46142633983294035
145	0x3fd24ef423882520	0.2860689494123836
146	0xbfde2098bac15f7a	-0.47073953855350903
147	0x3fd4db4300a7f214	0.3258826738745324
148	0x3fd987a7f76fe04c	0.398904792440139
149	0xbfd3559a55dea362	-0.3020997847148036
150	0x3fdedbff1ea4ad64	0.4821775244951907
151	0x3fc98e21dbcb0fdc	0.19965003234949463
152	0x3fda0c4c2b555976	0.40700058204438194
153	0x3fd2435391403b60	0.28535927948626316
154	0x3fde6b25cbe09aa8	0.47528977308176446
155	0x3fb072fe04a52b28	0.06425464261444047
156	0xbfd672804ea2fa1c	-0.35073859862669265
157	0xbfdbea40a0f2c94a	-0.4361726352464258
158	0xbfd3961d1fb8b76c	-0.30603721711928844
159	0xbfb1939684aaefc0	-0.06865826357801463
160	0xbfdd23e82646b0a8	-0.45531657922652835
161	0x3fac71bc14d64570	0.05555522684438585
162	0x3fd02aeb293af818	0.2526195433273428
163	0xbfda489966f07986	-0.410681105162347
164	0xbfb5cbfe8ca7fa50	-0.08514395650852546
165	0xbfaf12983db368d0	-0.06068874123748602
166	0x3fbf6762af54ee28	0.12267128735123178
167	0x3fdc414a4f2fc59e	0.4414850018793802
168	0x3fd414fe9bf3f6e8	0.31378140668662846
169	0xbfd4dbace05654ac	-0.3259079161446816
170	0x3fda89370d5cb1ba	0.41462494187251375
171	0x3fdc37390e37ce9a	0.44087053669429965
172	0x3fc1718736f3ff48	0.13627710517175218
173	0xbfd29ed87c9f7250	-0.2909451691646483
174	0x3fd0236466f3df1e	0.2521601682087623
175	0x3fb9dcea1d155eb0	0.1010271378521519
176	0xbfd7222700f5b406	-0.36145949453094806
177	0xbfbafe83201304d8	-0.10544604809821878
178	0x3fdd3913c4d48be4	0.456608717171717
179	0xbfc92de031d7f220	-0.19671251710669058
180	0x3fcd5536d1f8da40	0.22916302921812992
181	0xbfdf68307bfaaa44	-0.4907342158063879
182	0xbf9954d4cfe60380	-0.02473766821777046
183	0x3fc17d8eec54ab70	0.13664423503481826
184	0x3fd9a75f666a3f24	0.4008406162401903
185	0xbfc86febff3a0e28	-0.19091558420414967
186	0x3fbaad7a0d2047a0	0.10420954533063176
187	0xbfcf38f903abfd8c	-0.24392616919793075
188	0x3fd73b774927467c	0.36300451415909385
189	0xbf9f7a623864a520	-0.030740294162716286
190	0xbfcd6f9c8e973b8c	-0.22996861422003823
191	0xbfdeca8a9d2ed4c6	-0.48111214971443095
192	0xbfd53f1254dee7f2	-0.33197458542019753
193	0x3fc80f5f1fab3acc	0.1879691033013472
194	0x3fdf987b5a70dd70	0.49368175346486165
195	0xbf9fef8149fd3460	-0.031187076703009686
196	0x3fd3d2b8f87e3742	0.3097364832582238
197	0xbfbef7cb98c928b0	-0.12096855621453773
198	0xbfc5b097b2c3fa9c	-0.16945167759691493
199	0x3fcf0fcd4e7545bc	0.24266973811113057
200	0xbf75192006493080	-0.005150914283671537
201	0x3fde95b3d77694fe	0.4778871158726615
202	0x3fd64d41688b0dd6	0.34846530160231504
203	0xbfd396bbb1d6997a	-0.3060750233365962
204	0x3fc173e0ec0f4ddc	0.13634883428913624
205	0xbfd573112ee3347a	-0.3351481397520001
206	0xbfd8d18aef467c60	-0.38778947226268734
207	0xbfde689cbaca4734	-0.4751350235102223
208	0xbfc81a724a6973d0	-0.18830708154101083
209	0x3f9ac5517ce04c00	0.026143334624133985
210	0x3f9d1d6014db3340	0.028432370446171307
211	0x3fdc1d870e00f82a	0.4393022190814714
212	0x3fcd60a4ddc904cc	0.22951184110028178
213	0xbfdebb84e8030a42	-0.4801952615490884
214	0x3fddaa36fc7435e2	0.46351408628183155
215	0xbfb80d4d94375048	-0.09395298832470289
216	0xbfd4e79bcccbd308	-0.3266362667048246
217	0xbfdd13c53c5487a8	-0.4543316926157055
218	0x3fd4985104549634	0.32179665968792226
219	0x3fdd7769e1538a14	0.4604134273960494
220	0x3fcbaa4bb8aff85c	0.21613451497973102
221	0xbf96336811a76da0	-0.02168047530891004
222	0x3fdded501811a03e	0.46760942793344273
223	0xbf8f8dc8236dc080	-0.015407146054457366
224	0x3fb9c668120e8230	0.10068369332157867
225	0xbfd085b2f532a184	-0.2581603426465551
226	0xbfda95d66eab2a66	-0.41539536292535784
227	0x3fc415225efb5978	0.1568949664858328
228	0x3fd4f60f8d55ef02	0.32751835634529425
229	0xbfbfd292915095f8	-0.12430683181499791
230	0x3faded2ec7836590	0.05845018563713744
231	0xbfc9767384f89914	-0.19892734520653532
232	0x3fd7c86bbe7547f8	0.3716077194159193
233	0x3fc71b9f7f90a780	0.1805304882885217
234	0x3fdae5783f0c5f8c	0.42025571972907794
235	0xbfd38d6b97c26220	-0.30550660915608496
236	0xbf9071fea43dc3a0	-0.016059855246058796
237	0x3fd9fbe366445a2e	0.40599904047977275
238	0x3f8fbcaf6092e780	0.01549660695524202
239	0x3fb789be1c638060	0.0919455355938239
240	0xbfc1393b1aaf93fc	-0.1345590477277766
241	0xbf9b0658f9d34ca0	-0.026391401527530278
242	0x3fddfd74a29924a6	0.46859470251781443
243	0x3fc7a23b98ba7efc	0.18463845212408347
244	0xbfdfd5379472b40e	-0.49738873955612994
245	0xbfd18ec076adeaf6	-0.27433787908346063
246	0x3f784d4cd0250a00	0.005933094073329759
247	0xbfcc93c14a9b4ad8	-0.22325912611866872
248	0xbfd96c6294cae85c	-0.39724030046966674
249	0x3fcf0bd88bcb2f74	0.24254900766242893
250	0xbfcb191305a84ccc	-0.2117027070640688
251	0xbfd3eb26a06e54a4	-0.3112274710377483
252	0x3fd876294e4116a0	0.3822119964791941
253	0xbfc69f207111b708	-0.17673116227108943
254	0x3fafac5d955b83f0	0.061861919862856385
255	0xbfb6d768ae8d4c00	-0.0892243791725349
