model/600_100/Theta3.npy (npy, 8208 bytes, 1 tensors)

array f8 [10, 101]
-0.12630206583998016 0.38811400417257935 -0.19014464136810863 0.17609379111652723 0.3096825819505626 0.0627672356052088 -0.16215550072712248 0.1017902821143217
-0.13008797205938433 -0.4485230864572523 -0.24849629857140793 0.36935093028340954 -0.2524653868444282 -0.18063455638240863 -0.21282866874116962 -0.4644691042639577
0.163880930747831 0.12998256862808794 -0.22051621980101263 -0.28560066483049623 -0.28427788410886984 0.4550874552343701 -0.16924112570530478 -0.20844954400820112
-0.21238167527550125 -0.4790409910276873 0.4845758926682174 -0.3604230086152443 -0.438669642598606 -0.21878164094084063 -0.08563604512807185 -0.3322411318617541
-0.3510949036874941 0.4475934338855811 -0.16788132114802012 -0.034349215420937274 -0.21805397771847612 0.028249927752041867 -0.23434621097412203 -0.34460232125915485
0.3028471224609262 -0.3519710283938237 -0.24227441984692322 -0.2858361256471955 -0.404744464781873 -0.33027907977277493 0.14338633692846411 -0.22976825229090395
0.09517758139631007 -0.31495697650896076 -0.23966661747786241 -0.19801954361885343 0.012596480876236313 0.15634401973382442 -0.26404807524906876 0.3356067616646304
0.4031511059146246 0.3508658335064134 -0.3021529195793664 0.15775696076507081 0.1783340022769086 -0.10606296841056397 0.15651623427397784 -0.19701005588756437
0.40901355897058245 -0.3279465733397872 -0.0771401492629954 -0.21962396202350515 -0.14657568718358205 -0.15500003943342483 0.43873938717316513 0.32127492238251476
0.32463568202861504 0.35104433374033844 -0.26320418795781225 -0.27314796481722176 -0.14214910920013382 0.47417177581980524 0.4526007252092264 0.03928043114900713
0.18504866802979886 -0.3759600945933597 0.36238076389325574 0.4179073930420618 -0.09867036017605034 -0.1723465553561745 -0.0871368163921189 0.4028518924905825
-0.35661505351070477 -0.3646072871441907 -0.08842116532175176 0.1270545649462329 0.3315521434617163 0.23299908607572628 0.07711733306135185 -0.3322245527522246
0.43391879325159527 -0.056862446945309175 0.11915144623640012 -0.20197231777111352 0.36876548226861305 0.012721402560110753 -0.4757968586541881 0.1790020155458713
-0.284155108033268 -0.016323586747927943 0.01393363580839438 0.31497213426208454 0.005544291923738873 -0.2626707158658715 -0.23777528355303548 0.07094594400223855
-0.06433939377461553 0.44367008538292224 -0.3480194879309057 -0.05073093870812709 -0.4576675485673816 -0.017630110827099078 0.06763979690887285 -0.30544508957851924
0.28281998519919305 -0.22155732529193672 0.41473637709223404 0.1954314711102451 -0.3146069601645241 0.3616065365322625 -0.33922486743609637 0.2957885982897786
0.443611699001904 0.4467236030690007 -0.03130733024819526 0.46574017134603934 0.4252018469929974 -0.4981013776168714 0.38834077152299523 0.2690372451573696
0.1913586274453912 0.3905455497489617 -0.43955665631416 -0.13837104282517712 -0.23287476797131224 -0.06872939495737988 0.4482927013651614 -0.033212414695636426
0.4611130937960211 0.2858784863267615 -0.4705349849008708 0.32569214935665475 0.3986375835761062 -0.30197251928012353 0.481861889433201 0.1995291448649635
0.40675772752391826 0.28517249574798814 0.4750103880564337 0.06420616571448727 -0.35054981346679487 -0.4359921640353302 -0.3059250665057729 -0.06863440193343318
-0.45513348037997337 0.05544294754198237 0.25245846522301596 -0.4104692382442863 -0.08516793909909096 -0.06069478339552083 0.12251747606133712 0.44116012232293617
0.31353153778084103 -0.3257676650416315 0.41432833326121055 0.44059853202660665 0.13611960578637364 -0.29078199013305683 0.25200258254006463 0.10094763520257555
-0.36133487573327683 -0.10546829905993262 0.4563297674900847 -0.19660092611252944 0.22898158417279404 -0.49051835805379745 -0.02475258682420197 0.13655112651526657
0.4006048876881053 -0.19081655676174605 0.10406601152150668 -0.24383966990175832 0.36279047630746475 -0.030738075408084976 -0.22991786598050537 -0.4809075313382993
-0.3318283767844435 0.1878356329769699 0.493371819629097 -0.031233857291803387 0.3094888483993506 -0.12091527478805912 -0.16943040907160553 0.24251185060886546
-0.005219935063515353 0.47760928796627855 0.34840662982148185 -0.3059255857485972 0.1362655395083035 -0.33501122243088055 -0.3876071465543284 -0.4748597663644976
-0.18820897053789018 0.026118158123006222 0.028361459321111216 0.439040038831946 0.2293694724848381 -0.47996502431020527 0.4631856459656159 -0.09389904659117242
-0.32645109888569535 -0.4541085245472556 0.3215996596499501 0.46009783176992936 0.21599626593079319 -0.021723886757314514 0.46733254626513554 -0.015456694896190873
0.10062275334280038 -0.25804170733242576 -0.4152039752543016 0.15679818633901774 0.32732335567990234 -0.12424009160284695 0.05836987480670902 -0.19885022796914312
0.3713853352294513 0.1804117375599205 0.42000967966861996 -0.3053363433818591 -0.016052403317723476 0.40574725219676905 0.015482417132363199 0.0918360802028127
-0.13449355114827857 -0.026425467512104603 0.4682674985184383 0.1845261767696472 -0.49712898591081156 -0.27421649037150275 0.005914969581079602 -0.22317119751637093
-0.3970088310641293 0.24238615467184135 -0.2116127595105793 -0.31107376357718075 0.38198759924445125 -0.17664209059146735 0.06182407174509326 -0.08917349524644134
00000000: 1498 1985 aa2a c0bf 0e9d c21e dcd6 d83f
00000010: 35c4 17dc a856 c8bf d0e3 efc8 3d8a c63f
00000020: 9b95 67e4 d6d1 d33f 6848 2f78 8311 b03f
00000030: c8a7 3eee 82c1 c4bf ce4b bb8c ed0e ba3f
00000040: d68b cc00 b9a6 c0bf a96e f52c 9ab4 dcbf
00000050: a247 c509 bace cfbf 751f 9415 72a3 d73f
00000060: 8c9a f794 6428 d0bf 134f 187c 081f c7bf
00000070: 5280 f245 f83d cbbf 303b 349f dcb9 ddbf
00000080: 2eff ffe2 0cfa c43f 2663 a7d0 44a3 c03f
00000090: f735 2420 e039 ccbf f36b ca02 4847 d2bf
000000a0: ad50 cedd 9b31 d2bf 824b 4322 2720 dd3f
000000b0: ef70 0576 b1a9 c5bf a3cf 3083 79ae cabf
000000c0: e9fa c99e 522f cbbf f711 7a8b 9ba8 debf
000000d0: f528 dc9a 4a03 df3f 1d9e aeaa 2b11 d7bf
000000e0: 9b60 2dd6 2913 dcbf 1c2f 676c 0901 ccbf
000000f0: b610 2f6d 3eec b5bf 4edd ee4e 7043 d5bf
00000100: da52 48c2 5678 d6bf 9f58 1cee 5ea5 dc3f
00000110: 9052 f897 227d c5bf 409b c069 3896 a1bf
00000120: fc22 8857 31e9 cbbf ccce 3c8f 8ced 9c3f
00000130: bda5 0980 0eff cdbf a7c2 fbe4 f60d d6bf
00000140: 9912 aae5 d861 d33f 4bd2 057e b186 d6bf
00000150: 3430 f322 d902 cfbf 20e2 ea9a 234b d2bf
00000160: 2869 de53 55e7 d9bf ae54 8bdd 4a23 d5bf
00000170: db86 e6c5 7b5a c23f 29cf 9fcc 0b69 cdbf
00000180: f1d6 68d7 8e5d b83f 9731 704e 4128 d4bf
00000190: 8353 014e 65ad cebf c0e9 e753 b458 c9bf
000001a0: b8d6 430b 2fcc 893f 494a d7b1 1403 c43f
000001b0: 4b0e f1e5 29e6 d0bf a1a0 6ac8 947a d53f
000001c0: 8bf8 cf4b 3acd d93f a867 0cf8 9574 d63f
000001d0: b8fe fe32 7956 d3bf 17e6 994d 6131 c43f
000001e0: 76a5 c509 a6d3 c63f 89da a354 f126 bbbf
000001f0: bff9 bf55 b908 c43f 9c96 8221 a037 c9bf
00000200: ce8c d934 472d da3f 0319 d59f 13fd d4bf
00000210: 280a 4bf2 74bf b3bf 0e8a 2753 a31c ccbf
00000220: 94cd 6bfb fdc2 c2bf 0265 1f92 0ad7 c3bf
00000230: 890d d85d 4e14 dc3f 0a1a 2ab1 c48f d43f
00000240: 165d 5bbd d4c6 d43f 6118 37a7 8277 d63f
00000250: 15bd dc60 56d8 d0bf a5f8 f699 417b d1bf
00000260: 15c6 9527 f131 c2bf 8544 7593 d458 de3f
00000270: 41d9 3a08 69f7 dc3f 9ec6 508e 901c a43f
00000280: c69c adbc acaf c73f 7d4a b8ed ba0f d8bf
00000290: f9be 6716 3f31 d73f 54d3 77a6 febe da3f
000002a0: cf69 0af2 7542 b9bf 80a0 6ab1 730f c6bf
000002b0: 6084 ae30 994e b6bf 9a3d d84d 53c8 d93f
000002c0: bebe 05f2 c7d2 d6bf a3b9 8acd b955 d7bf
000002d0: 24c5 54fd c4a2 b6bf b833 a0f0 5243 c03f
000002e0: ab8d 457b 2638 d53f 98b8 58ff e9d2 cd3f
000002f0: ea07 7427 f6bd b33f 22f0 3fc5 2a43 d5bf
00000300: 2faa 8854 53c5 db3f a053 001c 131d adbf
00000310: b43f db8c b580 be3f b21a c399 3ada c9bf
00000320: ec30 8f89 da99 d73f 6eb0 a3bf ad0d 8a3f
00000330: b864 ddaa 7473 debf 4e03 58bd 89e9 c63f
00000340: 83a1 ffe7 982f d2bf 906d f15c 21b7 90bf
00000350: 9134 e4f0 3c89 8c3f 77a5 f3e1 8028 d43f
00000360: a4f7 de87 9cb5 763f 61b1 90d5 98cf d0bf
00000370: 2526 54a5 6b6f cebf 9a01 466d 8329 b23f
00000380: a23f 1be8 8b78 b0bf 33b9 bb36 1765 dc3f
00000390: 872b c287 f345 d6bf 9427 4bd5 67f9 a9bf
000003a0: b164 62d4 6c4a ddbf fd7f b5b5 a00d 92bf
000003b0: 7db6 a17b d750 b13f 7caa 9d8f 698c d3bf
000003c0: bc7c c5fe b819 d23f 90b7 288d fd5b ccbf
000003d0: 9ba6 0472 0a8b da3f bd8a 8300 e603 c93f
000003e0: ed09 403b 8522 d4bf e441 1bbe 8f24 d73f
000003f0: a630 e837 dcb5 d5bf 41cb 0b4d 33ee d23f
00000400: de83 d552 2264 dc3f d416 6298 1e97 dc3f
00000410: 2707 15af 8307 a0bf d756 17dd afce dd3f
00000420: 7728 c2ce 8136 db3f a33f bd99 e4e0 dfbf
00000430: 5142 5940 93da d83f 6ad6 56fe e737 d13f
00000440: 4bbb 5783 707e c83f d649 f1c2 b2fe d83f
00000450: 81f0 e63d b221 dcbf f5e2 d26f 24b6 c1bf
00000460: 440c 4024 d7ce cdbf fba5 9de7 3f98 b1bf
00000470: f886 d9de d3b0 dc3f d3bd e0b5 3701 a1bf
00000480: 651f 677e e082 dd3f b2d1 5947 d54b d23f
00000490: 5f7a f1c4 3e1d debf f93f 83e2 23d8 d43f
000004a0: 2b9d 1a36 4783 d93f b953 a68b 8453 d3bf
000004b0: bd7a 1340 d3d6 de3f 5b9d e5c7 2b8a c93f
000004c0: 9012 4790 5108 da3f 2734 bd23 4440 d23f
000004d0: 169c 7df8 9166 de3f d3fd f1b5 d06f b03f
000004e0: b95c 1d7c 686f d6bf 4504 76ad 4be7 dbbf
000004f0: 94cf eaba 4694 d3bf e842 af2f 0692 b1bf
00000500: 34fc 622d e820 ddbf 382b f99c 0463 ac3f
00000510: 18cc ee8c 4728 d03f cd7c 91c4 2045 dabf
00000520: 322b 19e9 90cd b5bf 1271 71fb 6213 afbf
00000530: 3835 df28 4e5d bf3f a749 6baa f73b dc3f
00000540: 9921 4295 e610 d43f 81ad dc9e 60d9 d4bf
00000550: 0a70 4afc 5a84 da3f 9512 6e2f c432 dc3f
00000560: 9933 9903 5e6c c13f 18c9 7810 2c9c d2bf
00000570: 7718 a170 cf20 d03f c0b8 cd47 b4d7 b93f
00000580: f86e 8b50 1c20 d7bf 0927 3a6f f8ff babf
00000590: aaea e3c4 8134 dd3f d020 021a 382a c9bf
000005a0: 2947 b4bf 444f cd3f 776f 7b1c a764 dfbf
000005b0: f6fa 9afb bd58 99bf 40b9 4edf 817a c13f
000005c0: 1a3e cfae 82a3 d93f 05dc 694b ad6c c8bf
000005d0: f42a 1cf4 11a4 ba3f bc05 d967 2336 cfbf
000005e0: dc9c c28b f537 d73f 6d94 7a52 cd79 9fbf
000005f0: 3d81 93d9 f26d cdbf b7e0 df61 30c7 debf
00000600: 0122 8b16 ad3c d5bf f76b 547e ff0a c83f
00000610: 83cc 8465 6793 df3f 3f89 62ae c4fb 9fbf
00000620: bd85 9650 aace d33f 8333 cdae 4df4 bebf
00000630: 8b89 f448 e5af c5bf 3ff6 a0d9 a00a cf3f
00000640: ee21 29a6 7f61 75bf 502f 058c 2691 de3f
00000650: f0bd 3252 4b4c d63f 0c31 73e8 4894 d3bf
00000660: 5a46 e131 2671 c13f 208d 08e9 d270 d5bf
00000670: da63 8934 8ece d8bf a130 ae37 1a64 debf
00000680: 9714 a346 3b17 c8bf a159 e1eb b7be 9a3f
00000690: fd07 0151 c90a 9d3f e0bc 1a64 3b19 dc3f
000006a0: a1f6 8297 fa5b cd3f 1eb7 a838 bfb7 debf
000006b0: 7988 5968 d5a4 dd3f 0f13 3c96 c409 b8bf
000006c0: ca44 5d26 93e4 d4bf 48fa 7033 1d10 ddbf
000006d0: 267b 26bd 1695 d43f 0c64 1a2d 3e72 dd3f
000006e0: 568d 1d01 c4a5 cb3f 20a0 a85c c93e 96bf
000006f0: a62b a4c4 c6e8 dd3f 55c8 aa78 c2a7 8fbf
00000700: d23e d7aa 69c2 b93f 1dcb 7f5d c183 d0bf
00000710: 15bb b8b1 b392 dabf 0ff8 3285 f611 c43f
00000720: 922d f7a8 ddf2 d43f 1d49 49da 32ce bfbf
00000730: a89c bbfe a7e2 ad3f 99fd f69c ec73 c9bf
00000740: 3e91 41ff c6c4 d73f cd33 5158 bb17 c73f
00000750: b987 8b47 70e1 da3f 6abd 4672 a18a d3bf
00000760: 1759 168d 0a70 90bf 8f20 a852 c3f7 d93f
00000770: bee4 f8d9 3eb5 8f3f a45c 10c1 9182 b73f
00000780: 9135 daad 1537 c1bf 5ce7 fb1a 470f 9bbf
00000790: a4a6 fa3d 18f8 dd3f 6ba3 3dc3 8d9e c73f
000007a0: 6e5b 1818 f6d0 dfbf 24d9 8a52 c38c d1bf
000007b0: ea69 858e 4b3a 783f dcf8 5eb1 df90 ccbf
000007c0: 2431 69ba 9768 d9bf 01cd a86f 8206 cf3f
000007d0: fbd2 c17c 2016 cbbf c449 4dee a1e8 d3bf
000007e0: d4e0 8e1d 7c72 d83f 6efd 1741 359c c6bf
000007f0: 1a60 809c 67a7 af3f dfe3 c0fd 12d4 b6bf
