model/600_100/Theta2.npy (npy, 480928 bytes, 1 tensors)

array f8 [100, 601]
000000 cc 22 3e a0 e5 7d c9 bf fa 06 fd 61 7b 14 cc 3f
       -0.1991545708117627 0.2193750599345135
000010 2b 16 fb ca 18 10 b3 bf 45 e9 68 a0 25 c1 b5 bf
       -0.07446436839662655 -0.08497843900923836
000020 16 a6 84 fa f6 17 db 3f 0e 34 14 54 b0 03 d9 3f
       0.42333769287742606 0.39085014544326746
000030 fd 40 ec 4e 0d 11 da bf d9 1d 99 9c 2e bd c7 bf
       -0.4072907706004257 -0.18546087881462262
000040 55 f1 c2 c5 0c 2c c5 3f 4a 8c 67 d8 3c 93 75 bf
       0.16540679603884692 -0.005267369916029338
000050 76 fc c1 12 6c d0 ce 3f 5f cf 11 3d d5 20 da 3f
       0.24073553958803345 0.40825396503281824
000060 5e 0d ee 42 58 47 d8 3f 8b 73 dd cb d1 fd ce 3f
       0.3793545392620298 0.24212095693920008
000070 10 07 09 6d 2e 3c 85 3f 16 af 94 91 fd e5 c8 3f
       0.010368693068020046 0.1945187531322225
000080 ab 56 29 ca a2 89 cb bf b0 20 be 38 e5 da ad bf
       -0.21513781424680664 -0.058310664345357366
000090 84 0d 19 34 7b cf a3 bf 0c 1e b7 52 c7 9d ce bf
       -0.038692331418611864 -0.23919002093155972
0000a0 ec c1 78 34 be 0a c4 bf 25 e2 f0 a4 6e 85 d0 bf
       -0.15657784998030821 -0.25814405543818203
0000b0 70 91 a6 3b 8c 90 dc bf 1d ac 32 08 1e ae df 3f
       -0.4463224966550774 0.49500227737979846
0000c0 d6 d7 95 7a ea 94 d5 3f c7 21 91 f1 d4 9d c4 3f
       0.3372141072389899 0.16106664462337347
0000d0 ed 69 9a ae 1b 8c a2 3f 8f 15 7a 36 13 e6 c0 3f
       0.03622519022356472 0.13202133331303087
0000e0 8c 4b 36 21 92 ce b4 3f 16 ad 72 31 d3 2c bb 3f
       0.08127702055780456 0.10615272481179647
0000f0 b6 2a 57 8d b5 e4 d3 bf 04 1e 18 8d d7 de d0 3f
       -0.3108343010214115 0.2636011960862279
000100 cc 0c c9 26 3d d8 b4 3f ad d8 e5 b8 19 0c d1 3f
       0.08142454335124966 0.26636355453900756
000110 d7 19 6a b0 2b 06 de bf e9 3f e6 a6 be e1 d0 3f
       -0.46912662723516746 0.26377836512347
000120 0a d7 b5 71 55 12 dd 3f 0e 66 b9 5a 5d 28 87 bf
       0.4542440042927046 -0.011307458239730141
000130 d8 3c f7 ed 57 0a d0 3f 8b cc 10 22 c9 84 de bf
       0.2506313156017774 -0.47685459448548134
000140 9e 2d 18 48 38 62 d4 bf 07 3a 9c d8 71 19 d9 bf
       -0.3184948638961148 -0.3921780219397139
000150 9e c5 21 8f 5c a4 d7 3f a9 8a 01 f6 de 08 b9 3f
       0.3694068334362671 0.09779160982138059
000160 18 af cd 65 b4 55 d7 3f 69 63 18 a4 d7 06 b6 bf
       0.3646059984373422 -0.08604190593940832
000170 3f 09 5c 5b a9 28 d0 bf 6d 11 3b 1c d8 2a da 3f
       -0.2524817840750479 0.4088650012675064
000180 58 98 52 cb fd 9c af bf 82 26 6e df 44 19 d5 bf
       -0.06174462420430932 -0.32966729945528794
000190 54 f8 f4 1f 0c 05 ce bf 5a 3f 75 0c 08 7c d0 3f
       -0.2345290332831974 0.2575702783260475
0001a0 e8 35 1a 60 13 7b a0 3f 8b f0 10 0f 50 b4 d8 3f
       0.0321889929592592 0.3860054156427927
0001b0 ba 9d 0d cc 0b bd d6 3f 62 6c f5 5e 54 c9 dd 3f
       0.3552884571749605 0.46541318200406157
0001c0 22 85 57 38 86 30 d0 3f 69 21 9b e7 1f 3c d0 bf
       0.2529616880620599 -0.2536697160508284
0001d0 ac 15 9e 24 9c 64 c0 3f 27 15 b5 84 08 d4 dd bf
       0.12807037151303058 -0.4660664840669874
0001e0 b5 7c 74 59 43 b3 d7 bf 78 61 64 a2 ba 31 c3 3f
       -0.3703163503250367 0.1499551098757015
0001f0 bd 22 63 95 ee 8d df bf 44 6b ab ac 25 a1 9d 3f
       -0.49303783978079335 0.028935040153423644
000200 1a 5b 60 f8 1f 9e d3 bf c8 ec 80 b7 75 89 d3 bf
       -0.30652617698199125 -0.3052648822810622
000210 ca ac c9 21 4c e5 d6 bf d4 56 6d 33 5d 8f d3 3f
       -0.3577452020605959 0.30562524816683134
000220 4e b6 58 2c 3a 28 db bf 1c d7 47 2a 54 da db 3f
       -0.424330275828514 0.43520073060004605
000230 87 15 e6 b8 a0 f9 72 bf 31 7a c5 bd 22 b0 dc 3f
       -0.0046325948918640785 0.4482504704700743
000240 0e b6 5d bb 84 13 d0 bf a3 20 63 2f 0c b4 dc 3f
       -0.25119131371943204 0.4484892332807339
000250 70 b0 77 7e 35 27 d4 bf 8c d3 61 56 e9 69 d6 bf
       -0.3148931250605136 -0.3502143233848123
000260 95 3f c9 88 bd 5e c3 3f 4f 6a 1c 3f a2 35 cc bf
       0.15132874659547882 -0.2203867729338804
000270 fc 34 cf 75 9e 75 c0 bf df 75 e2 cc 0e 70 c0 bf
       -0.12858944656765192 -0.12841973308688545
000280 a9 46 da 32 d2 b7 c4 bf a5 94 02 9f 4c 80 dd bf
       -0.1618597744277868 -0.4609557679016894
000290 c9 8c ce d8 84 d7 cc bf b9 2f 07 6d 56 7d d5 3f
       -0.22532711588164592 0.3357750000693574
0002a0 e1 7e 27 73 cf f3 dc bf 2a b5 79 74 e4 a7 96 3f
       -0.45238100286040434 0.02212483368787336
0002b0 32 67 a7 db 81 f7 a9 bf f6 1c f1 ce c4 a8 9b 3f
       -0.05071645551988836 0.02701098931381992
0002c0 bc d7 b6 c1 48 85 c3 3f 30 ab bc b3 4c cd a2 bf
       0.15250501116469006 -0.036722561779546914
0002d0 01 ef a6 4c a6 df dc bf 1f 75 dd 02 e6 69 d9 bf
       -0.45115048871569746 -0.3970885303477462
0002e0 df 9c a5 d9 93 2b dc 3f 5b 54 00 6c 5f cf bf 3f
       0.4401597619493724 0.12425800692320037
0002f0 d3 4f dc 59 ed 30 d2 bf d2 5b 80 b3 14 06 79 3f
       -0.2842362763924459 0.0061093147887935784
000300 fd 6f 34 78 0e 66 c4 bf a1 d5 15 d6 ff 38 b7 3f
       -0.15936451787354136 0.09071349121753382
000310 1a 61 4e 47 3e f2 da 3f ea 01 1d 59 94 67 d5 3f
       0.42103535617344934 0.33444699003669476
000320 0c 10 8f 9d 8c eb c2 3f 12 7b 0d aa 12 af d5 bf
       0.14781339352896372 -0.33881060225205417
000330 d9 e7 58 7e da bc c6 bf 51 39 38 67 a8 34 ac 3f
       -0.17763835114766272 0.05508924732213195
000340 e1 f7 ab 58 24 43 d9 bf c1 95 9c 6a e0 68 94 bf
       -0.39472302111960117 -0.01993132258134778
000350 25 22 b1 3d 17 d5 dc bf 6f 6b eb 6f 06 74 d9 3f
       -0.45050602936365386 0.39770661286973213
000360 ca 78 20 93 fd 93 ba bf 79 3f d8 f8 d6 0b dc bf
       -0.10382065622295325 -0.43822264004938166
000370 cf 89 f4 4d 81 a4 ca bf 6b 1e d4 c8 54 35 6b 3f
       -0.20814529711158378 0.0033213287302976033
000380 90 8a 36 45 75 ad d5 3f 8d 9d a9 83 56 37 dc 3f
       0.3387120414646825 0.44087756021186736
000390 64 7e ca 9c 17 8b c5 3f ca 3b 98 8d 7d 19 b0 3f
       0.1683072581845294 0.06288895327473579
0003a0 18 ef f3 8b 99 b4 d0 3f 00 0a 60 2a 15 b3 d4 3f
       0.261022936508867 0.32343033922384734
0003b0 a5 e0 dd ef 4e 17 c9 3f 99 87 2b dd 20 26 d8 bf
       0.19602381431810048 -0.3773271713126803
0003c0 ae f0 5f c6 2a d8 d1 bf 88 f2 49 de be 41 d4 bf
       -0.2788187920812203 -0.3165127917089099
0003d0 3e d8 8d 75 aa cc b8 3f fc c5 79 a7 1e 65 d4 3f
       0.09687295312855412 0.31867185931250197
0003e0 7d e0 02 9e 3c 0f d9 bf 0d 9e 01 45 d9 12 c0 bf
       -0.391554979617929 -0.12557521695565335
0003f0 66 27 47 e4 5a 6b c6 bf 3a 8a 1b 83 e0 0d bb 3f
       -0.17515121599563627 0.10568049622410394
000400 ed 41 2e ee 58 de de bf 6e 55 f1 bf 34 0a d6 3f
       -0.4823210073455176 0.34437292808919195
000410 b2 10 af 88 aa 2e c6 bf 90 90 aa 48 53 a6 da bf
       -0.17329913782135048 -0.41640169235530156
000420 7f 9f e0 01 11 d5 c0 bf ad d4 e4 aa 63 46 d0 bf
       -0.13150227157279556 -0.2542962235341502
000430 3c 19 fd 90 08 cb d9 3f d3 95 48 a3 d5 66 df 3f
       0.4030171790986008 0.4906515211644919
000440 2c 54 33 67 30 57 d1 3f 06 fc fd 45 b6 ec d7 bf
       0.27094659879850513 -0.37382275424164424
000450 cc e3 9e 18 93 77 ad bf 3c 48 36 2e 36 90 a1 3f
       -0.057552906756832195 0.03430337251769841
000460 77 63 ad e9 9c 98 ad bf 7a 02 2d b2 53 6b d1 3f
       -0.05780496933466044 0.27217571639997795
000470 12 83 c5 4f 5b 52 d8 3f 2d ac 43 44 a8 15 de 3f
       0.3800266531962261 0.4700718561786655
000480 96 94 6f 40 3d 64 da bf d7 71 ae 8f ac 38 a6 3f
       -0.41236811916889715 0.043401138819919964
000490 36 73 f7 9e b4 ba dd bf d2 8a d5 91 b4 f1 8c 3f
       -0.4645206024559231 0.01413289136934762
0004a0 a7 c5 69 a5 00 12 d0 bf 9d 0c ad ac 49 08 d9 bf
       -0.2510987868655214 -0.3911308466233068
0004b0 9c 58 64 5d bf a8 d4 bf 30 78 df 43 11 46 dc bf
       -0.32279953117666493 -0.44177657726493447
0004c0 17 04 02 e1 44 4c d1 3f c0 7e 53 16 54 eb d2 bf
       0.2702800938932923 -0.29561330967224464
0004d0 82 69 bd c3 64 f8 c5 3f b0 86 62 42 ad b4 c3 bf
       0.17164287145244478 -0.15395131818245522
0004e0 83 24 8e 8f 4a 75 d0 bf a2 64 c7 ab 42 36 da bf
       -0.25715888995234354 -0.4095617940452688
0004f0 5b 73 25 cf 6b 94 c7 3f 04 59 1a 08 47 21 97 3f
       0.18421695341649066 0.022587880963862453
000500 24 9d 18 bb c7 e7 ce 3f 00 0a b3 4d 71 2e d2 3f
       0.24144837031892863 0.28408463085011704
000510 1f 3c d7 cd 09 f8 c9 3f d3 a3 f0 42 5b ed d9 bf
       0.20288202811067976 -0.40511209046468116
000520 48 97 04 b0 63 f8 d4 bf 4d 8b 5a d9 75 c4 b1 3f
       -0.32766048611880594 0.06940399700628781
000530 b2 06 28 aa e4 bf ac bf 2e fb 3c 43 7e be d5 bf
       -0.05615152909377964 -0.3397517830489275
000540 18 36 03 17 b9 f3 d5 3f 14 54 9a 94 4b cd d6 bf
       0.34300067183798566 -0.3562802268218672
000550 c7 04 1f 58 ee 56 aa bf a2 76 8d 83 e0 35 d9 3f
       -0.051444481141069746 0.3939133915608669
000560 19 a2 82 de d7 05 bc 3f 4c 2d 56 81 fb 58 94 bf
       0.1094641607511523 -0.01987069107921728
000570 ce 3f f6 20 06 54 cf bf 46 00 66 fb 7a 6a d7 3f
       -0.24475170716732325 0.36587404776219434
000580 ab 95 cd 4e 4b d1 95 3f 0e be e8 10 d2 d4 dc bf
       0.02130620640254725 -0.45048953677448444
000590 05 69 3e c1 1e 25 b1 3f 85 bf 8c c5 1f 94 df bf
       0.06697265832773176 -0.49341577808353804
0005a0 b6 fd 22 95 de 62 d4 3f 4a be 33 c6 ce 18 c6 3f
       0.3185345131314209 0.1726320712837029
0005b0 e3 79 ae e7 0e b1 b7 3f 18 40 4f dc fe 70 df 3f
       0.09254544407165315 0.49127170099836937
0005c0 16 51 c8 f2 ac ae d5 bf 3d e7 9f 9b 55 a8 dc bf
       -0.3387863512919166 -0.4477743167659474
0005d0 b6 6e e0 ee 33 94 c7 3f ea d5 af f1 8f 64 d6 bf
       0.18421029247189374 -0.3498878345702382
0005e0 c9 09 ce 87 17 1b d5 bf 6f 45 b3 b6 81 97 c4 bf
       -0.3297785593241796 -0.1608736173716738
0005f0 8b 70 17 91 9f 1d d3 bf 6c 61 df 4f d2 99 df bf
       -0.2986830632123733 -0.49376352119499844
000600 12 ab 16 43 12 f1 a9 3f e2 e1 7a 44 32 48 df 3f
       0.050667353333969115 0.48878151595593355
000610 64 b5 62 51 ad 56 de 3f 7a b3 ea 45 4c 61 d2 3f
       0.47404034564791275 0.2871885950833569
000620 21 6c 47 7f a4 cd db bf 17 50 1d b7 7c b6 da 3f
       -0.43442642621602273 0.4173881328799793
000630 ba 97 bf 69 08 16 df bf 42 9a a0 99 a9 8d b8 3f
       -0.48571977927201326 0.0959115982119352
000640 47 2f 6a 10 11 51 d0 bf 9f 44 48 f7 87 bc c7 3f
       -0.2549479160595535 0.18544101309138214
000650 40 6e 31 69 3b 5c d4 bf 7b ff d2 ac bf f2 d4 3f
       -0.31812939903986504 0.3273162067161974
000660 9e 86 85 de 1a 16 d3 bf fc 2d 84 75 66 07 d1 3f
       -0.2982241795599324 0.26607667423442627
000670 3c 29 15 35 3f 3a c8 3f e7 4a 1f 8c 95 d5 b9 bf
       0.1892775544350317 -0.10091528578713459
000680 cf 79 4c 53 4e 7d d4 bf 23 cf 7e 56 d3 43 c2 3f
       -0.320148068758411 0.14269487117200538
000690 3e c9 20 25 c3 81 df 3f a9 4c ac 76 80 e2 b9 3f
       0.4922950613573852 0.10111239335337764
0006a0 d3 de 84 30 43 bf d7 bf 69 53 2a bb 4e 19 c0 3f
       -0.3710487340754131 0.1257723249333609
0006b0 bc 1f 77 8f 27 9a bc bf 28 f6 bc d0 b1 4f d9 3f
       -0.1117272114998959 0.3954891718347846
0006c0 43 eb 3d 53 fc 87 b2 bf 2c b9 28 b0 89 fb d1 3f
       -0.07238747627517932 0.28097765162501065
0006d0 e3 91 ca 5d 97 8b c2 3f 3a 83 1d 15 f8 95 df bf
       0.14488498763706933 -0.4935283857540075
0006e0 91 82 9d 18 24 93 d9 bf 73 a1 44 15 3f 76 ce bf
       -0.3996057739623576 -0.23798359430771718
0006f0 dc 60 a2 0c 6d 8a bc bf dd 54 9b 0a ef ed de 3f
       -0.1114872127385555 0.4832723239499737
000700 b0 5c 4e c0 2c 8f c2 3f da 7e 5f 39 21 14 dd 3f
       0.14499434843012216 0.45435362437090776
000710 50 1a 56 9b f5 7a d2 bf 4e f4 7f 27 b7 e2 d1 bf
       -0.28875484628261905 -0.2794626126995511
000720 64 aa a8 9e 31 be dd bf 89 d3 a6 93 2c 60 de 3f
       -0.4647335099604446 0.4746200029288095
000730 29 f5 32 89 4b 2e d5 3f 14 a4 08 64 a4 3e d7 bf
       0.3309506263575082 -0.36319837349816564
000740 23 72 3f 93 0b f3 d1 3f d7 e4 33 5d 5b 58 85 bf
       0.28045930270835323 -0.010422433645077707
000750 f4 ff b5 c6 9a 38 cd bf b7 16 c6 59 81 00 c1 3f
       -0.22828993513758145 0.13282791980252792
000760 1f e4 26 d6 3f 82 d1 bf 86 8a e8 99 57 80 b3 bf
       -0.27357479012749936 -0.07617709643867884
000770 c5 81 73 d7 81 0d cf bf e3 a6 5e 33 cf 86 c8 3f
       -0.24259970684125967 0.19161405571258347
000780 5f e4 73 b7 91 55 b7 3f af 12 70 5c 46 bd b6 bf
       0.09114943245721595 -0.08882560498029578
000790 69 e4 56 07 ef c5 db bf 42 a8 ae af fc b8 b1 3f
       -0.4339559146570254 0.06922892846219589
0007a0 ff 0d 60 26 1c 58 d7 3f 4b bd 20 d9 51 2a 9a bf
       0.36475280520991754 -0.025552061917719453
0007b0 bf 7a e2 69 e2 13 ca 3f a8 1f e1 89 b5 4f dd 3f
       0.2037318245902124 0.4579900595167552
0007c0 8b f7 64 81 a4 f8 dc 3f e0 9b 38 15 72 41 df bf
       0.45267593990490046 -0.4883694846379836
0007d0 c7 9b 48 96 85 7b dd bf 6c fe 1c 20 c5 70 d2 3f
       -0.4606641738523049 0.28813293586788435
0007e0 af 4f 08 ca 09 48 dd 3f f8 a6 9f bf 64 8f d9 bf
       0.4575218651746082 -0.3993770476650833
0007f0 67 fa 54 0c 51 7e d7 3f bb 50 1e ef 56 86 da bf
       0.3670847530774268 -0.4144494376316847
